第六次作业10245501405杨云天/model/Agricultural Sciences.pth (torch, 15505 bytes, 7 tensors)

network.0.weight f4 [64, 3]
0	0x3ec05256	0.37562817
1	0x3eae883f	0.34088323
2	0x3e0fda20	0.14048052
3	0xbd6d7b76	-0.05797907
4	0x3fbccee0	1.4750633
5	0xbd48cb9c	-0.049022302
6	0x3ebfe910	0.374825
7	0x3e85a61e	0.261033
8	0xbc84f6a4	-0.016230889
9	0xbecda8b2	-0.40167767
10	0x3f0bb441	0.5457192
11	0xbedec2ba	-0.4350794
12	0x3ac2d8c1	0.0014865623
13	0x3d264865	0.040596385
14	0xbef34829	-0.4751599
15	0xbea94ed4	-0.33067954
16	0xbc722d9a	-0.01478138
17	0x3e50db09	0.20396055
18	0xbf7118fc	-0.9417875
19	0xbf80d976	-1.0066364
20	0xbf57fd30	-0.8437071
21	0x3f0b72c9	0.54472023
22	0x3f8984f7	1.0743703
23	0x3eb04674	0.3442875
24	0xbe91ac9d	-0.28452006
25	0x3e46f4de	0.19429347
26	0xbe856424	-0.26052964
27	0x3ebdaf92	0.37048012
28	0xbe84fceb	-0.2597421
29	0x3f0d6516	0.5523237
30	0xbef9a7c8	-0.4876082
31	0xbc6e0ebf	-0.014529883
32	0x3e05117f	0.12994955
33	0xbe74dc94	-0.23912269
34	0xbf93e1dd	-1.1553303
35	0x3e45da70	0.19321609
36	0x39a363df	0.00031164192
37	0x3dda884d	0.106705286
38	0xbe44a711	-0.19204356
39	0xbf8d83c4	-1.1055837
40	0xbf59a5af	-0.8501844
41	0xbf845a98	-1.0340147
42	0xbea24628	-0.3169415
43	0x3ea2b8b7	0.3178155
44	0xbeead917	-0.4586875
45	0xbdb63d0a	-0.08898361
46	0xbef8550a	-0.4850238
47	0x3ebc8c6a	0.36825877
48	0x3f0ddad3	0.55412024
49	0x3d4fcdf9	0.05073354
50	0xbdfefa7b	-0.12450119
51	0x3db7185c	0.08940193
52	0x3d6b52d2	0.05745203
53	0xbec82981	-0.39094165
54	0x3edd19b2	0.43183666
55	0xbea50324	-0.3222896
56	0x3d9334a9	0.071877785
57	0xbf69efb8	-0.91381407
58	0xbf4a9e30	-0.79147625
59	0xbf531674	-0.82456136
60	0x3da017ee	0.07817064
61	0x3dfa0f3a	0.122099355
62	0xbea1cbcd	-0.316008
63	0xbee841f5	-0.4536282
64	0x3de8c776	0.11366169
65	0x3e635c6e	0.22203228
66	0xbedbd7fa	-0.42938215
67	0xbe250252	-0.16114166
68	0x3e1e88db	0.15481894
69	0x3edd372b	0.43206152
70	0xbe674b2f	-0.22587274
71	0xbeeb74ad	-0.45987454
72	0xbec6e75c	-0.38848388
73	0xbfbc3013	-1.4702171
74	0xbec29635	-0.38005224
75	0xbe1c6ecf	-0.15276645
76	0x3fcac338	1.5840826
77	0xbe12fad5	-0.14353497
78	0x3d01f040	0.03172326
79	0xbf0b38ad	-0.54383355
80	0x3ec4961e	0.3839578
81	0xbe6fffe8	-0.23437464
82	0xbf896be0	-1.0736046
83	0xbf3493d5	-0.70538074
84	0x3e7a1fc1	0.24426176
85	0xbe4e8c0c	-0.20170611
86	0xbdfddb57	-0.123953514
87	0x3f299101	0.66236883
88	0x3f9451d9	1.1587478
89	0x3ee9165b	0.45524868
90	0x3f00a753	0.50255316
91	0x3e4cc2ad	0.19996138
92	0x3e571b4c	0.21006507
93	0xbe156b78	-0.14591777
94	0x3fcefee9	1.6171542
95	0xbcc55289	-0.024087207
96	0x3e9d8091	0.3076215
97	0x3ef3f605	0.47648636
98	0x3efcabbe	0.4934978
99	0x3e2c8f65	0.16851576
100	0xbda6c667	-0.08143311
101	0x3dadd5fa	0.084880784
102	0xbea51566	-0.32242888
103	0xbf51d991	-0.81972605
104	0xbf74871d	-0.95518667
105	0xbd845b2c	-0.06462702
106	0x3e8f5b10	0.27999163
107	0xbe0b6c51	-0.13615538
108	0xbeaf1708	-0.3419726
109	0xbeb76078	-0.35815787
110	0x3e22db2f	0.15903924
111	0xbf4aab02	-0.7916719
112	0xbf478e25	-0.7795127
113	0xbf5368c2	-0.8258172
114	0xbe811265	-0.25209346
115	0x3e14a5dc	0.14516395
116	0x3eb8e841	0.36114696
117	0xbf3d2497	-0.73883957
118	0xbf63346a	-0.8875185
119	0xbbd9bc9c	-0.0066447984
120	0xbd90220f	-0.07037746
121	0xbc8ecfd7	-0.01743309
122	0x3ee8b443	0.4545003
123	0xbe81686f	-0.2527499
124	0x3febca2d	1.8421074
125	0x3dd6c347	0.10486465
126	0x3d9573e8	0.07297498
127	0xbdf67ecf	-0.120359056
128	0x3f182f0f	0.59446806
129	0x3e8dc1cd	0.2768692
130	0x3fc26924	1.5188336
131	0xbe471c03	-0.1944428
132	0x3f0eeb57	0.5582785
133	0xbe96cb05	-0.29451767
134	0x3ee6f2c2	0.45107085
135	0x3e1a6291	0.15076663
136	0xbd296fbf	-0.041366335
137	0xbee683a1	-0.450223
138	0x3f471219	0.7776199
139	0x3f8e9d12	1.1141684
140	0x3ecec1c0	0.40382195
141	0xbd84fc1c	-0.064933985
142	0x3d293c4b	0.041317265
143	0x3eb16b07	0.34651968
144	0xbf5e938b	-0.8694388
145	0xbfb73b9f	-1.431507
146	0x3de668ae	0.11250435
147	0x3e0eca46	0.13944349
148	0x3fbe6f8d	1.4877793
149	0x3eee0712	0.4648977
150	0x3d66260f	0.05618864
151	0xbfd33578	-1.6500692
152	0xbeb279f5	-0.3485867
153	0x3f3bd229	0.73367554
154	0x3f9140a4	1.1347852
155	0xbe7de9ed	-0.24796267
156	0x3ef717c4	0.4826032
157	0x3e6cfe00	0.23143768
158	0x3f11d773	0.56969374
159	0xbf15a05c	-0.58447814
160	0xbf6a8c8b	-0.916207
161	0xbea95fdc	-0.33080947
162	0xbf13436d	-0.5752476
163	0xbf436c90	-0.7633753
164	0xbf1f3ffc	-0.6220701
165	0x3ec212d4	0.3790499
166	0xbde63dde	-0.11242269
167	0xbdbcda5f	-0.092213385
168	0x3ddb89a9	0.10719616
169	0x3f9ea10f	1.2392901
170	0x3e27a7c9	0.16372599
171	0x3df807d1	0.12110866
172	0x3f9ffc85	1.2498938
173	0x3edc9012	0.43078667
174	0xbe910568	-0.28324437
175	0xbe8b81cc	-0.27247465
176	0xbd53a943	-0.051675092
177	0xbf5beea5	-0.8591102
178	0xbf8416ef	-1.0319499
179	0xbe5754df	-0.2102847
180	0x3d11c4bf	0.035588022
181	0xbf02b3a5	-0.51055366
182	0xbefa6477	-0.48904774
183	0xbcf9f5aa	-0.03051265
184	0xbf9d31f1	-1.2280866
185	0xbf21949f	-0.631174
186	0xbf610d50	-0.8791094
187	0xbfbc8d27	-1.4730576
188	0x3e1239ac	0.14279813
189	0xbed1c563	-0.40970907
190	0xbecc4ed2	-0.39903885
191	0xbe73d1a5	-0.23810442

network.0.bias f4 [64]
0	0xbb0b24b3	-0.0021231591
1	0xbaadfa2a	-0.0013273407
2	0xbee5b0ff	-0.448616
3	0xbeeb02fe	-0.4590072
4	0xbd77981c	-0.060447797
5	0xbd78a1fb	-0.06070135
6	0x3d0f81b8	0.03503582
7	0xbd051160	-0.032487273
8	0xbef72a85	-0.48274627
9	0xbf0449a9	-0.51674896
10	0x3db7c9e8	0.089740574
11	0x3d69b375	0.05705591
12	0xbea07fe1	-0.31347564
13	0x3e3a7453	0.18208437
14	0xbf067ba6	-0.5253242
15	0xbe1681a2	-0.14697888
16	0xbe95d50f	-0.29264113
17	0xbe61ab38	-0.22037971
18	0xbeef76df	-0.4677038
19	0x3d930b09	0.07179839
20	0xbebde5e9	-0.3708947
21	0xbede704d	-0.43445054
22	0xbe071bbd	-0.13194175
23	0xbe460466	-0.19337615
24	0x3cfb0ab8	0.03064476
25	0xb90487c4	-0.00012639078
26	0xbe898f9b	-0.26867375
27	0x3e1dc9eb	0.15409057
28	0xbeb92e8e	-0.3616833
29	0xbd5f9e51	-0.05459434
30	0x3e3c39c8	0.18381417
31	0xba927487	-0.0011173644
32	0x3df675c5	0.120341815
33	0xbedcffc0	-0.43163872
34	0x3cae2a80	0.0212605
35	0xbe6823e4	-0.22669941
36	0xbe83ee4e	-0.2576775
37	0x3d0df913	0.034661364
38	0xbeca10ca	-0.39465934
39	0x3e266644	0.16249949
40	0xbebce1c0	-0.36890984
41	0x3b048182	0.0020218794
42	0x3d31bea3	0.043394696
43	0xbbe68114	-0.0070344303
44	0xbf08c3e1	-0.5342389
45	0xbcfea0b8	-0.031082496
46	0xbd42a721	-0.047522668
47	0xbf0eb83b	-0.55749863
48	0x3cb67629	0.02227314
49	0xbca51fa8	-0.020156696
50	0x3cc18844	0.023624547
51	0xbc8218f2	-0.015881035
52	0x3e12ce81	0.14336587
53	0x3e62b966	0.22141036
54	0x3ca3b928	0.01998575
55	0xbee9044f	-0.455111
56	0xbbc30806	-0.005951884
57	0xbc8de71e	-0.01732212
58	0xbb8f856a	-0.004379918
59	0x3e255a11	0.16147639
60	0xbe25f6ef	-0.16207479
61	0x3d9e9c4a	0.077446535
62	0x3cd2a1cd	0.025711918
63	0xbe8dd287	-0.27699682

network.3.weight f4 [32, 64]
0	0xbd85e9a7	-0.06538706
1	0x3db04ee6	0.08608799
2	0xbd687c8e	-0.05675941
3	0x38e07000	0.00010702014
4	0xbde3ce02	-0.11123277
5	0xbdd830f6	-0.105562136
6	0x3c75f63a	0.015012318
7	0x3c8e6bf8	0.017385468
8	0xbcc77398	-0.024347112
9	0x3d6380e4	0.05554284
10	0x3d949426	0.072548196
11	0xbde6e98c	-0.11275014
12	0x3d834010	0.06408703
13	0x3dbebc03	0.09313204
14	0xbdc33ad6	-0.095327064
15	0xbdae324a	-0.085056856
16	0xba01d78f	-0.000495308
17	0xbd3ba8d8	-0.04581532
18	0x3dc27c58	0.09496373
19	0x3dd10bca	0.10207327
20	0xbdb86830	-0.09004247
21	0x3dc57e2e	0.096432075
22	0x3cced718	0.025249049
23	0x3bcb0940	0.006196171
24	0x3d03b6ad	0.032156635
25	0xbd1773cb	-0.036975663
26	0x3d4bd538	0.049763888
27	0xbd13c786	-0.036078952
28	0x3dadbc68	0.08483201
29	0x3ba0c2fe	0.0049060574
30	0x3b1f69a0	0.0024324432
31	0x3cc05dfa	0.023482312
32	0x3c6c1483	0.014409187
33	0x3b3eac40	0.0029094368
34	0xbcd14294	-0.025544442
35	0x3dd70de0	0.10500693
36	0xbd82b9ce	-0.06383096
37	0xbd85552f	-0.06510388
38	0x3dadba74	0.08482829
39	0xbd4f54a1	-0.050617818
40	0x3d854f1a	0.06509228
41	0xbde65363	-0.112463735
42	0xbd26de8f	-0.040739592
43	0x3b24e556	0.002516111
44	0xbdf1df82	-0.11810209
45	0x3ddfcafa	0.109273866
46	0xbd8b15f3	-0.06791296
47	0xbc5c1e00	-0.013434887
48	0xbe04ad91	-0.12956835
49	0xbcc2727f	-0.023736237
50	0x3cec4331	0.028840633
51	0xbbe178cd	-0.0068808557
52	0xbd56c5ec	-0.052434847
53	0x3d0779c8	0.033075124
54	0x3aafd717	0.0013415542
55	0xbb36c8c0	-0.0027890652
56	0xbcb122b6	-0.021622997
57	0xbc734d2e	-0.014849944
58	0xbdcd7fbe	-0.100341305
59	0xbdb304e6	-0.08741169
60	0xbc96ed38	-0.018423662
61	0xbdf93958	-0.121691406
62	0xbd8f7ac9	-0.07005841
63	0x3c902820	0.017597258
64	0x3dbd1bcc	0.092338175
65	0xbf4ba994	-0.7955563
66	0xbd098184	-0.03357078
67	0xbdf08e5a	-0.117459014
68	0xbd82530c	-0.06363496
69	0xbdc35b80	-0.095389366
70	0x3eafe554	0.3435465
71	0xbee84d25	-0.45371357
72	0x3da9182c	0.082565635
73	0x3d05ed6c	0.032697126
74	0x3cd5bc60	0.0260908
75	0xbd872e13	-0.06600585
76	0xbcbfb910	-0.023403674
77	0x3a827772	0.000995381
78	0x3d0e8af8	0.0348005
79	0x3dd45b12	0.10368933
80	0x3d1a7898	0.037712663
81	0x3d84082e	0.06446873
82	0xbdac2906	-0.08406262
83	0x3c793609	0.015210637
84	0xbd23438c	-0.03985934
85	0xbdf76630	-0.120800376
86	0xbc9ad848	-0.018901959
87	0xbdacf510	-0.084451795
88	0x3e89c5bd	0.26908675
89	0xbf7bb862	-0.9832822
90	0x3d82f6e4	0.06394747
91	0xbcebd935	-0.028790096
92	0xbdb8d970	-0.09025848
93	0xbdfcdc89	-0.12346751
94	0xbc89c0f3	-0.016815638
95	0xbf401e74	-0.7504647
96	0x3b11cca2	0.0022247215
97	0xbcd51b88	-0.026014104
98	0x3ed23646	0.41057032
99	0xbdfa938e	-0.12235175
100	0xbd16837c	-0.036746487
101	0x3e9c01b8	0.3047006
102	0xbdd59df8	-0.10430521
103	0x3d04147d	0.0322461
104	0xbd5d75d0	-0.054067433
105	0xbd40d2dd	-0.047076095
106	0xbd718bb6	-0.05897113
107	0xbf0b4db7	-0.5441546
108	0x3c154300	0.009110212
109	0xbd7fbe78	-0.062437505
110	0xbd459117	-0.04823407
111	0xbdad81a2	-0.08471991
112	0x3f039df7	0.5141291
113	0xbdb66bba	-0.08907266
114	0x3ee725e4	0.45146096
115	0xbd4a8c5a	-0.049450256
116	0xbcc0bbd2	-0.02352706
117	0xbc0d7e73	-0.008636105
118	0x3eae08d2	0.33991104
119	0x3c9f7cb8	0.01946865
120	0xbe10856f	-0.14113401
121	0xbf0c0476	-0.54694307
122	0x3d91fa4e	0.0712782
123	0xbcc1c4d8	-0.023653433
124	0xbdad8d7e	-0.08474253
125	0xbd279be1	-0.040920142
126	0x3e63e837	0.22256552
127	0x3d46b928	0.048516423
128	0xbdb62fb6	-0.08895819
129	0x3ed9748e	0.42471737
130	0x3dbc3523	0.091898225
131	0xbd01232c	-0.031527683
132	0xbd483268	-0.048876196
133	0xbd99d8f4	-0.07512084
134	0xbe489bc0	-0.19590664
135	0x3edc9820	0.43084812
136	0xbdc696a6	-0.09696703
137	0xbd5badd1	-0.05363256
138	0x3c2a40a4	0.010391388
139	0xbd6e3c0e	-0.05816274
140	0xbcdb1180	-0.026741743
141	0x3d51b4f9	0.05119798
142	0xbc0646c0	-0.008195579
143	0xbd8e3890	-0.06944382
144	0x3d180784	0.037116542
145	0x3dd0ae68	0.10189515
146	0xba06c900	-0.00051416457
147	0x3d5f4e1e	0.054517858
148	0x3d3997c8	0.045310766
149	0x3ad82680	0.0016490966
150	0x3c512e00	0.012767315
151	0xbc95db78	-0.018293127
152	0xbe0cafe6	-0.13738975
153	0x3f0cdef5	0.55027705
154	0x3d308718	0.043097585
155	0xbc4a96f2	-0.01236509
156	0x3d553ae4	0.052058116
157	0x3e87a53a	0.26493245
158	0x3ccb2e9f	0.024802504
159	0x3ed1ed91	0.4100156
160	0xbcccf468	-0.025018886
161	0xbd9aef36	-0.07565157
162	0xbe9731d6	-0.2953021
163	0x3c9b68b8	0.018970832
164	0xbccf3660	-0.025294483
165	0xbea9488f	-0.3306317
166	0x3d236560	0.0398916
167	0x3d27e4c4	0.040989652
168	0x3d9c625e	0.076359496
169	0x3e51305c	0.20428604
170	0x3d920a45	0.07130865
171	0x3ea29d09	0.31760433
172	0x3d7a58d2	0.061119862
173	0x3d2b0768	0.04175511
174	0x3de7dcd2	0.11321415
175	0xbd8096aa	-0.06278737
176	0xbe9c1517	-0.3048484
177	0x3e752a69	0.2394196
178	0xbe65bb69	-0.22434773
179	0x3e17a038	0.14807212
180	0x3d758af9	0.059946988
181	0x3cf132e5	0.029443214
182	0xbd980854	-0.074234635
183	0xbd74858c	-0.059697673
184	0x3d83959b	0.06425019
185	0x3e859953	0.2609354
186	0xbceabe80	-0.02865529
187	0x3d60330b	0.05473618
188	0xbdeadeb8	-0.114682615
189	0xbc57034c	-0.013123345
190	0xbe021310	-0.12702584
191	0xbdb85ace	-0.090016946
192	0xbcac7d78	-0.021055922
193	0x3e45ef5b	0.19329588
194	0xbaab7b5a	-0.0013083026
195	0x3d88c7d6	0.06678741
196	0x3dff80e0	0.12475753
197	0x3dcb87e4	0.099380285
198	0xbe71ad81	-0.23601343
199	0x3e2a60dc	0.16638511
200	0xbdd703e4	-0.10498789
201	0xbca55082	-0.02017999
202	0xbdb74b93	-0.089499615
203	0xbebc5797	-0.36785576
204	0xbddd42b2	-0.10803737
205	0xbdda8dd0	-0.1067158
206	0x3b93dc80	0.0045123696
207	0x3c8ae318	0.01695399
208	0x3c583530	0.013196275
209	0xbccec7c8	-0.025241747
210	0x3d9ed574	0.07755557
211	0xbcb172a3	-0.021661108
212	0xbd375958	-0.04476294
213	0xbd4d7ffc	-0.050170884
214	0xbdfb52ec	-0.122716755
215	0x3da18c96	0.07888143
216	0xbd69397a	-0.05693958
217	0xbc295c4c	-0.010336947
218	0x3c633830	0.013868377
219	0xbd788f27	-0.060683396
220	0x3ddea7a8	0.10871822
221	0x3ebadf86	0.3649866
222	0xbc35ca93	-0.011095661
223	0xbbda95e6	-0.0066707013
224	0x3d374510	0.044743598
225	0x3dfb0a8a	0.122578695
226	0xbc58a04c	-0.0132218115
227	0x3cc9c960	0.024632156
228	0x3d8f2ea0	0.06991315
229	0xbe4aebcf	-0.19816516
230	0x3dde119e	0.10843204
231	0xbd8bd6a8	-0.06828052
232	0xbd5198ac	-0.05117099
233	0x3e8908f2	0.26764637
234	0xbd5da348	-0.054110795
235	0xbdc98e69	-0.09841616
236	0x3def7d40	0.116938114
237	0xbc664aa0	-0.014055878
238	0x3eca1c84	0.3947488
239	0xbc636a80	-0.013880372
240	0xbe9f84c3	-0.31155977
241	0x3e8a93a5	0.2706577
242	0xbe38313b	-0.1798753
243	0x3e771287	0.24128161
244	0xbc42f3d5	-0.011898954
245	0xbde0091f	-0.1093924
246	0xbdd257c0	-0.10270643
247	0xbd80fb20	-0.06297898
248	0x3ec36ef7	0.38170597
249	0x3e46fd67	0.19432603
250	0x3db98892	0.09059252
251	0xbdeb9701	-0.11503411
252	0x3d4a6178	0.04940936
253	0xbe8541f5	-0.26026884
254	0xbe6678ed	-0.22507067
255	0xbd27f14c	-0.041001603

network.3.bias f4 [32]
0	0xbdf2d4ce	-0.118569955
1	0x3d1436ab	0.036184948
2	0xbd27ceb6	-0.04096862
3	0x3d3e7eb0	0.046507537
4	0x3d598166	0.05310192
5	0xbbc8317f	-0.006109416
6	0x3c11dd3f	0.008902847
7	0xbbd4d1d8	-0.006494742
8	0x3da8a671	0.08234871
9	0x3d29efb4	0.041488364
10	0xbcbbc906	-0.022923004
11	0xbbdf5df7	-0.0068166214
12	0x3cf076a9	0.029353457
13	0xbce4e3cd	-0.027940655
14	0x3d05cc24	0.032665387
15	0x3cb6b800	0.022304535
16	0x3d7f8dc1	0.062391046
17	0x3d850260	0.064945936
18	0xbc3cce62	-0.011523815
19	0x3d60d7ba	0.054893233
20	0x3d5e4696	0.054266535
21	0xbda16c34	-0.07881966
22	0xbd76365d	-0.06011044
23	0xbd096915	-0.03354748
24	0xbc33a01a	-0.010963464
25	0xbc386a4b	-0.011255811
26	0xb9bcaa91	-0.00035985236
27	0x3d37acc4	0.044842497
28	0x3d4ea903	0.05045415
29	0xbcf10279	-0.029420124
30	0xbca1c519	-0.019747304
31	0x3d4fc73b	0.05072711

network.6.weight f4 [16, 32]
0	0xbe1327f3	-0.14370708
1	0x3f088eaa	0.5334269
2	0xbe48edd4	-0.19621974
3	0xbdb0468e	-0.08607207
4	0x3ee88c0e	0.45419353
5	0xbe9182bf	-0.28420064
6	0xb5cd6a80	-1.5304686e-06
7	0x3efaeed9	0.4901035
8	0x3e6fb95d	0.23410554
9	0xbe90f055	-0.2830836
10	0x3ec49ebf	0.38402364
11	0x3ed932d7	0.424216
12	0x3e82ccd1	0.25546888
13	0xbe7467e3	-0.23867755
14	0x3eb23036	0.34802407
15	0x3f0e34d9	0.5554939
16	0xbe13b3e9	-0.14424099
17	0x3e0aaadd	0.13541742
18	0xbe7016e5	-0.23446234
19	0x3e5383c9	0.20655741
20	0xbe245728	-0.16048872
21	0xbcf8bbed	-0.030363047
22	0x3e074094	0.13208228
23	0xbdabeb78	-0.083945215
24	0xbe94aa8e	-0.29036373
25	0x3e0c2bb0	0.1368854
26	0x3e98aff3	0.2982174
27	0x3ea41174	0.32044566
28	0x3e9870b8	0.29773498
29	0xbe7bf01b	-0.24603312
30	0xbea985bd	-0.33109847
31	0xbdf32076	-0.11871426
32	0x3e16db99	0.14732207
33	0x3ea7dc6e	0.32785362
34	0xbe3d7bb6	-0.18504223
35	0xbe25497d	-0.16141315
36	0x3efc99c5	0.49336067
37	0xbe4d8a76	-0.2007235
38	0xbe2d4d5c	-0.16924042
39	0x3edd4f61	0.43224624
40	0x3e1b639d	0.15174718
41	0xbe629d71	-0.22130372
42	0x3ece89b7	0.40339443
43	0x3f0fb62b	0.5613734
44	0x3f0eb48d	0.5574425
45	0xbe8b1a7d	-0.27168646
46	0x3e4bf964	0.19919354
47	0x3f129e49	0.57272774
48	0xbe058578	-0.13039196
49	0x3ea3ebe5	0.3201591
50	0xbd673645	-0.05644824
51	0x3ef8955d	0.48551455
52	0xbe40c152	-0.18823746
53	0xbe052508	-0.13002408
54	0x3d9b1e94	0.07574192
55	0xbe9982bd	-0.29982558
56	0xbedf6e2d	-0.43638745
57	0x3d2ae52d	0.041722465
58	0x3d9a63c8	0.07538563
59	0x3e93d2ea	0.28871852
60	0x3ecb203c	0.3967303
61	0xbe2b29d0	-0.16715169
62	0xbdf48803	-0.11940005
63	0xbe1451e8	-0.1448437
64	0x3e163c50	0.14671445
65	0xbcc89238	-0.024483785
66	0x3db9779c	0.09056017
67	0x3e8db392	0.27676064
68	0xbe88b7d6	-0.26702756
69	0x3e222a25	0.1583639
70	0x3e6642c6	0.2248641
71	0xbe4b8b39	-0.19877328
72	0xbca5e0d2	-0.020248804
73	0x3e8484bd	0.2588252
74	0xbe635a77	-0.22202478
75	0xbe6ca24e	-0.2310879
76	0xbd8a2142	-0.06744625
77	0x3ea6a4a0	0.32547474
78	0x3d8084e0	0.06275344
79	0xbe3447b5	-0.17605479
80	0x3e0f09ea	0.13968626
81	0xbd9f51de	-0.07779287
82	0x3d25125e	0.04030072
83	0xbddf05b4	-0.1088976
84	0x3d03a553	0.032140087
85	0x3dfc66e5	0.12324313
86	0xbc97a39b	-0.01851063
87	0x3db0f7d9	0.08641023
88	0x3dfc9476	0.12333004
89	0x3d934b1f	0.071920626
90	0xbd5ae512	-0.053441115
91	0xbe0f326c	-0.13984078
92	0xbe337739	-0.17525949
93	0x3e287dbf	0.16454218
94	0x3d376af0	0.044779718
95	0x3c9cf08f	0.019157676
96	0x3e1d3181	0.15350915
97	0x3eda0a54	0.42586005
98	0xbe63f0dd	-0.22259851
99	0xbe17798a	-0.14792457
100	0x3ec9df56	0.39428204
101	0xbe55adc1	-0.20867063
102	0x3c9099d4	0.017651476
103	0x3ef31c37	0.47482464
104	0x3e500a90	0.2031653
105	0xbdfb284f	-0.12263548
106	0x3ec3a9e2	0.38215548
107	0x3e35246a	0.17689672
108	0x3e6485b5	0.2231663
109	0xbe6033a0	-0.21894693
110	0x3e86f17e	0.2635612
111	0x3e484a83	0.19559674
112	0xbd87cbef	-0.06630694
113	0x3ec07a15	0.3759314
114	0xbd8de1f4	-0.06927863
115	0x3eeb7aad	0.45992032
116	0xbe2254d4	-0.15852672
117	0xbddf6be6	-0.10909252
118	0x3da025b7	0.078196935
119	0xbeaa7bf4	-0.33297694
120	0xbe56073f	-0.20901202
121	0x3dadd9f1	0.08488835
122	0x3e8be4eb	0.27323088
123	0x3d57b0c9	0.05265883
124	0x3e9460e4	0.28980172
125	0x3cfc5e8d	0.030806804
126	0xbe9f6fee	-0.31140083
127	0xbe16ddb1	-0.14733006
128	0xbd1ff1db	-0.03904901
129	0x3dccc12d	0.09997783
130	0x3e398878	0.18118465
131	0x3e6fa770	0.23403716
132	0x3d702d3c	0.05863689
133	0x3dec1a7c	0.11528489
134	0x3dd46e62	0.10372616
135	0xbcbb9649	-0.02289881
136	0x3cd20b96	0.02564029
137	0x3e42bb62	0.19016793
138	0x3be73293	0.0070555895
139	0xbe1e3ddf	-0.1545329
140	0x3e019ba6	0.12657031
141	0x3e174045	0.1477061
142	0xba567a6d	-0.0008181695
143	0x3d6d1f84	0.057891384
144	0x3dafb65c	0.08579704
145	0xbe0e743f	-0.13911532
146	0x3e0d53e1	0.13801529
147	0xbe071411	-0.13191248
148	0x3dec2a11	0.11531461
149	0x3e26e7b7	0.1629933
150	0xbc86fb58	-0.016477272
151	0x3e4a93b4	0.19782907
152	0x3e759e61	0.23986198
153	0xbda0c3c8	-0.07849842
154	0xbd02d5f9	-0.03194234
155	0xbd2659d8	-0.040613025
156	0xbd21e3f7	-0.039524045
157	0xbdbbdbdb	-0.091727935
158	0x3d97c627	0.074108414
159	0x3e1d893a	0.15384379
160	0xbe2288a9	-0.15872444
161	0xbe530d71	-0.20610596
162	0x3e0d16c3	0.13778214
163	0x3e8cc562	0.2749434
164	0xbe1ebc37	-0.15501486
165	0x3d336125	0.043793816
166	0xbd351674	-0.044210866
167	0xbe4451ba	-0.19171801
168	0xbe43c63a	-0.19118586
169	0xbc155e5a	-0.009116733
170	0xbe8940b9	-0.26807192
171	0xbe77970e	-0.24178717
172	0xbcc19ff8	-0.02363585
173	0xbcf41739	-0.02979623
174	0xbda173f8	-0.078834474
175	0xbe9198c3	-0.2843686
176	0x3e0b4977	0.13602243
177	0xbe326447	-0.17421065
178	0x3d84ef7d	0.06490991
179	0xbd833bfe	-0.06407927
180	0x3e7eeb3e	0.24894425
181	0x3d095f34	0.03353806
182	0x3e4dde28	0.20104277
183	0x3e581d0b	0.21104829
184	0x3e8badd2	0.27281052
185	0x3dd06d8f	0.10177147
186	0x3d984c26	0.07436399
187	0xbe0fcdf0	-0.14043403
188	0xbe002508	-0.12514126
189	0x3d8354b9	0.06412644
190	0x3dd439e7	0.103626065
191	0x3e96a9e9	0.29426506
192	0x3d57649d	0.052586187
193	0xbe219cd1	-0.15782477
194	0x3b64e862	0.003492855
195	0x3ea062ce	0.31325382
196	0xbe9c55b6	-0.30534142
197	0x3d64415b	0.05572639
198	0x3e1f68a4	0.15567261
199	0xbe9d8d5c	-0.3077191
200	0xbd489028	-0.048965603
201	0x3e789f34	0.24279481
202	0xbea66815	-0.32501283
203	0xbe1bb356	-0.1520513
204	0xbe50e36b	-0.20399253
205	0x3d23bb9e	0.039973848
206	0x3bf79d54	0.007556597
207	0xbe909676	-0.28239793
208	0x3e7af197	0.24506222
209	0xbe5380fa	-0.2065467
210	0x3de4c56e	0.11170469
211	0xbbf1289b	-0.007359577
212	0x3b59489e	0.0033154855
213	0xbe09d248	-0.13459122
214	0x3e890501	0.2676163
215	0x3e098295	0.1342872
216	0x3e8c946a	0.2745698
217	0x3d468f66	0.0484766
218	0xbbb98b48	-0.0056623556
219	0xbe8d0f14	-0.27550566
220	0xbe05edc2	-0.13078979
221	0x3ec6fb00	0.38863373
222	0x3dae6c2e	0.085167274
223	0x3e03da55	0.12876256
224	0x3db9d113	0.09073081
225	0x3e91ec91	0.28500798
226	0xbe6823a6	-0.22669849
227	0xbe07f9e5	-0.13278921
228	0x3f02110a	0.5080725
229	0xbeb4ca73	-0.35310706
230	0xbe0d3154	-0.13788348
231	0x3ea9a868	0.33136296
232	0x3e9f6513	0.311318
233	0xbe664498	-0.22487104
234	0x3e98da85	0.29854217
235	0x3e103a0a	0.1408464
236	0x3ea8c18c	0.32960165
237	0xbdc2c20a	-0.09509666
238	0x3e9fcc65	0.31210628
239	0x3edae76a	0.4275468
240	0xbd95ea97	-0.07320135
241	0x3e65e24e	0.2244961
242	0xbe21988b	-0.15780847
243	0x3e8d26e5	0.27568737
244	0xbe4ad255	-0.19806798
245	0xbe1ee8e3	-0.15518527
246	0xbd26eaa3	-0.04075111
247	0xbe81b0f3	-0.25330314
248	0xbea6828e	-0.3252148
249	0x3daf6f6e	0.085661754
250	0x3e823104	0.2542802
251	0x3de3562e	0.11100422
252	0x3e15ecbd	0.1464109
253	0xbe3b8a85	-0.1831456
254	0xbe7f2f21	-0.24920322
255	0xbda849a1	-0.082171686

network.6.bias f4 [16]
0	0x3e1d443a	0.15358058
1	0x3e2976c5	0.16549213
2	0x3de3ce1c	0.111232966
3	0x3d5cbf09	0.053893123
4	0xbe922fd1	-0.28552106
5	0x3e0b8be9	0.1362759
6	0x3e20b129	0.15692581
7	0x3e20b76d	0.15694971
8	0x3e13f4e5	0.14448889
9	0x3e23452e	0.15944359
10	0x3dad23bd	0.08454082
11	0x3e39d455	0.18147404
12	0x3e09b6d7	0.13448654
13	0x3ea41725	0.32048908
14	0x3eae8ac6	0.3409025
15	0xbe6af26a	-0.22944036

network.8.weight f4 [1, 16]
0	0xbef523ff	-0.47879025
1	0xbf1a3a8a	-0.60245574
2	0x3ec4ca08	0.38435388
3	0xbf1069e3	-0.5641157
4	0xbf013f06	-0.5048679
5	0x3ea3ad0a	0.31967956
6	0x3e78396f	0.24240659
7	0xbf226f71	-0.63451296
8	0xbf2b9c0b	-0.6703498
9	0x3e971494	0.29507887
10	0x3e78633e	0.24256608
11	0xbf1eceb7	-0.6203417
12	0x3eff059e	0.49808973
13	0xbf054240	-0.52054214
14	0xbed6b78a	-0.41936904
15	0xbdd7813d	-0.10522697
