第六次作业10245501405杨云天/model/Biology & Biochemistry.pth (torch, 15583 bytes, 7 tensors)

network.0.weight f4 [64, 3]
-0.19958411 1.317245 -0.019513965 -0.20477992 0.49340448 -0.2025663 0.023219744 0.41854182
0.27124134 -0.15912335 -0.42264977 -0.4280013 -0.04762223 0.25694624 -0.38895926 0.30587184
0.23755388 0.46785617 -0.17749391 0.30847266 -0.5013722 0.1159224 -0.05846741 -0.496042
-0.2326568 -0.43110457 0.4457442 0.31951654 -0.45859054 -0.5156264 -0.5076458 -0.10651877
0.14965151 0.32958445 1.5084199 0.5377991 -0.7752792 -0.39634994 -0.76393586 0.26888305
-0.13560285 -0.5469574 0.5519105 0.4375525 0.2587796 0.5504598 0.2602394 0.32647336
0.28990012 -0.4097511 -0.34078136 -0.2665296 -1.1229771 -0.04900403 0.13191243 -0.24237284
0.36006218 0.31104112 0.5728691 0.50937706 -0.1352107 1.6349567 -0.035741124 0.19225885
1.6472638 0.4023363 0.17812249 0.9265103 0.7566902 -0.53529084 0.53051895 -0.25172415
0.13058643 -1.7598794 -0.32645667 0.49279913 0.9899208 0.51464564 0.6163943 1.4905581
0.4537703 -0.7413782 -0.9075829 0.30660373 -0.3562875 1.9805788 -0.19750123 0.30059028
-0.4817499 0.12369748 -0.3815575 -0.7326359 -0.3443273 0.4899809 -0.45008805 0.011554716
0.08245667 1.649081 0.23170769 -0.9994062 -0.7141261 0.13109219 0.28460458 0.33195817
0.22227892 -0.38524112 -0.16344428 -0.230153 -0.6185138 -1.7480507 -0.43348664 -0.5561996
0.66284746 -0.40429077 0.22731517 0.88439006 -0.29356095 0.06706803 1.7588428 0.26617083
0.36389232 0.025347644 0.08288486 -0.55858576 -0.8363791 -0.58344865 0.5215909 0.093507506
-0.027392343 0.6451166 1.0983248 0.6002046 -0.11277666 0.14404547 -0.33021525 -0.12926532
0.51800585 -0.53002805 0.44922832 0.25786865 -0.5441967 -0.42703226 -1.2142812 -0.029049354
-0.14240488 0.29408017 0.10447682 -0.16328055 -0.14047597 -0.42285123 -0.57937944 -1.8225843
0.0464763 -0.631159 -0.4241973 -0.67373747 0.51752126 0.5156008 0.024752742 -0.06616272
0.51201326 -0.22639057 -0.004885304 -0.24668516 -0.5561395 0.12162691 -1.457406 -0.15063906
-0.087276645 1.6871938 -0.12180837 0.4747003 0.48087245 0.47385705 0.54739946 -0.31230932
-0.13725431 0.26534232 1.3104327 0.18901384 0.65190446 0.72692066 0.76262563 0.29384294
-1.854448 -0.21239293 0.37609193 0.3038285 0.21679361 -0.1698813 -1.982023 0.512113
00000000: c75f 4cbe 7c9b a83f c0db 9fbc d4b1 51be
00000010: 839f fc3e 8a6d 4fbe 5537 be3c 1d4b d63e
00000020: 25e0 8a3e 3bf1 22be 8d65 d8be fd22 dbbe
00000030: 870f 43bd 758e 833e ab25 c7be 3c9b 9c3e
00000040: 5341 733e d88a ef3e f7c0 35be 21f0 9d3e
00000050: ee59 00bf b968 ed3d 867b 6fbd 38f9 fdbe
00000060: 963d 6ebe bdb9 dcbe 9538 e43e ac97 a33e
00000070: 61cc eabe 1700 04bf 13f5 01bf 8326 dabd
00000080: 3f3e 193e 4bbf a83e e713 c13f 34ad 093f
00000090: b378 46bf 61ee cabe 4d91 43bf 0aab 893e
000000a0: 79db 0abe 6605 0cbf 024a 0d3f e206 e03e
000000b0: c27e 843e efea 0c3f 193e 853e 8427 a73e
000000c0: ca6d 943e e5ca d1be e57a aebe 9176 88be
000000d0: b7bd 8fbf 73b8 48bd 0d14 073e 9630 78be
000000e0: 125a b83e c840 9f3e 8da7 123f 8966 023f
000000f0: ac74 0abe 4346 d13f 4965 12bd 81df 443e
00000100: 8ad9 d23f 06ff cd3e be65 363e c72f 6d3f
00000110: 73b6 413f d208 09bf 17d0 073f fde1 80be
00000120: 73b8 053e ba43 e1bf 5425 a7be 2b50 fc3e
00000130: 736b 7d3f d1bf 033f 04cc 1d3f 9cca be3f
00000140: 9554 e83e f6ca 3dbf 5a57 68bf 2afb 9c3e
00000150: 516b b6be 9b83 fd3f c33d 4abe f8e6 993e
00000160: eca7 f6be 1b55 fd3d 815b c3be 078e 3bbf
00000170: ab4b b0be c7de fa3e f171 e6be fe4f 3d3c
00000180: 0bdf a83d 1615 d33f c844 6d3e 16d9 7fbf
00000190: f8d0 36bf 083d 063e b1b7 913e 6cf6 a93e
000001a0: 169d 633e 533e c5be f05d 27be 3aad 6bbe
000001b0: ec56 1ebf 20c0 dfbf f6f1 ddbe 1963 0ebf
000001c0: 5fb0 293f 33ff cebe 4fc5 683e 6367 623f
000001d0: 9f4d 96be f75a 893d c321 e13f 8b47 883e
000001e0: 1850 ba3e dda5 cf3c 8abf a93d 7aff 0ebf
000001f0: f11c 56bf e45c 15bf fb86 053f dd80 bf3d
00000200: e865 e0bc 5d26 253f e895 8c3f 02a7 193f
00000210: 73f7 e6bd a880 133e f911 a9be 215e 04be
00000220: 089c 043f ebaf 07bf 4101 e63e 5c07 843e
00000230: 7a50 0bbf f9a3 dabe 916d 9bbf e9f8 edbc
00000240: 96d2 11be ad91 963e f1f7 d53d 0433 27be
00000250: efd8 0fbe f57f d8be 3652 14bf 714a e9bf
00000260: ef5d 3e3d a393 21bf 6330 d9be 0f7a 2cbf
00000270: 467c 043f 6afe 033f 43c6 ca3c 5280 87bd
00000280: 4d13 033f eed2 67be e614 a0bb 099b 7cbe
00000290: 295f 0ebf 8817 f93d 488c babf 2041 1abe
000002a0: 19be b2bd f7f5 d73f ab76 f9bd eb0b f33e
000002b0: ea34 f63e 649d f23e 5f22 0c3f 02e7 9fbe
000002c0: 658c 0cbe f3da 873e 42bc a73f d88c 413e
000002d0: 36e3 263f 7917 3a3f 6f3b 433f 9572 963e
000002e0: 8d5e edbf 887d 59be 1f8f c03e 698f 9b3e
000002f0: 25ff 5d3e 5df5 2dbe eeb2 fdbf d619 033f

network.0.bias f4 [64]
0.0022976387 -0.37753782 0.12485999 -0.50458735 -0.16902217 -0.4489049 -0.034687508 -0.22138979
-0.40168056 -0.25061592 -0.57309425 -0.024191521 0.03499391 -0.16259642 0.013906266 -0.52426213
0.057197947 0.11762226 -0.34670308 0.20137921 -0.0021240518 -0.0061248257 0.11551501 -0.030634787
0.015374526 -0.03409014 -0.021389153 0.10355549 -0.00012174355 -0.19701035 0.10667615 0.028757788
-0.003088207 0.23559156 -0.36362445 -0.31515816 0.021331893 0.066538975 0.07348594 -0.00358087
-0.18146415 0.20545682 -0.5152738 -0.03598399 -0.17393756 -0.11137035 -0.21360365 0.051774368
0.070535235 -0.36006033 0.021608943 0.07331634 -0.59485203 0.048330333 -0.17233324 0.035976
-0.0001939653 -0.5895759 -0.35757565 -0.006259285 0.10208377 0.012620841 -0.41171238 0.007159131
00000000: fb93 163b a34c c1be 98b6 ff3d a32c 01bf
00000010: 2614 2dbe ddd6 e5be 7d14 0ebd 01b4 62be
00000020: 13a9 cdbe bb50 80be 4eb6 12bf 4c2d c6bc
00000030: c655 0f3d ad7f 26be 1bd7 633c 0b36 06bf
00000040: 6548 6a3d f0e3 f03d 1183 b1be 5a36 4e3e
00000050: ad33 0bbb c3b2 c8bb 2293 ec3d cef5 fabc
00000060: 70e5 7b3c 1aa2 0bbd 4e38 afbc e714 d43d
00000070: 9250 ffb8 15bd 49be 0679 da3d 7495 eb3c
00000080: 8463 4abb ea3e 713e fc2c babe 695c a1be
00000090: 39c0 ae3c 9645 883d cc7f 963d 08ad 6abb
000000a0: bdd1 39be 4663 523e fce8 03bf f363 13bd
000000b0: b01c 32be 2316 e4bd eaba 5abe 5c11 543d
000000c0: c774 903d d459 b8be 3d05 b13c e126 963d
000000d0: 3948 18bf 07f6 453d 2078 30be 925b 133d
000000e0: 2a63 4bb9 72ee 16bf 2814 b7be b01a cdbb
000000f0: 4c11 d13d a5c7 4e3c f7cb d2be 2597 ea3b

network.3.weight f4 [32, 64]
0.002984585 -0.0034451038 0.00021199354 0.09743944 -0.080173805 0.09761352 -0.011370957 0.07920767
0.035628647 0.077461824 0.07974541 -0.49418604 -0.009297931 -0.066405475 -0.03655268 0.029466491
0.015943957 0.008607847 -0.08364558 0.0046396693 -0.78782886 -0.60264176 -0.013862725 -0.10591632
0.2224464 -0.41178262 -0.15057875 -0.018995965 -0.84910256 -0.045879856 0.03778032 0.012497911
-0.5129366 -0.0141680855 -0.0032240748 -0.008287683 0.5617189 -0.011345919 0.030903324 -0.62820894
-0.0806393 0.00020974287 0.11220394 -0.15471832 -0.024526477 -0.046177357 -0.097778104 0.057937507
-0.05507532 0.08119233 0.20849523 0.021569336 -0.032182217 -0.050277982 -0.0922838 -0.037962034
-0.7473508 -0.08916329 -0.05743076 -0.5065109 -0.0431193 0.048212 -0.05400322 0.6415197
0.09581143 -0.05539167 -0.012842044 -0.015189901 -0.08439961 0.04308967 -0.09152956 0.051271796
0.0020884722 -0.0688304 -0.11890642 0.18257247 0.038531236 -0.025425598 -0.03595688 -0.045984387
-0.015110982 -0.02243309 -0.011276469 0.013125012 0.4088207 0.12745671 0.035716496 -0.020174414
-0.12611936 0.44438177 0.21931113 -0.11648589 0.6842455 -0.06962252 -0.0014423516 0.026566941
0.24117401 -0.037005886 -0.046760805 -0.020482585 -0.4340267 -0.0007338585 0.046001185 0.3374352
0.11307552 -0.06616009 -0.088612914 0.5039759 -0.033021107 -0.049864426 -0.10469551 -0.1369271
-0.0246157 -0.07408315 -0.30416107 0.030751929 -0.022237167 -0.027028693 0.07666585 -0.1444381
0.32503355 0.10838009 0.016303733 0.27320218 -0.024080917 -0.2228236 -0.09553759 -0.48820215
0.019796204 -0.091794655 -0.0033285161 0.057829157 0.03581734 -0.05369241 0.068575576 -0.11392115
-0.103098765 0.09112732 0.01968047 0.36880526 0.06304032 -0.018727496 -0.0069960374 -0.090875946
0.0020464284 0.013857512 0.062269107 -0.0058199437 0.6703584 0.2247399 -0.014184016 0.085013464
-0.13934804 0.45499837 0.01858068 0.005943851 0.7399165 -0.10365416 -0.0049316236 -0.002607572
0.33083108 0.015997402 -0.09081519 -0.09082921 -0.2563447 0.0025412207 0.020874936 0.27148542
0.1027625 0.0056794416 -0.04565465 0.34610468 0.075869545 -0.112579435 0.053011507 -0.017639516
0.0075100986 0.07594803 -0.15128267 0.03533246 -0.072884835 0.027767941 0.096588165 -0.03392357
0.5730384 -0.095889434 -0.023171768 0.23057681 -0.0004060081 -0.1722587 0.1273495 -0.47944835
0.042513337 -0.017772064 0.03484943 0.101078555 -0.088105515 -0.005791783 -0.11799766 0.10787138
-0.10064387 -0.08265942 0.0006737858 0.41636428 0.018468494 0.10303703 0.058128204 0.14840913
-0.10676378 -0.020671029 0.0023913383 -0.04223499 0.41592646 0.25841272 0.012201309 0.09720196
-0.17783754 0.6034923 0.27263674 -0.07842123 0.5621784 -0.031567395 -0.028579688 -0.022956181
0.15992399 -0.03277751 0.036533307 0.09012139 -0.10351722 -0.029595017 0.027570847 0.32013777
0.054522324 -0.011813572 0.042795748 0.35834652 0.03967142 -0.024859205 0.0938857 -0.08657097
0.038309928 0.06330155 -0.22007436 -0.13433634 0.052778598 -0.034950543 -0.11351965 -0.07611475
0.43901762 -0.056279402 -0.07289986 0.2982988 0.05096591 -0.19813035 -0.09445179 -0.31888407
00000000: 0799 433b 40c7 61bb 954a 5e39 548e c73d
00000010: 2a32 a4bd 99e9 c73d 404d 3abc a237 a23d
00000020: 58ef 113d 4ea4 9e3d 9051 a33d f405 fdbe
00000030: 5956 18bc 98ff 87bd 43b8 15bd b663 f13c
00000040: e79c 823c ed07 0d3c 604e abbd 5e08 983b
00000050: 27af 49bf bb46 1abf 7c20 63bc a8ea d8bd
00000060: fdc8 633e 2cd5 d2be 5131 1abe 6d9d 9bbc
00000070: c95e 59bf 84ec 3bbd 89bf 1a3d 0ac4 4c3c
00000080: d04f 03bf 4221 68bc 004b 53bb 10c9 07bc
00000090: cfcc 0f3f 3ce4 39bc f828 fd3c 4dd2 20bf
000000a0: 3826 a5bd 6cee 5b39 2ecb e53d 7b6e 1ebe
000000b0: c0eb c8bc 7824 3dbd e33f c8bd e14f 6d3d
000000c0: a996 61bd 2a48 a63d c67f 553e 2db2 b03c
000000d0: 80d1 03bd 49f0 4dbd 4aff bcbd 147e 1bbd
000000e0: 6252 3fbf 3e9b b6bd 843c 6bbd b3aa 01bf
000000f0: dd9d 30bd f279 453d 7b32 5dbd a33a 243f
00000100: c838 c43d 60e2 62bd 7067 52bc 10df 78bc
00000110: b4d9 acbd cb7e 303d da73 bbbd 6002 523d
00000120: c0de 083b f4f6 8cbd 3685 f3bd 47f4 3a3e
00000130: eed2 1d3d 5849 d0bc 8547 13bd 205a 3cbd
00000140: 0d94 77bc 99c5 b7bc f0c0 38bc 4a0a 573c
00000150: f250 d13e 0384 023e 764b 123d d044 a5bc
00000160: 6f25 01be 0286 e33e 1993 603e 2790 eebd
00000170: b72a 2f3f 4096 8ebd 4a0d bdba eaa2 d93c
00000180: 52f6 763e 7c93 17bd 4288 3fbd 18cb a7bc
00000190: bf38 debe 6960 40ba bd6b 3c3d 4ec4 ac3e
000001a0: 2394 e73d f17e 87bd b07a b5bd 9104 013f
000001b0: 2441 07bd a43e 4cbd 996a d6bd 9e36 0cbe
000001c0: dda6 c9bc e8b8 97bd 00bb 9bbe 78eb fb3c
000001d0: b82a b6bc 476b ddbc fc02 9d3d 95e7 13be
000001e0: cc6a a63e 61f6 dd3d 688f 853c 28e1 8b3e
000001f0: 5845 c5bc df2b 64be 36a9 c3bd a2f5 f9be
00000200: a62b a23c d6fe bbbd 3c23 5abb 44de 6c3d
00000210: 34b5 123d 93ec 5bbd 5a71 8c3d 7e4f e9bd
00000220: 7225 d3bd f6a0 ba3d f038 a13c 0bd4 bc3e
00000230: 491b 813d 686a 99bc 043f e5bb 2b1d babd
00000240: 5f1d 063b 9e0a 633c e40d 7f3d 3ab5 bebb
00000250: 9c9c 2b3f 3722 663e 1364 68bc 8a1b ae3d
00000260: 41b1 0ebe 8cf5 e83e 8336 983c a3c4 c23b
00000270: 2b6b 3d3f a248 d4bd 7599 a1bb cce3 2abb
00000280: b162 a93e fc0c 833c 50fd b9bd aa04 babd
00000290: 9d3f 83be 9c8a 263b ea01 ab3c 2300 8b3e
000002a0: 2575 d23d 9c1a ba3b 5f00 3bbd a234 b13e
000002b0: 7e61 9b3d 0c90 e6bd 9822 593d bf80 90bc
000002c0: 4617 f63b a48a 9b3d d8e9 1abe c5b8 103d
000002d0: a544 95bd 9879 e33c 04d0 c53d 71f3 0abd
000002e0: a5b2 123f ae61 c4bd b8d2 bdbc 541c 6c3e
000002f0: 7cdd d4b9 9664 30be e867 023e 417a f5be
00000300: 7722 2e3d b896 91bc 47be 0e3d 4602 cf3d
00000310: aa70 b4bd ffc8 bdbb c2a8 f1bd aceb dc3d
00000320: 601e cebd 5849 a9bd 00a1 303a b32d d53e
00000330: 3d4b 973c 1405 d33d d717 6e3d 90f8 173e
00000340: f8a6 dabd 4a56 a9bc 00b8 1c3b 99fe 2cbd
00000350: 50f4 d43e ac4e 843e 00e8 473c d211 c73d
00000360: 0b1b 36be 797e 1a3f 0b97 8b3e 4f9b a0bd
00000370: ecea 0f3f d04c 01bd f31f eabc 9a0e bcbc
00000380: 1dc3 233e b641 06bd f3a3 153d 9091 b83d
00000390: d600 d4bd 4071 f2bc 42dc e13c 19e9 a33e
000003a0: cd52 5f3d b68d 41bc 984a 2f3d 3279 b73e
000003b0: 807e 223d 88a5 cbbc 2547 c03d 1f4c b1bd
000003c0: dfea 1c3d 3ea4 813d 2c5b 61be 778f 09be
000003d0: 5f2e 583d 4d28 0fbd fe7c e8bd 0de2 9bbd
000003e0: ebc6 e03e 3b85 66bd 864c 95bd 9fba 983e
000003f0: a1c1 503d afe2 4abe f16f c1bd c644 a3be

network.3.bias f4 [32]
0.027538802 0.025724407 0.004106545 0.011503867 0.036571447 0.043374196 -0.008094359 0.12977837
0.016433258 -0.024470815 0.026054746 -0.035197824 0.042223286 -0.050883025 0.04847679 0.08072592
-0.0727813 -0.015983919 -0.02310145 -0.0022117079 0.011225338 -0.030856982 0.02473463 0.019199839
-0.10879447 0.012755563 -0.04201378 0.06761906 -0.08783534 0.019229827 0.020468453 0.02757971
00000000: 0e99 e13c febb d23c 3290 863b b77a 3c3c
00000010: f1cb 153d 24a9 313d 349e 04bc 9fe4 043e
00000020: 0a9f 863c 0577 c8bc c370 d53c 982b 10bd
00000030: 53f2 2c3d b86a 50bd 998f 463d a253 a53d
00000040: 5d0e 95bd b5f0 82bc 413f bdbc 4df2 10bb
00000050: 7bea 373c c8c7 fcbc 47a0 ca3c fb48 9d3c
00000060: a3cf debd b5fc 503c a416 2cbd dd7b 8a3d
00000070: 04e3 b3bd df87 9d3c 75ad a73c d8ee e13c

network.6.weight f4 [16, 32]
0.28863892 -0.17035082 -0.06283913 -0.14642122 -0.19322222 0.4900013 -0.07046023 0.17299241
0.53703654 -0.21564484 -0.0448074 0.32833663 0.35015795 -0.19599395 0.210629 0.16445702
-0.06262587 0.44167808 -0.099099234 0.46991667 -0.17046845 0.31944197 0.06031687 -0.12678075
-0.17584868 -0.039586574 0.026427492 0.13039565 -0.057539165 0.48353735 -0.124964625 -0.2582637
0.35520607 -0.07178633 -0.39861488 -0.15846297 -0.23753852 0.49062288 -0.1794766 0.3419165
0.40775344 -0.1881743 -0.28701267 0.11556842 0.49521172 -0.23207653 0.45974714 0.24808274
-0.16725112 0.1793374 -0.37027147 0.4495821 -0.033897486 0.2686484 0.09490909 -0.30763417
-0.16495731 -0.2826389 0.14987375 -0.044603396 -0.114838 0.53467625 -0.29594943 -0.24660695
0.1920372 -0.15593195 -0.26024294 -0.19398949 -0.1887024 0.42739043 -0.13506569 0.4420764
0.22731382 -0.14147604 -0.195044 0.13675736 0.330414 -0.054349754 0.4192416 0.4172894
-0.2032076 0.38468418 -0.20252651 0.21326004 -0.009299793 0.36516657 0.24993569 -0.27240384
-0.14090835 -0.22966084 0.14486584 0.12818713 -0.15484056 0.37944603 -0.28559694 -0.02200829
-0.031433962 -0.11684828 -0.1574191 -0.110837325 -0.075272344 -0.12889493 -0.116131715 -0.17556337
-0.057868127 -0.18457337 0.088130385 -0.036853816 0.014519926 -0.053512353 -0.1696085 -0.1320655
0.024003828 -0.16366255 -0.024220677 0.023564303 0.11271228 -0.13699228 -0.0070370142 -0.13355882
-0.03581435 0.06957182 -0.13499106 -0.17395873 0.005471127 0.07886273 0.06228693 -0.11272259
-0.09475264 0.12613101 0.25045353 0.09959187 0.20833667 -0.2018817 0.009875899 -0.19087279
-0.35328865 0.02754663 0.1663921 -0.10253778 -0.23714332 0.20941058 -0.11709985 -0.2659756
0.037041284 -0.15533248 0.14456937 -0.11471408 0.23738807 -0.14917287 0.13725561 0.1427187
-0.051150966 0.21089369 -0.14667013 0.05031919 -0.04550522 -0.21842468 0.23646045 0.25806084
-0.192461 -0.04872068 0.08547119 0.31370905 -0.022671815 -0.29300076 0.14528015 -0.084228255
-0.25100154 0.21566476 0.25640878 -0.20745356 -0.25449598 0.1343276 -0.110793814 -0.12238558
0.15956922 -0.2559076 0.03688594 -0.27520385 0.23852424 -0.14598908 -0.0019632927 0.111155905
-0.1357976 0.23718986 0.06026166 0.06440103 0.12566553 -0.19909567 -0.06395684 0.2741189
-0.31357664 0.282421 0.1439264 0.038156547 0.25928688 -0.059480555 0.22797236 0.017813252
-0.23945822 0.18393725 0.29454127 -0.23932911 -0.20124385 0.017453913 -0.06375546 -0.2679032
0.13651037 -0.29289585 0.1473658 -0.27941117 0.23817073 -0.01773346 -0.08330883 0.15715167
-0.12116252 0.081636615 -0.05312455 0.23660849 0.1924789 -0.23838787 0.23895496 0.190908
0.525268 -0.28289312 -0.28936973 -0.25781783 -0.20210311 0.2407417 -0.17354795 0.42493123
0.5156568 -0.003267627 -0.045644213 0.32939434 0.48528787 -0.110826656 0.24602464 0.3324336
-0.23763528 0.23258477 -0.11574293 0.50961024 -0.21363841 0.121291794 0.14679787 -0.14087947
-0.1730202 -0.20951854 -0.1405246 0.08075197 -0.2075609 0.539188 -0.053021107 -0.15396273
00000000: 7bc8 933e 7270 2ebe cdb1 80bd 72ef 15be
00000010: 0cdc 45be 73e1 fa3e 744d 90bd ec24 313e
00000020: 3a7b 093f 00d2 5cbe f787 37bd bd1b a83e
00000030: e747 b33e a3b2 48be 21af 573e 6c67 283e
00000040: fe41 80bd a123 e23e 8af4 cabd eb98 f03e
00000050: 488f 2ebe e68d a33e d30e 773d d0d2 01be
00000060: ad11 34be 8825 22bd 787e d83c 7086 053e
00000070: 30ae 6bbd 3592 f73e 74ed ffbd 243b 84be
00000080: 92dd b53e b604 93bd 4017 ccbe 1e44 22be
00000090: 4c3d 73be ec32 fb3e b7c8 37be ae0f af3e
000000a0: 0fc5 d03e c4b0 40be 53f3 92be 23af ec3d
000000b0: 648c fd3e 78a5 6dbe fa63 eb3e 6709 7e3e
000000c0: e143 2bbe 39a4 373e 3994 bdbe a02f e63e
000000d0: 17d8 0abd 488c 893e b25f c23d 3a82 9dbe
000000e0: 92ea 28be 0cb6 90be 8178 193e 0db2 36bd
000000f0: 2f30 ebbd 8be0 083f af86 97be 8886 7cbe
00000100: 66a5 443e a0ac 1fbe 903e 85be 2ea5 46be
00000110: 343b 41be ebd2 da3e a94e 0abe d757 e23e
00000120: f4c4 683e 18df 10be 9db9 47be 1f0a 0c3e
00000130: 062c a93e d99d 5ebd d6a6 d63e f5a6 d53e
00000140: a715 50be 53f5 c43e 1c63 4fbe d760 5a3e
00000150: 295e 18bc 1df7 ba3e 24ef 7f3e 8478 8bbe
00000160: 474a 10be 362c 6bbe b657 143e 7d43 033e
00000170: 868e 1ebe c046 c23e c339 92be bb4a b4bc
00000180: e6c0 00bd 274e efbd 7932 21be aefe e2bd
00000190: 6328 9abd 08fd 03be 77d6 edbd e2c6 33be
000001a0: 2107 6dbd cd00 3dbe b47d b43d 07f4 16bd
000001b0: fce4 6d3c c52f 5bbd daad 2dbe 2e3c 07be
000001c0: ada3 c43c 2897 27be 716a c6bc ed09 c13c
000001d0: b2d5 e63d b447 0cbe c196 e6bb a5c3 08be
000001e0: 11b2 12bd ac7b 8e3d 193b 0abe 3d22 32be
000001f0: 2447 b33b c882 a13d 9420 7f3d 1adb e6bd
00000200: ac0d c2bd 7d28 013e 723b 803e d3f6 cb3d
00000210: 3556 553e 14ba 4ebe 86ce 213c 2874 43be
00000220: 40e2 b4be 78a9 e13c b162 2a3e 54ff d1bd
00000230: b3d5 72be ba6f 563e 0cd2 efbd f42d 88be
00000240: 9ab8 173d 7a0f 1fbe fe09 143e 37ef eabd
00000250: dc15 733e c6c0 18be bc8c 0c3e da24 123e
00000260: ad83 51bd 84f4 573e b230 16be 7f1b 4e3d
00000270: ae63 3abd b8aa 5fbe b022 723e 8d20 843e
00000280: 7f14 45be 568f 47bd 850b af3d 799e a03e
00000290: 3eba b9bc 3204 96be 52c4 143e dd7f acbd
000002a0: 4683 80be 39d7 5c3e 0348 833e b56e 54be
000002b0: 4c4d 82be 2d8d 093e dee7 e2bd 4aa5 fabd
000002c0: 1d66 233e 5206 83be b615 173d 85e7 8cbe
000002d0: b33f 743e 297e 15be 96aa 00bb b5a5 e33d
000002e0: 870e 0bbe e6e1 723e eed4 763d b0e4 833d
000002f0: 77ae 003e bcdf 4bbe cefb 82bd 5059 8c3e
00000300: 1e8d a0be 7c99 903e 7161 133e 0a4a 1c3d
00000310: 40c1 843e e2a1 73bd 9671 693e 19ed 913c
00000320: 8934 75be 0c5a 3c3e 1dce 963e b112 75be
00000330: de12 4ebe 82fb 8e3c 3992 82bd 9c2a 89be
00000340: 60c9 0b3e 72f6 95be 0fe7 163e fb0e 8fbe
00000350: 07e3 733e c345 91bc d29d aabd 5eec 203e
00000360: 0e24 f8bd 1931 a73d 2199 59bd 7f49 723e
00000370: 3019 453e f31b 74be 9cb0 743e 637d 433e
00000380: f777 063f 5ed7 90be 4528 94be b300 84be
00000390: 1ef4 4ebe fe84 763e 8eb6 31be 9690 d93e
000003a0: 1602 043f af25 56bb 6df5 3abd 60a6 a83e
000003b0: a777 f83e 16f9 e2bd e2ed 7b3e bd34 aa3e
000003c0: aa56 73be b42a 6e3e a10a edbd d175 023f
000003d0: 07c4 5abe d567 f83d 2e52 163e b542 10be
000003e0: 352c 31be 078c 56be aee5 0fbe 4a61 a53d
000003f0: d88a 54be 3a08 0a3f a92c 59bd 68a8 1dbe

network.6.bias f4 [16]
0.117555596 0.12273034 0.23618986 -0.16170841 0.16339467 0.19677363 0.16008775 0.2759819
0.17435741 0.29956275 0.11108265 0.15868361 0.13302723 0.19612506 0.2444544 0.33599028
00000000: fdc0 f03d 0b5a fb3d c1db 713e e496 25be
00000010: ef50 273e 077f 493e 0bee 233e 804d 8d3e
00000020: c08a 323e 4a60 993e 4d7f e33d f57d 223e
00000030: 4a38 083e 02d5 483e 4152 7a3e eb06 ac3e

network.8.weight f4 [1, 16]
-0.67780495 -0.748218 -0.5699443 -0.0770394 0.24005085 0.3669041 0.33753324 -0.58809954
0.34709433 -0.42518866 0.36173052 -0.70535135 -0.8691592 0.18717408 0.23369712 -0.45357168
00000000: a084 2dbf 378b 3fbf dfe7 11bf d5c6 9dbd
00000010: e4cf 753e dbda bb3e 28d1 ac3e b18d 16bf
00000020: 59b6 b13e 54b2 d9be be34 b93e e891 34bf
00000030: 3881 5ebf 90aa 3f3e 4c4e 6f3e 8c3a e8be
