第六次作业10245501405杨云天/model/Chemistry.pth (torch, 15273 bytes, 7 tensors)

network.0.weight f4 [64, 3]
-0.43660998 -0.088153645 0.48932037 -0.06414572 -0.12401876 -0.26636404 0.37888032 -0.5059541
-0.41662273 0.53544295 0.3010126 -0.2370337 -0.30889234 -0.43390605 0.3786998 0.18979217
2.3503966 0.6878357 0.68947464 2.1300452 1.0723224 -0.37172157 0.06854065 -0.02981067
-0.39150807 0.57085896 0.20590962 -0.35606495 1.7670674 -0.08122966 1.0954331 1.1520844
1.3179373 0.87957096 1.2738796 0.63523144 -0.98078334 -2.296226 -0.90363276 0.20434405
0.14728054 0.4257925 -0.46938837 0.05848379 -0.41448128 -1.291703 -1.2005799 -1.4856243
-0.7747183 -1.579455 -0.33094722 -0.46410468 -1.3419547 -0.85976046 -0.1774023 0.5168322
-0.19986881 -0.08070179 1.4791746 0.92176586 -0.06552083 0.3510426 0.053678103 0.2533244
2.7167246 0.57713234 0.40953848 -0.02186382 -0.22660777 -0.4852645 0.002162347 -0.4806938
0.4501695 -0.0877559 -0.3212621 -1.0763515 -1.9991922 -0.5554454 0.91420823 0.79617035
0.79134816 -0.9772459 -2.3868616 -0.74023056 0.6523526 2.2722747 0.46157306 -1.2079055
-1.7371714 -1.1798673 0.11869752 0.1361229 -0.47108442 0.76006854 1.8781811 0.25118557
0.6490508 2.1891124 0.5033157 -0.24237579 -0.34833226 -0.34402838 -0.3432616 -0.49865103
-0.5574989 0.6611809 2.0886834 0.41248095 -0.99871546 -2.3681786 -0.47002906 0.40642464
1.7617043 1.0380148 -0.9656268 -1.143105 -0.40804312 0.20149896 0.43279272 0.36699003
-0.55177915 -0.49916813 0.57555115 0.5130644 -0.15965757 0.3974212 0.8151223 2.3983316
0.5851869 0.18868715 -0.46406257 0.56919175 -0.47420934 -2.5752985 -0.97866523 0.45799834
0.3597587 -0.10476313 -0.32406995 0.026287837 -0.23871084 0.2897185 -0.47457498 -0.11223006
0.5713191 1.5502101 0.49815542 -0.38110283 -2.5407982 -0.5831708 -0.5480599 0.045070596
0.20230365 -0.5214376 -0.20041123 0.09779348 -0.36460286 -1.4512032 -0.73740923 0.9852633
1.169929 1.4670249 -0.37017113 -1.8141501 -0.5274811 -0.5390784 0.16007149 -0.5120945
0.19130662 0.7917974 1.113838 0.2209081 0.028675588 0.35677207 -0.19080463 -1.9169014
-1.2443464 0.46586993 1.4340545 0.5143203 -0.4817889 -2.2285411 -1.0593088 -0.5077262
-0.39429748 -0.0865269 -0.33550808 0.14628616 0.034643184 -0.7187044 -0.24984157 -0.41420218
00000000: 588b dfbe e689 b4bd 3388 fa3e d55e 83bd
00000010: 8cfd fdbd de60 88be 9afc c13e 3586 01bf
00000020: 934f d5be ca12 093f 531e 9a3e f6b8 72be
00000030: 2327 9ebe ef28 debe f1e4 c13e e158 423e
00000040: e66c 1640 0016 303f 6981 303f a952 0840
00000050: dc41 893f 4a52 bebe 0a5f 8c3d 8235 f4bc
00000060: bf73 c8be d023 123f f9d9 523e 254e b6be
00000070: 442f e23f bc5b a6bd 2737 8c3f 8077 933f
00000080: 2bb2 a83f 902b 613f 7d0e a33f 879e 223f
00000090: 9e14 7bbf 5ef5 12c0 7a54 67bf 913f 513e
000000a0: b6d0 163e 7901 da3e ac53 f0be b38c 6f3d
000000b0: e436 d4be 8656 a5bf 9aac 99bf f028 bebf
000000c0: f053 46bf 952b cabf ea71 a9be 219f edbe
000000d0: 2cc5 abbf 4319 5cbf f3a8 35be 1d4f 043f
000000e0: 69aa 4cbe fb46 a5bd 9855 bd3f d9f8 6b3f
000000f0: c92f 86bd dbbb b33e 92dd 5b3d bcb3 813e
00000100: d1de 2d40 f2be 133f 07af d13e c11b b3bc
00000110: de0b 68be 9774 f8be 2ab6 0d3b 7f1d f6be
00000120: 9e7c e63e 5eb9 b3bd 777c a4be e3c5 89bf
00000130: 88e5 ffbf ab31 0ebf 8d09 6a3f d2d1 4b3f
00000140: cb95 4a3f ca2c 7abf 57c2 18c0 c07f 3dbf
00000150: 9400 273f f36c 1140 4e53 ec3e a69c 9abf
00000160: a25b debf e405 97bf af17 f33d cd63 0b3e
00000170: fa31 f1be da93 423f 3d68 f03f 659b 803e
00000180: 3128 263f 6b1a 0c40 4cd9 003f 5c31 78be
00000190: 9b58 b2be 7d24 b0be fcbf afbe 304f ffbe
000001a0: 3fb8 0ebf 2743 293f fdac 0540 b430 d33e
000001b0: d1ab 7fbf 3d90 17c0 a6a7 f0be e416 d03e
000001c0: 877f e13f abdd 843f 5133 77bf 4451 92bf
000001d0: 07eb d0be be55 4e3e 0297 dd3e 1ee6 bb3e
000001e0: 6641 0dbf f792 ffbe 5257 133f 3058 033f
000001f0: 467d 23be cb7a cb3e dbab 503f 447e 1940
00000200: cfce 153f 3437 413e 9c99 edbe 8db6 113f
00000210: 91cb f2be b1d1 24c0 ce89 7abf c27e ea3e
00000220: 4b32 b83e 0d8e d6bd 7fec a5be 9759 d73c
00000230: 9d70 74be fc55 943e 7efb f2be e0d8 e5bd
00000240: f841 123f 496d c63f 3a0e ff3e e91f c3be
00000250: 709c 22c0 ae4a 15bf a74d 0cbf f29b 383d
00000260: b028 4f3e ef7c 05bf 9a38 4dbe f347 c83d
00000270: 3aad babe 07c1 b9bf dac6 3cbf 373a 7c3f
00000280: 3cc0 953f 79c7 bb3f 1287 bdbe 1236 e8bf
00000290: 0009 07bf 0b01 0abf c8e9 233e a018 03bf
000002a0: e2e5 433e 3cb3 4a3f 3e92 8e3f bc35 623e
000002b0: 11e9 ea3c d4aa b63e 4a62 43be 065d f5bf
000002c0: be46 9fbf 8186 ee3e 198f b73f 7faa 033f
000002d0: 09ad f6be 6ba0 0ec0 6e97 87bf 58fa 01bf
000002e0: 5ce1 c9be 0435 b1bd b7c7 abbe 0acc 153e
000002f0: 03e6 0d3d 03fd 37bf 78d6 7fbe 4f12 d4be

network.0.bias f4 [64]
-0.09064306 -0.5350385 -0.41747746 -0.42358965 -0.16433689 -0.0061577065 -0.015667751 -0.5127778
-0.5360238 0.0053185127 -0.022887276 -0.012818599 0.013224935 -0.19232515 -0.071615286 0.0107168
0.073827066 0.08535564 -0.15696354 0.00023818482 -0.1405871 -0.005266805 -0.18522653 0.03959102
-0.2128663 0.039762866 -0.012534142 0.011085596 -0.010372215 0.06058828 -0.07548576 -0.011931901
-0.008983365 -0.3292154 -0.21160796 -0.0050529703 0.014643074 -0.014461974 0.11942334 -0.578856
-0.2713863 -0.14127101 -0.012852291 -0.36881033 0.010719621 -0.48840955 -0.36381057 -0.07123569
-0.0057466575 0.010469805 -0.4536514 -0.52644706 0.038971145 -0.024511507 0.021998411 -0.47185487
-0.004516148 -0.10499071 0.032121137 -0.002592992 0.00944499 0.06334214 -0.11187739 0.06340956
00000000: 12a3 b9bd 48f8 08bf 9bbf d5be bee0 d8be
00000010: ee47 28be 96c6 c9bb a859 80bc 6845 03bf
00000020: db38 09bf eb46 ae3b 197e bbbc 1a05 52bc
00000030: 66ad 583c e2f0 44be 09ab 92bd 8495 2f3c
00000040: a532 973d f0ce ae3d 0dbb 20be 40c1 7939
00000050: 11f6 0fbe 2a95 acbb 06ac 3dbe 322a 223d
00000060: a0f9 59be 63de 223d 005c 4dbc 5ca0 353c
00000070: 39f0 29bc 6b2b 783d 4798 9abd 057e 43bc
00000080: f72e 13bc ec8e a8be c2af 58be 6393 a5bb
00000090: 81e9 6f3c eaf1 6cbc 3994 f43d e82f 14bf
000000a0: 25f3 8abe 59a9 10be 6a92 52bc b5d4 bcbe
000000b0: 59a1 2f3c d110 fabe 6145 babe 04e4 91bd
000000c0: 754e bcbb 8c89 2b3c ff44 e8be 3cc5 06bf
000000d0: 35a0 1f3d 5bcc c8bc 0336 b43c f696 f1be
000000e0: 32fc 93bb 5f05 d7bd 7491 033d 30ef 29bb
000000f0: 29bf 1a3c 86b9 813d f91f e5bd dfdc 813d

network.3.weight f4 [32, 64]
0.026692092 -0.051031455 -0.08721976 0.010223516 0.08696255 -0.47006464 -0.3410738 -0.09904872
-0.008212805 0.019470504 0.019296687 -0.08297529 0.5656162 -0.010545568 -0.0016785711 0.45197284
0.035250377 0.02619064 -0.024976 -0.055972893 0.05224143 -0.27863625 -0.0015642971 0.021336824
-0.03545095 -0.01103563 0.026869183 0.612968 -0.696067 0.050824586 0.05184357 -0.70114267
-0.65312356 -0.07240336 0.10026376 0.034162536 0.3289845 -0.8316702 0.007449357 0.09966526
-0.016155854 0.095508054 -0.44755724 0.05208172 0.5004522 -0.0070083146 -0.09778489 0.07428699
0.014481843 0.82560545 -0.050483957 -0.072236255 0.049524255 -0.05408539 0.17474225 -0.04746455
0.045431327 0.07593518 0.10263021 0.025660895 0.8758795 -0.01559003 -0.0304088 -0.007426014
-0.0048083216 0.019007638 0.055259615 -0.06892121 -0.121744126 0.2017123 0.42718232 -0.009960428
-0.09655602 0.016464218 0.059293475 0.07267292 -0.2218738 0.066831686 -0.105381966 -0.30735934
-0.028926603 -0.012182333 -0.09837467 0.009710111 -0.019179413 0.19379005 -0.05547583 -0.005447213
0.0016269386 -0.060827494 0.017886903 -0.25999027 0.398317 -0.023090126 -0.083841994 0.37044495
0.33944586 0.016642094 0.050673813 0.035758305 -0.11300271 0.66623825 -0.016575167 -0.06924747
0.07653421 0.026708499 0.2544309 0.07154858 -0.1906649 -0.064346686 0.0692521 -0.0665352
0.058000717 -0.4511736 0.030865148 0.06314644 -0.046601783 0.13713759 -0.21514803 0.09172818
0.098287 -0.08951789 -0.06416634 0.045645613 -0.38095835 0.009611919 -0.00039686263 -0.03221616
-0.014614284 -0.10513905 -0.12369537 -0.10110908 0.09839329 -0.5590912 -0.5772172 0.04406354
0.11737731 -0.08760217 -0.03247878 0.0025768573 0.53785336 0.08911141 0.06575599 0.55814093
-0.020465123 0.013428759 0.11249578 -0.021526542 -0.01182499 -0.43294504 -0.007704074 0.014862002
-0.04803562 0.053772222 0.029746436 0.58394593 -0.63208437 0.04495613 0.08425243 -0.80331486
-0.68642914 0.08733787 0.051423803 -0.023942158 0.42778072 -0.7407594 -0.029243326 -0.06733259
0.113801226 0.12623197 -0.5123018 0.09297697 0.6119209 0.11756287 -0.008206993 -0.07563731
-0.10335746 0.8503194 -0.050066113 -0.06853485 0.02733888 -0.08345137 0.05099813 0.039537862
0.019068137 -0.13420808 -0.024727825 0.0112893125 0.8609867 0.049085204 -0.063556924 -0.028807685
0.013660476 0.050091043 -0.08839376 -0.1162968 0.097405136 -0.5242354 -0.28666806 0.052256018
0.107335806 -0.044404656 -0.0330848 0.02166069 0.42681623 -0.11176108 0.09839569 0.41667768
-0.005422078 -0.0034654546 -0.0746468 0.035271782 -0.102023885 -0.3610678 -0.0024532378 0.023845755
-0.043105662 0.022536473 -0.0013202842 0.43206534 -0.73246187 0.025963483 -0.1041646 -0.80473304
-0.7912739 -0.118872225 0.08685343 -0.067804076 0.42889065 -0.7753029 0.022598442 0.09283547
-0.07728431 -0.060597487 -0.5020751 0.009542525 0.53222936 0.11306195 -0.061918467 -0.000109255314
0.003656559 0.6485133 0.1042368 0.082269356 0.053476475 -0.024779497 0.004714681 0.020255446
0.07999055 0.045323513 0.035921965 0.0074893455 0.77210504 0.016437497 -0.083168834 0.013488961
00000000: 60a9 da3c 5c06 51bd 46a0 b2bd 8980 273c
00000010: 6c19 b23d 50ac f0be 3aa1 aebe 0eda cabd
00000020: 008f 06bc 9b80 9f3c 1614 9e3c f3ee a9bd
00000030: 39cc 103f 51c7 2cbc 8003 dcba fc68 e73e
00000040: b362 103d c18d d63c 789a ccbc d543 65bd
00000050: 1cfb 553d 69a9 8ebe 1a09 cdba 90ca ae3c
00000060: 0435 11bd c9ce 34bc c31c dc3c 79eb 1c3f
00000070: 7231 32bf 712d 503d ec59 543d 167e 33bf
00000080: 1b33 27bf 3648 94bd 1657 cd3d 04ee 0b3d
00000090: a870 a83e 57e8 54bf bc19 f43b 4d1d cc3d
000000a0: 4859 84bc ba99 c33d 3926 e5be a453 553d
000000b0: a31d 003f 01a6 e5bb 7243 c8bd c723 983d
000000c0: 4145 6d3c e15a 533f 44c8 4ebd 9af0 93bd
000000d0: f2d9 4a3d a488 5dbd a2ef 323e 306a 42bd
000000e0: 3316 3a3d e783 9b3d ca2f d23d cc36 d23c
000000f0: a439 603f 536d 7fbc e01b f9bc ec55 f3bb
00000100: 208f 9dbb e8b5 9b3c e857 623d 9026 8dbd
00000110: fc54 f9bd ab8d 4e3e a4b7 da3e 1031 23bc
00000120: 2abf c5bd f8df 863c b7dd 723d 8ad5 943d
00000130: e332 63be 0ddf 883d 80d2 d7bd 345e 9dbe
00000140: 7cf7 ecbc 6898 47bc a978 c9bd 2817 1f3c
00000150: 251e 9dbc e670 463e a03a 63bd 897e b2bb
00000160: 003f d53a 4026 79bd 8e87 923c 721d 85be
00000170: 35f0 cb3e 8127 bdbc 5ab5 abbd f6aa bd3e
00000180: d9cb ad3e 0055 883c 588f 4f3d 4d77 123d
00000190: f76d e7bd 978e 2a3f a5c8 87bc 9ed1 8dbd
000001a0: f8bd 9c3d c8cb da3c c444 823e 1088 923d
000001b0: a93d 43be 32c8 83bd 0cd4 8d3d 9b43 88bd
000001c0: 2992 6d3d 3a00 e7be e8d8 fc3c ec52 813d
000001d0: 83e1 3ebd cc6d 0c3e c44f 5cbe fcdb bb3d
000001e0: b24a c93d 2855 b7bd a469 83bd e5f6 3a3d
000001f0: f90c c3be 4f7b 1d3c 0012 d0b9 18f5 03bd
00000200: c070 6fbc 2453 d7bd 0054 fdbd 4712 cfbd
00000210: 6c82 c93d 9a20 0fbf 82c4 13bf f87b 343d
00000220: 8463 f03d c468 b3bd 7808 05bd 7ee0 283b
00000230: c2b0 093f 0b80 b63d 14ab 863d 53e2 0e3f
00000240: 79a6 a7bc 4c04 5c3c 3064 e63d 6e58 b0bc
00000250: 9abd 41bc f9aa ddbe 7572 fcbb c17f 733c
00000260: 00c1 44bd 4340 5c3d ccae f33c 7b7d 153f
00000270: 48d0 21bf eb23 383d 8a8c ac3d 0ba6 4dbf
00000280: d2b9 2fbf 32de b23d c4a1 523d 5822 c4bc
00000290: 1306 db3e 68a2 3dbf b38f efbc abe5 89bd
000002a0: 9e10 e93d f442 013e 3626 03bf b66a be3d
000002b0: d9a6 1c3f cdc4 f03d a076 06bc bce7 9abd
000002c0: 13ad d3bd 88ae 593f 2012 4dbd 005c 8cbd
000002d0: c9f5 df3c 8de8 aabd 6ae3 503d 74f2 213d
000002e0: c834 9c3c d86d 09be 0292 cabc cff6 383c
000002f0: a069 5c3f 910d 493d 222a 82bd 18fe ebbc
00000300: 30d0 5f3c 442c 4d3d ca07 b5bd 042d eebd
00000310: 587c c73d 4b34 06bf 28c6 92be 680a 563d
00000320: e0d2 db3d a8e1 35bd ed83 07bd c271 b13c
00000330: a887 da3e fee2 e4bd ae83 c93d c756 d53e
00000340: b0ab b1bb ae1c 63bb 6ce0 98bd 2579 103d
00000350: e6f1 d0bd e1dd b8be 80c6 20bb 2c58 c33c
00000360: 908f 30bd 699e b83c 630d adba ab37 dd3e
00000370: 9f82 3bbf 5fb1 d43c 4054 d5bd fc02 4ebf
00000380: ed90 4abf 4873 f3bd 36e0 b13d dddc 8abd
00000390: 8e97 db3e 407a 46bf 5e20 b93c 8620 be3d
000003a0: 3c47 9ebd 1235 78bd fe87 00bf 4058 1c3c
000003b0: 2f40 083f 068d e73d 389e 7dbd 0020 e5b8
000003c0: e1a2 6f3b f804 263f 1a7a d53d d67c a83d
000003d0: 260a 5b3d 5ffe cabc 9c7d 9a3b c0ee a53c
000003e0: 16d2 a33d 26a5 393d e922 133d 2f69 f53b
000003f0: ada8 453f eea7 863c 6c54 aabd ce00 5d3c

network.3.bias f4 [32]
-0.00060217234 -0.009842581 0.02489349 0.0053928974 0.012998456 -0.032940064 -0.036522787 0.015964374
0.066946335 0.012306113 -0.032011356 -0.009615902 -0.07621887 -0.0062925466 0.012837279 -0.12018549
0.03290138 0.01297632 0.011598184 -0.0026421167 -0.10414205 0.050784267 0.013118515 0.050280716
0.049597893 -0.007160633 0.007964507 0.027433198 0.0046772077 -0.0039633266 -0.00027245405 0.039334483
00000000: 1adb 1dba c742 21bc 6fed cb3c e7b6 b03b
00000010: 7af7 543c 29ec 06bd eb98 15bd b8c7 823c
00000020: 291b 893d 949f 493c 571e 03bd 048c 1dbc
00000030: a418 9cbd b531 cebb 7353 523c cf23 f6bd
00000040: 99c3 063d a29a 543c 4f06 3e3c 5d27 2dbb
00000050: 6d48 d5bd 2a03 503d 0aef 563c 27f3 4d3d
00000060: 2927 4b3d bea3 eabb 907d 023c 96bb e03c
00000070: 4343 993b cbde 81bb 2ad8 8eb9 321d 213d

network.6.weight f4 [16, 32]
-0.23183705 0.2176273 -0.06928564 -0.2702304 0.20923527 0.32460374 0.25514746 -0.1969003
0.25612414 -0.021919357 0.23420303 0.22869599 0.07546752 0.19520076 -0.03034491 0.13127576
-0.34797508 0.19066998 0.106175184 0.064226 0.13119599 -0.082187615 0.37242386 -0.22004282
-0.30119145 0.37452483 -0.3572862 -0.31521684 -0.2696582 -0.27863127 -0.16791524 -0.31597573
0.49245954 -0.35846645 0.18941395 0.34418318 -0.111481465 -0.41609216 -0.3206564 0.34836254
0.14315715 0.49744537 0.06685309 0.068945326 0.041363668 -0.14605944 0.400313 0.11741598
0.45991006 -0.3029275 -0.015876362 -0.28368738 -0.13424447 0.34487513 -0.3163575 0.38879195
0.21397708 -0.31567445 0.29523206 0.39796618 0.277441 0.3398153 0.3484625 0.49022418
-0.49091107 0.21162163 -0.20604037 -0.48630536 0.21919435 0.110850066 0.018476022 -0.5515274
0.008953013 -0.20899668 0.052655812 0.16316013 -0.13769993 0.11027778 -0.21645999 -0.06600583
-0.41031247 0.34796286 0.1471214 0.2825092 0.064365506 -0.31398153 0.37632808 -0.3258194
-0.22292216 0.22385995 -0.48246178 -0.42777315 -0.4053237 -0.28368708 -0.41705593 -0.24398978
0.43042994 -0.28755537 0.17128412 0.45404133 -0.1494327 -0.41791844 -0.31530574 0.5455705
0.04311842 0.19284618 0.03152373 0.16778994 -0.091374755 -0.28854653 0.32542416 0.11095232
0.56436276 -0.24477588 0.12537469 -0.39011934 -0.06571361 0.3952682 -0.37885162 0.25130066
0.41386855 -0.27288696 0.4502379 0.4786335 0.43191135 0.49792653 0.24908575 0.408231
-0.3265591 0.3270504 -0.3071309 -0.61055076 0.03498807 0.26192528 0.31102416 -0.4612021
0.073667996 -0.21940473 0.045907397 0.16247782 -0.065525696 0.3699394 -0.16327155 0.013061724
-0.3358535 0.20061484 0.07988561 0.3645086 0.103577845 -0.13782637 0.28349552 -0.19144744
-0.1864961 0.10372256 -0.31609854 -0.5125189 -0.4717751 -0.4489917 -0.4092291 -0.27804086
-0.33332384 0.24952553 -0.30651322 -0.46712038 0.29243833 0.27994555 0.25577033 -0.44317022
0.14552061 -0.05878525 0.21030614 0.116996266 -0.15026653 0.13809183 -0.23850138 0.0689732
-0.25797498 0.19479637 0.1669032 0.30674383 0.09660947 -0.21554853 0.32806242 -0.38159543
-0.3045203 0.16626512 -0.32003 -0.4174841 -0.13774902 -0.17276902 -0.39026642 -0.30297148
0.48631436 -0.3404298 0.3581975 0.50222576 -0.120209195 -0.31756386 -0.3260432 0.4299178
0.18402301 0.29635832 0.12442282 -0.03522225 0.019643454 -0.3436255 0.3483667 -0.10087654
0.37307638 -0.26066884 -0.0026597357 -0.23156902 -0.009678441 0.3123947 -0.3459326 0.32618362
0.3434993 -0.29408646 0.38228178 0.34370583 0.34365204 0.41525033 0.30222502 0.5023897
0.2938793 -0.2525143 0.48136345 0.65266645 -0.16101688 -0.33679295 -0.33812806 0.54464996
0.06293701 0.24488159 0.03822622 0.06417503 0.1945066 -0.32453513 0.37909728 -0.07541003
0.49205175 -0.3150168 -0.13108256 -0.41374093 0.04728761 0.2426408 -0.43567586 0.3480805
0.46590254 -0.4124924 0.6296827 0.3522243 0.3546972 0.59963745 0.42476034 0.29758188
00000000: b166 6dbe b1d9 5e3e a1e5 8dbd a45b 8abe
00000010: c541 563e 7632 a63e b0a2 823e 3ba0 49be
00000020: b422 833e 3990 b3bc ebd2 6f3e 482f 6a3e
00000030: b78e 9a3d b5e2 473e e495 f8bc 276d 063e
00000040: ca29 b2be fe3e 433e 6072 d93d ec88 833d
00000050: 3e58 063e fb51 a8bd 57ae be3e e852 61be
00000060: c435 9abe b8c1 bf3e 38ee b6be 1a64 a1be
00000070: a410 8abe c2a8 8ebe f9f1 2bbe 92c7 a1be
00000080: a823 fc3e ea88 b7be bbf5 413e c738 b03e
00000090: 6550 e4bd 080a d5be 132d a4be 935c b23e
000000a0: ca97 123e 29b1 fe3e 46ea 883d 3533 8d3d
000000b0: f36c 293d 9b90 15be d3f5 cc3e ca77 f03d
000000c0: 5579 eb3e 5019 9bbe 250f 82bc 793f 91be
000000d0: 6277 09be 7993 b03e 9cf9 a1be bd0f c73e
000000e0: cf1c 5b3e 15a0 a1be a828 973e 39c2 cb3e
000000f0: bf0c 8e3e 45fc ad3e ad69 b23e aafe fa3e
00000100: b258 fbbe 57b3 583e 3ffc 52be 04fd f8be
00000110: 7c74 603e 5c05 e33d 075b 973c e630 0dbf
00000120: a9af 123c 3a03 56be 9fad 573d 7313 273e
00000130: 3601 0dbe 51d9 e13d b0a7 5dbe 112e 87bd
00000140: 7a14 d2be 3028 b23e fea6 163e 0ca5 903e
00000150: 10d2 833d 30c2 a0be 13ae c03e cdd1 a6be
00000160: b545 64be 8b3b 653e 3b05 f7be 1505 dbbe
00000170: 9786 cfbe 6f3f 91be 5b88 d5be 75d8 79be
00000180: 5061 dc3e 753a 93be 1b65 2f3e 1b78 e83e
00000190: e304 19be 68f9 d5be c16f a1be 82aa 0b3f
000001a0: f19c 303d 7879 453e 071f 013d 20d1 2b3e
000001b0: b022 bbbd 5fbc 93be ff9d a63e f83a e33d
000001c0: 147a 103f 87a6 7abe 3962 003e b9bd c7be
000001d0: db94 86bd 9860 ca3e d7f8 c1be 7baa 803e
000001e0: 94e6 d33e d7b7 8bbe 9585 e63e 730f f53e
000001f0: 7c23 dd3e 3af0 fe3e 5610 7f3e a703 d13e
00000200: c132 a7be 2673 a73e 4340 9dbe 0e4d 1cbf
00000210: a74f 0f3d 121b 863e 8f3e 9f3e af22 ecbe
00000220: 3fdf 963d a2ab 60be 6509 3c3d 9660 263e
00000230: 5632 86bd b268 bd3e a830 27be d700 563c
00000240: fdf4 abbe fa6d 4d3e 119b a33d dfa0 ba3e
00000250: 9f20 d43d 5b22 0dbe 5326 913e cc0a 44be
00000260: d5f8 3ebe 7e6c d43d abd7 a1be 7034 03bf
00000270: 828c f1be 3de2 e5be 7a86 d1be 5f5b 8ebe
00000280: 6ca9 aabe 9f83 7f3e 4def 9cbe 672a efbe
00000290: 7aba 953e 0655 8f3e 54f4 823e 35e7 e2be
000002a0: 5b03 153e cdc8 70bd 7e5a 573e bd9b ef3d
000002b0: 78df 19be f267 0d3e b539 74be d241 8d3d
000002c0: 4c15 84be b378 473e ace8 2a3e 870d 9d3e
000002d0: 30db c53d c1b8 5cbe ccf7 a73e 7a60 c3be
000002e0: 16ea 9bbe 6741 2a3e f9da a3be 7ac0 d5be
000002f0: 140e 0dbe 5dea 30be 00d1 c7be 141f 9bbe
00000300: 32fe f83e d14c aebe aa65 b73e de91 003f
00000310: 3d30 f6bd bb97 a2be 22ef a6be 301e dc3e
00000320: 8770 3c3e 47bc 973e 64d1 fe3d 3545 10bd
00000330: 4feb a03c aeef afbe 1f5d b23e 5c98 cebd
00000340: de03 bf3e 6376 85be f64e 2ebb 6e20 6dbe
00000350: 5392 1ebc 33f2 9f3e 141e b1be 8a01 a73e
00000360: 24df af3e 8092 96be 70ba c33e 36fa af3e
00000370: 29f3 af3e b19b d43e 3dbd 9a3e 9d9c 003f
00000380: 5977 963e 8e49 81be 4575 f63e 2615 273f
00000390: 9ce1 24be 2070 acbe 1f1f adbe 2e6e 0b3f
000003a0: 1ee5 803d 3dc2 7a3e 1993 1c3d 336e 833d
000003b0: bd2c 473e 7829 a6be 0a19 c23e 9370 9abd
000003c0: 35ee fb3e e249 a1be 823a 06be dad5 d3be
000003d0: a7b0 413d d476 783e e810 dfbe 9b37 b23e
000003e0: c78a ee3e 3432 d3be e332 213f be56 b43e
000003f0: df9a b53e d781 193f 307a d93e a75c 983e

network.6.bias f4 [16]
0.07902349 0.16115741 0.24572545 0.07530069 0.21318449 0.15366186 0.09495948 0.19077615
0.09380665 0.09015059 0.052779444 0.0013501266 0.14598036 0.20457852 0.186034 -0.20340753
00000000: 11d7 a13d 7306 253e 749f 7b3e 4037 9a3d
00000010: 094d 5a3e 8959 1d3e 1e7a c23d d35a 433e
00000020: b31d c03d dfa0 b83d 422f 583d bbf6 b03a
00000030: e07b 153e 087d 513e b27f 3e3e 104a 50be

network.8.weight f4 [1, 16]
0.44498673 -0.55783457 0.39789888 -0.71546215 0.3288319 0.41847673 -0.6414639 -0.5467585
-0.6708743 0.5408814 -0.58403265 0.28008577 -0.54236895 -0.55661726 0.28992653 -0.19246091
00000000: 4dd5 e33e 3fce 0ebf 67b9 cb3e 8728 37bf
00000010: a85c a83e 9542 d63e fa36 24bf 5df8 0bbf
00000020: 6bbe 2bbf 3477 0a3f 2a83 15bf 6767 8f3e
00000030: b1d8 0abf 787e 0ebf 4071 943e 7914 45be
