第六次作业10245501405杨云天/model/Clinical Medicine.pth (torch, 15449 bytes, 7 tensors)

network.0.weight f4 [64, 3]
0	0xbefe078b	-0.4961513
1	0x3dd77040	0.10519457
2	0x3e8b4bdc	0.27206314
3	0xbebddc69	-0.37082222
4	0xc0378760	-2.8676376
5	0x3d9b6c29	0.07588989
6	0x3d908a65	0.07057647
7	0xc0546cb8	-3.3191357
8	0xbdbe2b06	-0.0928555
9	0x3ed4f427	0.41592523
10	0xbf10c4e0	-0.5655041
11	0xbe9358c8	-0.28778672
12	0xbdc9c4e6	-0.098520085
13	0x4068088b	3.6255214
14	0xbe1adb0c	-0.15122622
15	0xbdc30d39	-0.095240064
16	0x4068df14	3.6386156
17	0xbb806c91	-0.003919192
18	0xbe10d66d	-0.14144297
19	0x406bd957	3.6851404
20	0xbe838858	-0.2568996
21	0xbdbbb3c5	-0.09165148
22	0x407ab579	3.9173262
23	0xbe899422	-0.2687083
24	0x3ef241df	0.4731588
25	0x402fd40e	2.7473178
26	0x3fb6e9a8	1.4290056
27	0xbe9a981e	-0.3019418
28	0xbf036096	-0.51319253
29	0xbf0b80b8	-0.54493284
30	0xba54a323	-0.00081114675
31	0x3f011e88	0.5043721
32	0x3e62b6f3	0.22140102
33	0x3ebf7e7e	0.37401193
34	0x3f181cfb	0.5941922
35	0x3ef91b35	0.4865357
36	0x3ef5486e	0.47906822
37	0x3ecea9b7	0.40363857
38	0x3ecfd87e	0.40594858
39	0xbefbb630	-0.49162436
40	0xbf8fbf92	-1.1230338
41	0xbe315679	-0.17318143
42	0xbe54ff77	-0.20800577
43	0x3e66bd5f	0.22533177
44	0x3f0be409	0.5464483
45	0x3edac7a7	0.42730448
46	0x3ec51423	0.38491926
47	0x3e9ace3e	0.30235475
48	0xbf86a3f1	-1.0518781
49	0xbfac58df	-1.3464621
50	0xbfab5a2e	-1.3386896
51	0x3e54511c	0.20734066
52	0x3eb2dde2	0.34934908
53	0x3e6578eb	0.22409408
54	0xbeac235a	-0.3362072
55	0xbf0766be	-0.5289115
56	0xbe44aefd	-0.19207378
57	0xbd76531b	-0.06013785
58	0x406451cd	3.5674927
59	0x3d8aee47	0.06783729
60	0x3e12a85b	0.14322035
61	0xbf056854	-0.5211232
62	0x3df70370	0.120612025
63	0xbe65e58c	-0.22450846
64	0x3fc56785	1.5422217
65	0x3ee6e928	0.4509976
66	0xbf7c8dde	-0.9865397
67	0xc0093b4e	-2.1442447
68	0xbf24355f	-0.6414394
69	0xbd5cf432	-0.05394382
70	0x40827870	4.077202
71	0xbe150899	-0.14554061
72	0xbef32c0d	-0.47494546
73	0xbf8e14de	-1.1100118
74	0xbfa380b5	-1.2773653
75	0xbf843ba8	-1.0330706
76	0xbf4307c9	-0.76183754
77	0xbf7d8b8b	-0.9904105
78	0xbeb377b8	-0.35052276
79	0xc044c539	-3.0745375
80	0x3cd3a6f2	0.025836442
81	0x3e3e02dc	0.18555778
82	0xbf05f5e8	-0.5232835
83	0x3b1d10fb	0.002396642
84	0x3f0779e2	0.52920353
85	0x4052d3bd	3.2941735
86	0x3f50d103	0.81568927
87	0xbd23d5d3	-0.03999884
88	0xbd2e7865	-0.042595286
89	0x3e758aeb	0.23978774
90	0x3eaa7a24	0.3329631
91	0xbc901d28	-0.017592028
92	0x3d530298	0.051516145
93	0x3dc2bb62	0.09508397
94	0x404bcfd0	3.1845589
95	0x3f808b6c	1.0042548
96	0xbef9bd81	-0.48777393
97	0xc05a530b	-3.4113185
98	0xbf55fdac	-0.835902
99	0xbebb286a	-0.3655427
100	0xbf0ecd38	-0.5578189
101	0x3df0002c	0.11718783
102	0xbee1aa96	-0.4407546
103	0x3d9d1ab9	0.076711126
104	0x3e8daccd	0.276709
105	0x3eaf91dd	0.34290972
106	0x3e1c47c2	0.15261748
107	0x3ede6501	0.43436435
108	0xbc4def8d	-0.01256932
109	0x40730ed8	3.797781
110	0x3dbb5c28	0.09148437
111	0xbf138ad1	-0.5763369
112	0x3c0dbf54	0.008651573
113	0x3db6b7df	0.089217894
114	0xbd36eb70	-0.044658124
115	0x40894d56	4.2906904
116	0xbe4a9997	-0.19785152
117	0x3f41a85e	0.7564753
118	0x40032bbd	2.0495446
119	0x3fb77f4b	1.4335722
120	0xbf2abe1d	-0.6669634
121	0xbc267885	-0.01016057
122	0x3dd82a57	0.10554951
123	0xbe7f28b4	-0.24917871
124	0x3e96f3c7	0.29482862
125	0xbecf1938	-0.40448928
126	0xbe2cc23e	-0.16870973
127	0x4071d636	3.7786994
128	0x3c374b26	0.01118735
129	0x3eaa1a5f	0.33223245
130	0xbe9bd197	-0.30433342
131	0x3e0b5576	0.1360682
132	0xbd7b6ab8	-0.06138107
133	0xbf00f143	-0.50368136
134	0xbf10c2e9	-0.5654741
135	0x3f0a7e02	0.5409852
136	0x406a58d1	3.661671
137	0x3ee156f9	0.44011667
138	0xbe4e76c6	-0.20162496
139	0x3e44b368	0.19209063
140	0x3e3c5b60	0.18394232
141	0x3ec9c770	0.3940997
142	0x40740c00	3.8132324
143	0x3d8a0b4a	0.067404345
144	0x3e0a08ac	0.1347987
145	0xc062b72a	-3.5424294
146	0x3ccf4dea	0.025305707
147	0xbdd7b71c	-0.10532972
148	0xc0a30e9e	-5.0955343
149	0xbf46b317	-0.7761702
150	0xbd5a6ea7	-0.053328183
151	0x4062c5c9	3.5433218
152	0x3cc4aa2d	0.024006927
153	0xbf6873c3	-0.9080164
154	0xbf503987	-0.8133778
155	0xbf81b2e3	-1.0132717
156	0xbe5e9e1f	-0.21740006
157	0x405f9e13	3.494023
158	0x3a981cdc	0.001160528
159	0x3e51d3ad	0.20490904
160	0xbd897eaa	-0.067136124
161	0xbe06422b	-0.13111179
162	0x3f82d200	1.0220337
163	0x3ffc27b2	1.9699614
164	0x3f5e4c5b	0.8683526
165	0xbf108415	-0.5645154
166	0x3e185135	0.14874728
167	0x3e3d3221	0.18476154
168	0xbe22a91e	-0.15884826
169	0x3dd1e495	0.10248677
170	0xbede7bbf	-0.43453786
171	0xbef9b0fb	-0.48767838
172	0xbd48e46a	-0.049045958
173	0xbeae4e2f	-0.34044024
174	0xbd9f3b4b	-0.07774981
175	0x406f3b5e	3.7379985
176	0xbe9eb70f	-0.30999038
177	0x3b36ab81	0.002787322
178	0x40864c0f	4.1967845
179	0x3d725001	0.05915833
180	0xbf5a3e4b	-0.852513
181	0xc02fd1a4	-2.7471704
182	0x3c6a95d0	0.014317945
183	0x3e877662	0.26457506
184	0x3ddc914a	0.10769899
185	0xbc78a4de	-0.015176026
186	0xbd2d354e	-0.042287163
187	0x407b47db	3.9262607
188	0xbac79a49	-0.0015228476
189	0x3dc1cc08	0.09462744
190	0x3c19b87b	0.0093823625
191	0xbf010055	-0.5039113

network.0.bias f4 [64]
0	0xbeace053	-0.33764896
1	0xbabb027b	-0.0014267707
2	0xba7af46c	-0.0009573165
3	0xbf0bf370	-0.5466833
4	0xb9557f6b	-0.0002036073
5	0xb9e03f04	-0.0004277156
6	0xbb7e6e71	-0.0038823152
7	0xba3ef092	-0.00072837726
8	0xbc2f49c7	-0.010698742
9	0xbd2ad5ec	-0.041707918
10	0xbf12320f	-0.57107633
11	0xbeb8c29b	-0.36085972
12	0xbec1f4d5	-0.37882105
13	0xb9121bb6	-0.00013933968
14	0xbf03ae96	-0.5143827
15	0xbe8dc662	-0.27690417
16	0xba1858ba	-0.0005811561
17	0xbef3ff3e	-0.47655672
18	0xbec1c634	-0.3784653
19	0xba8a7fbd	-0.0010566633
20	0xbb65326e	-0.0034972685
21	0xbb3e4fa9	-0.002903918
22	0x3c32ec28	0.010920562
23	0xbb034fbc	-0.002003654
24	0xba43379a	-0.0007446945
25	0xba9dc511	-0.001203688
26	0xba327a17	-0.0006808354
27	0xbef0bcf5	-0.47019163
28	0xbb089a9d	-0.002084411
29	0xbe8080d5	-0.2509829
30	0xbe857f40	-0.26073647
31	0xbaef59fb	-0.0018261069
32	0x3b8ed366	0.0043586968
33	0xbc79fb86	-0.015257722
34	0xbe960fc0	-0.2930889
35	0xbea28a42	-0.31746107
36	0xbae24dd5	-0.0017265627
37	0xbed3c9a5	-0.4136478
38	0x3abc1e18	0.001435223
39	0xbbf2e214	-0.0074122045
40	0xbaa42ef3	-0.0012526199
41	0xbd36d072	-0.044632383
42	0xbaa6bf28	-0.0012721764
43	0xbe0081e3	-0.12549548
44	0xbe822103	-0.2541581
45	0xbb923eed	-0.0044630677
46	0xbe2fca12	-0.17166927
47	0xbb755587	-0.0037435011
48	0xba53037e	-0.00080495316
49	0x3b17f34b	0.0023185785
50	0xbb82a435	-0.00398686
51	0x390584c3	0.00012733326
52	0xbb1c3724	-0.0023836577
53	0xbee6c452	-0.45071656
54	0xbc42b00e	-0.011882795
55	0xbe27a0c9	-0.16369928
56	0xbec2cdf9	-0.3804777
57	0xbeaa4a95	-0.33260027
58	0xbb9b2f87	-0.0047358903
59	0xbb20b68e	-0.0024522874
60	0x3bc404b7	0.0059820074
61	0xbebb4950	-0.3657937
62	0xba57d910	-0.0008233944
63	0xbf0d3499	-0.5515838

network.3.weight f4 [32, 64]
0	0xbb7cb4c0	-0.0038559884
1	0x3e845896	0.25848836
2	0x3ed34f6d	0.41271535
3	0xbd647564	-0.055776015
4	0xbfc0e7f4	-1.5070786
5	0xbfaa9f29	-1.3329822
6	0xbfd20e06	-1.641053
7	0xbfa5a37c	-1.2940516
8	0xbdc3ee6c	-0.0956696
9	0xbda7af6e	-0.081877574
10	0x3dc01284	0.093785316
11	0xbde3ed52	-0.1112925
12	0xbd9ab611	-0.07554258
13	0x3bb4ec87	0.0055213603
14	0xbdff72f8	-0.124731004
15	0xbd9bdacf	-0.07610094
16	0x3ef92c6c	0.48666704
17	0x3bf50400	0.0074772835
18	0xbd940c56	-0.072289154
19	0xbf92ac8e	-1.145891
20	0x3b711f78	0.0036792438
21	0xbc93ff92	-0.018066201
22	0x3cdc0773	0.02685902
23	0xbf72d028	-0.9484887
24	0x3e6d0375	0.2314585
25	0x3b7a5c41	0.003820196
26	0x3eb4b71a	0.35295945
27	0x3d828f68	0.06375009
28	0xbe9608a4	-0.29303467
29	0x3d350914	0.04419811
30	0x3dff907a	0.124787286
31	0xbe1e05df	-0.15431927
32	0x3da97de6	0.08275966
33	0x3cad6ba8	0.021169499
34	0xbd265108	-0.04060462
35	0xbdc6ce84	-0.097073585
36	0xbf4f1ca6	-0.8090309
37	0xbcfb3b38	-0.030667886
38	0xbf74898a	-0.9552237
39	0xbd16c3c3	-0.036807787
40	0x3bf5924e	0.0074942475
41	0xbc573370	-0.013134822
42	0xbfadf597	-1.3590573
43	0x3d613af4	0.054987863
44	0x3ddcde32	0.10784568
45	0xbebc7f76	-0.36815995
46	0xbd317358	-0.04332289
47	0xbe8aeac7	-0.27132246
48	0x3e4bf635	0.1991814
49	0x3f9798d8	1.1843519
50	0xbf88e99c	-1.0696292
51	0x3e68806c	0.22705239
52	0xbfb941ef	-1.4473246
53	0xbc9f81d0	-0.01947108
54	0xbcce544f	-0.025186686
55	0xbda83f4e	-0.082151994
56	0xbdd6494e	-0.104632005
57	0x3d89b45c	0.06723854
58	0xbfd9589d	-1.6980168
59	0xbf5e2ad2	-0.8678409
60	0x3c7f3c17	0.015578291
61	0xbaba1c80	-0.0014199167
62	0xbedd57ff	-0.43231198
63	0x3d47039c	0.048587427
64	0xbc506d20	-0.01272133
65	0xbd0ede91	-0.034880225
66	0xbeb736a9	-0.3578389
67	0xbdd8f5d6	-0.105937645
68	0x3f44ac4f	0.7682542
69	0x3f35d4d5	0.7102788
70	0x3f726b84	0.94695306
71	0x3f1a3679	0.6023937
72	0x3e983c5c	0.2973355
73	0x3c472e90	0.012157097
74	0x3d0c9fe8	0.034332186
75	0xbdb17f63	-0.08666875
76	0x3da0897f	0.07838725
77	0xbd3b2063	-0.045685183
78	0x3b9249e0	0.004464373
79	0xbce8612f	-0.028366653
80	0xbe9648d2	-0.29352432
81	0x3dd5d8b9	0.10441727
82	0x3df8b4a6	0.12143831
83	0x3f320ee3	0.69553965
84	0xbcd3bdba	-0.025847305
85	0x3cc72025	0.02430732
86	0xbdba9462	-0.09110333
87	0x3f14a27a	0.5806042
88	0xbe4ff7cc	-0.20309371
89	0x3c67c442	0.014145913
90	0xbea91f1b	-0.33031544
91	0x3ccf7870	0.025325984
92	0x3ec11e38	0.37718368
93	0x3dcfb186	0.10141282
94	0xbd1c92f4	-0.038226083
95	0x3e4663c9	0.19374003
96	0xbedae5c4	-0.42753422
97	0xbc8c4788	-0.017123953
98	0x3d820ea0	0.06350446
99	0xbdeab37d	-0.11460016
100	0x3f124ea7	0.57151264
101	0x3dba91d6	0.09109847
102	0x3f1f709a	0.6228119
103	0x3dc7dd00	0.09758949
104	0xbcf78776	-0.03021596
105	0x3d9f29b4	0.07771626
106	0x3f5120e4	0.8169081
107	0x3ded7cde	0.11596082
108	0xbc32bd90	-0.010909453
109	0x3e6daadd	0.2320971
110	0x3d36b3d4	0.04460509
111	0x3ea0f3fb	0.31436142
112	0xbe45159d	-0.19246526
113	0xbece1cca	-0.4025634
114	0x3f2870c1	0.6579705
115	0xbe7be9e3	-0.2460094
116	0x3f65d80b	0.8978278
117	0x3d9fd704	0.07804683
118	0x3dba28ee	0.09089838
119	0x3d80eea4	0.06295517
120	0x3c08ce00	0.0083498955
121	0x3db2f5a8	0.087382615
122	0x3f7ecbf4	0.9952996
123	0x3ea720ad	0.32642117
124	0xbe36e013	-0.17858915
125	0xbd070ebc	-0.032973036
126	0x3ec7e268	0.39039922
127	0x3db0f3ac	0.08640227
128	0xbc0d73f0	-0.008633599
129	0xbdc75d12	-0.09734549
130	0xbea4d0bf	-0.3219051
131	0x3db92b48	0.09041458
132	0x3f27ed2b	0.65596265
133	0x3f3a5536	0.7278627
134	0x3f3ae943	0.7301218
135	0x3f51f455	0.82013446
136	0x3ed43074	0.41443217
137	0x3db96cf8	0.09053987
138	0xbd17b1d8	-0.03703484
139	0x3d52b22a	0.05143944
140	0x3d87ab55	0.06624476
141	0xbccda3d2	-0.02510253
142	0xbb36ae80	-0.0027875006
143	0xbcd9b0ae	-0.026573505
144	0xbe632e0b	-0.22185533
145	0xbc93b0ef	-0.018028704
146	0x3dce2bce	0.10066949
147	0x3efde4db	0.49588665
148	0xbbacb96d	-0.005271128
149	0x3d590423	0.05298246
150	0xbd61d1ed	-0.05513184
151	0x3f0281aa	0.509791
152	0xbd835473	-0.06412592
153	0x3e109058	0.14117563
154	0xbdd25de6	-0.10271816
155	0xbdab2de6	-0.08358364
156	0x3ee3fb9b	0.44527897
157	0xbdcdd07a	-0.100495294
158	0x3c1b59d0	0.009481862
159	0x3e3f2feb	0.18670623
160	0xbeaf2076	-0.34204453
161	0xbd7beccc	-0.061505124
162	0xbd982bea	-0.07430251
163	0x3dbd27ba	0.09236093
164	0x3f061000	0.52368164
165	0x3d86e46e	0.06586538
166	0x3f415137	0.7551455
167	0x3e00c22c	0.1257407
168	0xbc6be6ef	-0.014398321
169	0xbd9329fe	-0.07185744
170	0x3f51b2a0	0.81913185
171	0xbdca5d62	-0.098810926
172	0xbd8e858e	-0.06959067
173	0x3eafa045	0.34301963
174	0x3bca4920	0.006173268
175	0x3eac796e	0.33686393
176	0xbdd1c000	-0.10241699
177	0xbefa1ed8	-0.48851657
178	0x3f20bf4a	0.62791884
179	0xbdafb24a	-0.08578928
180	0x3f82daa6	1.0222976
181	0xbd740508	-0.05957511
182	0x3df4582e	0.119308814
183	0xbd0d14b0	-0.034443557
184	0x3df290fe	0.11844061
185	0x3dea062a	0.11426957
186	0x3f6a667e	0.9156264
187	0x3ea5a060	0.3234892
188	0xbe1b92e9	-0.1519276
189	0xbc8f54e8	-0.017496541
190	0x3edbbee3	0.42919073
191	0x3d9aa354	0.075506836
192	0x3c2f5700	0.010701895
193	0xbe430cab	-0.19047801
194	0xbe8ab28e	-0.2708935
195	0xbde1e4ac	-0.11029944
196	0x3f16f8a2	0.58973134
197	0x3efa8e90	0.48936892
198	0x3f436de2	0.7633954
199	0x3f1ab45b	0.6043145
200	0x3eab3006	0.33435076
201	0xbc8e7690	-0.01739052
202	0xbd9ea25c	-0.07745811
203	0x3df6080d	0.12013254
204	0x3d820db2	0.063502684
205	0xbb301f18	-0.0026874002
206	0xbd091e00	-0.033475876
207	0xb9c1aa72	-0.0003693882
208	0xbeb4aec4	-0.35289586
209	0xbcf8af9a	-0.03035717
210	0xbda1651c	-0.07880613
211	0x3f02470a	0.50889647
212	0xbbe90563	-0.007111238
213	0xbc0fd994	-0.008779902
214	0xbd39146f	-0.045185503
215	0x3edcb4df	0.43106744
216	0xbc02d8ea	-0.007986287
217	0xbd003996	-0.03130492
218	0xbdb1a6ca	-0.086743906
219	0xbd48f0e8	-0.04905787
220	0x3edf455c	0.43607605
221	0xbdcb8a84	-0.09938529
222	0xbd4c1c10	-0.04983145
223	0x3e838bea	0.25692683
224	0xbed02248	-0.40651155
225	0xbc5354a0	-0.012898594
226	0x3dfd26e6	0.12360935
227	0x3c397502	0.011319401
228	0x3eda2ffd	0.42614737
229	0xbdcff6f0	-0.101545215
230	0x3f10491b	0.5636155
231	0x3e06d7b4	0.13168222
232	0x3c79f56f	0.01525627
233	0x3da1e544	0.07905057
234	0x3f04a530	0.51814556
235	0x3d835a9e	0.06413768
236	0xba872280	-0.0010309964
237	0x3ea53214	0.3226477
238	0xbdf364c2	-0.118844524
239	0x3e9bf26a	0.30458385
240	0xbe73d8f0	-0.23813224
241	0xbed5d45b	-0.41763577
242	0x3ef7dffa	0.48413068
243	0xbe9832db	-0.297263
244	0x3f11c8c9	0.56947
245	0xbd26cdb8	-0.040723532
246	0x3df5716e	0.119845256
247	0xbd6c847c	-0.057743534
248	0x3db53da8	0.088496506
249	0xbd90a282	-0.07062246
250	0x3f257973	0.6463844
251	0x3eb24d53	0.3482462
252	0xbe4abb92	-0.19798115
253	0xbdaec558	-0.08533734
254	0x3ed18cf7	0.4092786
255	0xbd793b20	-0.0608474

network.3.bias f4 [32]
0	0x3c189e8f	0.009315147
1	0xbc4e8131	-0.012604044
2	0xbc7b5ff7	-0.015342704
3	0xbb97d250	-0.0046332255
4	0x3c7e9fb3	0.015541005
5	0xbddc878b	-0.1076804
6	0x3be91b47	0.0071138474
7	0xbc019de8	-0.007911183
8	0xbc117dad	-0.008880061
9	0xbe8db135	-0.2767426
10	0x3c6cc84c	0.014452051
11	0x3c89cf63	0.016822523
12	0x3c2ec1ff	0.010666369
13	0xbc897126	-0.016777586
14	0xbc43631b	-0.011925484
15	0xbd164e44	-0.036695734
16	0xbc60a245	-0.013710563
17	0xbdfc941e	-0.123329386
18	0xbe059eec	-0.13048905
19	0x3c213efe	0.009841679
20	0x3d47404a	0.048645295
21	0x3c7bf9fe	0.015379427
22	0xbd81db3e	-0.06340645
23	0x3c1ea01d	0.009681729
24	0x3c910d75	0.017706612
25	0x3c2b91fb	0.010471816
26	0x3c0693a0	0.0082139075
27	0xbd1f4b03	-0.038889896
28	0xbd2e1b40	-0.042506456
29	0xbcb20f59	-0.021735834
30	0xbc19c3cc	-0.0093850605
31	0x3c75a004	0.014991764

network.6.weight f4 [16, 32]
0	0x3f72d8a3	0.9486181
1	0xbf7d7813	-0.99011344
2	0xbf8545a8	-1.0411882
3	0xbf797c24	-0.9745505
4	0x3f1c941a	0.61163485
5	0xbdd9dcdf	-0.10637831
6	0x3f961b4e	1.1727083
7	0xbf96e009	-1.178712
8	0xbf91053c	-1.1329722
9	0x3d953e58	0.07287282
10	0x3f2f1333	0.6838867
11	0x3f248bb7	0.6427569
12	0x3f68a75c	0.9088037
13	0xbf7d975e	-0.99059093
14	0xbf8b2f05	-1.0873724
15	0x3e16043d	0.14650054
16	0xbf9adbf6	-1.2098377
17	0x3b5ef3d9	0.0034019856
18	0x3e168860	0.1470046
19	0x3f9d9bc1	1.2313157
20	0xbe109222	-0.14118245
21	0x3ec1d627	0.37858698
22	0xbd281508	-0.041035682
23	0x3fbc90f5	1.4731737
24	0x3f330015	0.69922
25	0x3f1dedec	0.61691165
26	0x3fadaf9a	1.3569214
27	0xbe91f37a	-0.2850607
28	0xbba47ffd	-0.00502014
29	0x3e041ce0	0.1290164
30	0xbf64870b	-0.8926856
31	0x3f0ca029	0.54931885
32	0x3f761474	0.9612496
33	0xbdb74141	-0.08947993
34	0xbe0a99fa	-0.135353
35	0xbe1fd545	-0.156087
36	0x3f199689	0.59995323
37	0xbe147801	-0.14498903
38	0x3fb57cbe	1.4178693
39	0xbddda723	-0.108228944
40	0xbdce9ee0	-0.10088897
41	0xbdebdf0c	-0.11517152
42	0x3f3bb4e2	0.7332288
43	0x3f2dec25	0.6793845
44	0x3f443a74	0.7665169
45	0xbe3ba118	-0.18323171
46	0xbdd8a61d	-0.105785586
47	0xbd6062e1	-0.0547818
48	0xbe14877d	-0.1450481
49	0x3ca30ce1	0.019903602
50	0xbdf2087c	-0.118180245
51	0x3f89377d	1.0720059
52	0x3e90e122	0.28296763
53	0x3ee6af28	0.4505551
54	0x3e190f8e	0.1494734
55	0x3fc33b01	1.5252382
56	0x3f0713e9	0.52764755
57	0x3f4b9530	0.7952452
58	0x3fa4866a	1.285352
59	0xbc0839af	-0.008314534
60	0xbed3ff4b	-0.4140571
61	0xbea2b706	-0.3178026
62	0xbdaaa569	-0.08332331
63	0x3f21d922	0.63221943
64	0x3fa7c8f0	1.3108196
65	0xbf1e18fc	-0.61756873
66	0xbf3099e6	-0.6898483
67	0xbf3d7d46	-0.7401928
68	0x3f447a99	0.7674957
69	0x3d3e8ee0	0.046522975
70	0x3fcd7bd5	1.6053416
71	0xbf47ee49	-0.7809797
72	0xbf3692ea	-0.71317923
73	0xbca4addc	-0.020102434
74	0x3f34ad47	0.705769
75	0x3f80c1e6	1.0059173
76	0x3f9bc28d	1.2168747
77	0xbf93550c	-1.1510329
78	0xbf2aba8d	-0.66690904
79	0xbc9c6a80	-0.019093752
80	0xbf5bcb30	-0.85856915
81	0x3d1d9038	0.038467616
82	0xbb83b2a5	-0.004019099
83	0x3fbc18b1	1.4695035
84	0x3d25f695	0.040518362
85	0x3f4814e4	0.78156877
86	0xbdbd07b4	-0.09229985
87	0x3fd32565	1.6495787
88	0x3f54e4da	0.831617
89	0x3f91139d	1.133411
90	0x3fc98561	1.5743829
91	0xbf84b6ac	-1.0368247
92	0xbf83383b	-1.0251535
93	0xbefe826e	-0.49708885
94	0xbf21eb81	-0.63249975
95	0x3f3f2586	0.7466663
96	0xbf2a844a	-0.6660811
97	0xbe103bcf	-0.14085315
98	0xbce6722c	-0.028130613
99	0x3d899c4e	0.06719266
100	0xbeaa39e2	-0.33247286
101	0xbdd9ab51	-0.10628379
102	0xbf745479	-0.95441395
103	0x3e114b56	0.14188895
104	0x3df56780	0.11982632
105	0xbe9ee52d	-0.31034222
106	0xbee4034a	-0.4453376
107	0xbf06bf77	-0.526359
108	0xbf137285	-0.5759662
109	0x3d76c4b4	0.060246184
110	0x3e1ab7a9	0.15109123
111	0xbdfaa7e9	-0.122390576
112	0xbcb37490	-0.021906167
113	0x3e3ae978	0.18253124
114	0x3cd0d5ce	0.025492575
115	0xbf635a7d	-0.8880995
116	0x3d20976b	0.039206903
117	0xbe9436b6	-0.2894799
118	0xbd0028fe	-0.031289093
119	0xbf73dd5c	-0.9525964
120	0xbea0839d	-0.31350413
121	0xbf1c9746	-0.61168325
122	0xbf627850	-0.8846483
123	0xbcd8a846	-0.026447427
124	0xbe136d8a	-0.14397255
125	0xbcc61974	-0.024182059
126	0x3da5cc0d	0.0809556
127	0xbe98e637	-0.2986314
128	0x3f60bcf8	0.87788343
129	0xbf1d67f5	-0.6148675
130	0xbf288027	-0.65820545
131	0xbf25b620	-0.64731026
132	0x3f25624b	0.6460311
133	0xbd3f0932	-0.04663963
134	0x3facd9d8	1.3503981
135	0xbf3420fe	-0.7036284
136	0xbf274073	-0.65332717
137	0x3de9687d	0.11396883
138	0x3eeadda0	0.4587221
139	0x3f70aa4e	0.94009864
140	0x3f6aa2e1	0.91654783
141	0xbf7049b4	-0.9386246
142	0xbf1ef9f9	-0.6210018
143	0x3d98030f	0.074224584
144	0xbf428f81	-0.7600022
145	0xbe1029a3	-0.14078383
146	0xbd1395db	-0.036031585
147	0x3f8871fb	1.0659784
148	0xbda341da	-0.079715446
149	0x3f21595e	0.6302699
150	0x3e42592c	0.18979329
151	0x3fa73758	1.3063765
152	0x3f493ed7	0.7861151
153	0x3f63d954	0.8900349
154	0x3fa95357	1.3228558
155	0xbf7cbe8b	-0.98728245
156	0xbf1e29be	-0.61782444
157	0xbe0e5906	-0.13901147
158	0xbf0f5d13	-0.56001395
159	0x3f20480b	0.6260993
160	0xbf3247a1	-0.6964055
161	0x3bb589eb	0.0055401227
162	0x3e0d2686	0.13784227
163	0x3dacb665	0.084332265
164	0xbec3c9d8	-0.38239932
165	0x3db44f99	0.088042445
166	0xbf487d06	-0.7831577
167	0xbe5ee59e	-0.2176728
168	0x3c1fc185	0.0097507285
169	0xbeac8924	-0.3369838
170	0xbf11dd6f	-0.56978506
171	0xbef22a06	-0.47297686
172	0xbed65c80	-0.41867447
173	0x3d52bf64	0.051452056
174	0xbd1021bb	-0.035188418
175	0x3d95d5b0	0.07316148
176	0xbc3a15a2	-0.011357697
177	0x3d9306a7	0.07179003
178	0xbc6afcec	-0.014342528
179	0xbf27831c	-0.6543443
180	0x3dd57a43	0.1042371
181	0xbe81245f	-0.2522306
182	0xbcbe5289	-0.023232715
183	0xbf68abc6	-0.90887105
184	0xbf04e7eb	-0.5191638
185	0xbeeede1c	-0.4665383
186	0xbf6c94c1	-0.9241448
187	0xbd786335	-0.060641486
188	0x3e4cab92	0.19987324
189	0x3e0e2f04	0.13885123
190	0x3db51321	0.08841539
191	0xbeab5810	-0.33465624
192	0x3f95f823	1.171635
193	0xbeba88ff	-0.36432645
194	0xbed579b2	-0.4169441
195	0xbf0ce927	-0.5504326
196	0x3f29a867	0.66272587
197	0xbd479668	-0.048727423
198	0x3fb29075	1.3950335
199	0xbf03766a	-0.5135256
200	0xbefb6dbb	-0.49107155
201	0xbe2aeab4	-0.16691095
202	0x3f597dec	0.84957767
203	0x3f8758b0	1.057394
204	0x3f720163	0.94533366
205	0xbf2b4a75	-0.6691049
206	0xbee934b6	-0.45548028
207	0x3dad8ec7	0.08474498
208	0xbeeb683b	-0.4597796
209	0x3df5ad97	0.11996
210	0xbce5a7f6	-0.028034192
211	0x3f9e7c23	1.2381634
212	0xbe3234f0	-0.17403007
213	0x3f32bdf9	0.69821125
214	0x3e485c92	0.19566563
215	0x3fc92a67	1.5716065
216	0x3f6703a3	0.90239924
217	0x3f925086	1.1430824
218	0x3fabfdb9	1.3436805
219	0xbf00c13b	-0.50294846
220	0xbfd57551	-1.6676427
221	0xbf4d48ec	-0.80189395
222	0xbeae3cdc	-0.34030807
223	0x3f58ec4c	0.8473556
224	0xbf5ff516	-0.87483346
225	0x3d12bd1e	0.035824887
226	0xbd247a39	-0.040155623
227	0x3bb24e27	0.0054414454
228	0xbf12b87e	-0.5731276
229	0xbe31b437	-0.17353903
230	0xbf8ae8b9	-1.0852271
231	0x3d911c27	0.07085448
232	0x3c624cd0	0.013812259
233	0xbde58d06	-0.11208539
234	0xbf3de1c3	-0.7417261
235	0xbf1e3d23	-0.6181204
236	0xbf6b3f4a	-0.91893446
237	0xbc4ba12a	-0.012428561
238	0x3dec8d56	0.11550395
239	0x3dc03b91	0.093863614
240	0x3d2448d7	0.040108528
241	0xbe0e0f7b	-0.13873093
242	0xbccee720	-0.025256693
243	0xbf825daf	-1.018484
244	0x3de35a4c	0.11101207
245	0xbee400f0	-0.44531965
246	0x3d133974	0.035943463
247	0xbfabb506	-1.3414619
248	0xbf06d80a	-0.526734
249	0xbf18c200	-0.5967102
250	0xbf9f6fd6	-1.2456005
251	0xbdc2eae0	-0.09517455
252	0x3cb0b846	0.021572243
253	0xbcefd6a3	-0.029277151
254	0x3ba0c770	0.0049065873
255	0xbf1cd8ae	-0.61268127

network.6.bias f4 [16]
0	0x3d82b718	0.063825786
1	0x3eb71bef	0.357635
2	0x3e934440	0.28763008
3	0x3e7d3f55	0.2473119
4	0x3e12f218	0.14350164
5	0x3e3ac63b	0.18239681
6	0x3ed41184	0.41419613
7	0x3ea0d7ba	0.31414586
8	0x3e526283	0.20545392
9	0x3eae4087	0.34033605
10	0x3dd40c38	0.10353893
11	0x3e7a73cb	0.24458234
12	0x3e5e6338	0.21717536
13	0x3d888c18	0.06667346
14	0x3ccec652	0.02524105
15	0x3eac7daf	0.3368964

network.8.weight f4 [1, 16]
0	0xbfb09b08	-1.3797312
1	0xbf3ea181	-0.74465185
2	0xbf3f7781	-0.74791723
3	0x3f33e341	0.70268637
4	0xbf9a76e4	-1.2067533
5	0x3f31dae4	0.69474626
6	0xbf39a471	-0.7251654
7	0x3f0f2bdd	0.55926305
8	0x3f2ba561	0.67049223
9	0xbf74411c	-0.9541185
10	0xbfd51066	-1.664563
11	0x3f07d064	0.53052354
12	0x3f319fa9	0.6938425
13	0xbf7f30f1	-0.99684054
14	0x3f8e52a4	1.111897
15	0xbf40f751	-0.75377375
