第六次作业10245501405杨云天/model/Computer Science.pth (torch, 15435 bytes, 7 tensors)

network.0.weight f4 [64, 3]
00000000: 4f8a b6be e70b 35bf f54a c8be de48 93be
00000010: 11f2 f6be 90f2 b3bd 5588 303f c328 b23f
00000020: bbd6 b33e 6266 ab3e 011a 813f 195d 333f
00000030: abd4 7dbd 1bc1 e23e 0f25 073f d7bb 453e
00000040: e375 303f e83d 47bf bfe3 22bf 4438 7cbf
00000050: effd 55be 2651 7fbf 0436 95bf 4b5a 11bf
00000060: af2d 0cbf 8357 bc3e 3f5b 83be 721d 8dbe
00000070: 284a a63e f5d7 e3be 043b 28bf b4c6 8cbf
00000080: c21e 263e 0c24 15be 7bdc 9e3e ef31 733e
00000090: b272 cb3d e5ae f23d 4e27 a43c a855 cebe
000000a0: 4bbf 25be 052f 88be dfe8 d7bd cfa0 3d3f
000000b0: af3e 023f 913a 053f 57bb a13f dcc5 7b3e
000000c0: 2689 1dbf 0465 abbf 6f8b 6cbe e8c3 78bf
000000d0: 7552 cebe ae2a 1ebf c54c 34bf 6bd8 253e
000000e0: 8a56 56be 2e0b c43e a92f 0cbc e580 b9bd
000000f0: 0ff4 283f 9457 30bb d65b 203f f5ee 093f
00000100: b9ce abbe ab97 b6be c69d 233e 6c68 afbf
00000110: 2e64 14bf 011c ee3e 20cd 423f 0c39 283f
00000120: 710e 23bf 0584 0ebe 4d61 3fbf afb9 9a3e
00000130: a551 ab3e d063 a6be 2720 35bc 3436 b5be
00000140: b9cd ea3e 04a1 57bf 9929 1abf 7c38 14bf
00000150: 14a7 3abe 1d17 e8bb 4626 89be 2afa 9fbe
00000160: 9526 d6be e3ae 31bf 87e9 293e 5932 8f3e
00000170: 4f59 663d e0e9 6cbe 403a 2fbf c659 643e
00000180: bb07 1cbf e267 babe 1179 6ebe 001a 15be
00000190: 3c76 bdbf f1df 2abf 1239 8e3e d1d9 dc3d
000001a0: ed4d 813e 14fb f1be eb19 a53e 75b0 0b3f
000001b0: adbf 17bf 2d99 92bf c37d 4bbe 523a e3be
000001c0: a535 a1be a636 c7be a582 b43d 1d62 893e
000001d0: 1e46 063e b18a 3fbf a8d9 d1be 2b36 aabe
000001e0: 509a 7bbe 38df 80be 8698 f5be add0 79be
000001f0: 94cf c43f 1be7 80be ba08 1abf 04ff 16bf
00000200: 7c20 61bf c8af a1be 5a62 49bf 7c66 29be
00000210: 6518 113f 5b52 213f 6527 373f c837 08bf
00000220: 6554 423e 9782 fbbe e02e 973e bdf1 aa3f
00000230: 7e52 9c3e d170 d3be df03 da3e edca b9be
00000240: 08be 203f ac52 bf3e d2e8 2f3f 0cc5 533d
00000250: 5126 d03e d2a3 a23e 41fd 61bf 3c25 6fbf
00000260: d5be e1bd ea6f fbbc e7f3 3e3e d819 e4be
00000270: 0e67 1dbf 1e71 88bf aedb 9a3e 0d36 1cbd
00000280: bd2f a23f 9bd3 9c3d a258 e93e 4c7d 6f3f
00000290: f016 153f 7c03 99be 5e8e 04bf 0413 31be
000002a0: d423 79be dca2 5a3d 54e7 22be 6a32 113e
000002b0: aa9f c7be 4916 c43d e4ad 7c3d 8f54 f73c
000002c0: 80b7 593e c4cf 093e 2e8c 913f da38 023f
000002d0: 4eb7 c7be 8678 99be 241c c3be c01d 803e
000002e0: aa99 a33f 3cba 0e3d 8142 17bf ab91 b1bf
000002f0: 4550 e0be b336 3c3f 7a56 b73e f6ba 253f
-0.35652396 -0.70721287 -0.39119688 -0.2876653 -0.48231557 -0.087864995 0.68958026 1.391869
0.35124764 0.3347655 1.0086061 0.7006393 -0.061970394 0.44287953 0.5279092 0.19309936
0.6892988 -0.77828836 -0.6362876 -0.98523355 -0.20897649 -0.997332 -1.1657109 -0.567784
-0.5475721 0.36785516 -0.25655553 -0.27561527 0.32478452 -0.445007 -0.6571505 -1.0998139
0.1622267 -0.14564532 0.31027588 0.23749517 0.09933986 0.11849765 0.020038273 -0.40299726
-0.16186254 -0.26598373 -0.105424635 0.740735 0.508769 0.5204249 1.2635297 0.24587196
-0.61537397 -1.3390203 -0.23100065 -0.9717393 -0.40297285 -0.61783874 -0.7042964 0.16195838
-0.2093145 0.3828978 -0.008556285 -0.09057788 0.65997404 -0.002690767 0.6264013 0.53880244
-0.33556154 -0.35662588 0.15978155 -1.3703742 -0.5796536 0.4650574 0.76094246 0.65712047
-0.6369391 -0.13917549 -0.74757844 0.3021979 0.33460727 -0.32498026 -0.011055029 -0.35392916
0.4586008 -0.84230065 -0.60219723 -0.5789869 -0.18227798 -0.0070828334 -0.26787013 -0.31245548
-0.4182631 -0.6940748 0.1659299 0.279681 0.056237515 -0.23136091 -0.6844826 0.22299871
-0.60949296 -0.3640738 -0.2328837 -0.145607 -1.4801707 -0.6674796 0.27777916 0.10783733
0.25254765 -0.4726187 0.32246336 0.5456613 -0.5927685 -1.1452996 -0.19872193 -0.44380432
-0.3148624 -0.3890888 0.08813981 0.26832667 0.13112685 -0.74821 -0.4098637 -0.33244452
-0.24570584 -0.25170302 -0.4796793 -0.2439601 1.5375848 -0.2517632 -0.60169566 -0.5898287
-0.8794019 -0.31579423 -0.786657 -0.16543001 0.5667785 0.6301629 0.71544486 -0.53210115
0.18977506 -0.4912307 0.2952795 1.3355023 0.30531687 -0.4129701 0.42581078 -0.36287633
0.62789965 0.3736776 0.6871463 0.05170159 0.40654233 0.3176561 -0.8827706 -0.9341619
-0.110227264 -0.030693013 0.18647729 -0.44550967 -0.61485374 -1.0659521 0.30245727 -0.038137484
1.2670819 0.07657548 0.45575434 0.9355056 0.58238125 -0.2988547 -0.51779735 -0.1729241
-0.24330074 0.05337797 -0.15908557 0.14179388 -0.38989002 0.09574563 0.061689273 0.030191688
0.21261406 0.13458163 1.1370904 0.50868 -0.39007038 -0.29974765 -0.38107407 0.25022697
1.278127 0.034845576 -0.5908585 -1.3872579 -0.4381124 0.73520964 0.35808164 0.64738405

network.0.bias f4 [64]
00000000: a72d a23d 57fd f2bd 07ef ecbc 5c31 7ebd
00000010: f157 8e3e c667 4d3e dfcf 8b3d b0b9 dd3d
00000020: 9d5c 60bd a2ca febe acb4 333d e97c d2be
00000030: 1714 55be 6311 173e 32f6 7d3e 2301 91bc
00000040: e71f 883d 6842 593d 500c a83e e6ec 243e
00000050: bfd9 973d c5aa 4abe 9d2a 0d3d 62ab 0c3e
00000060: 7ce3 0e3e 0f48 0c3e 302a 86be 1e1c 3c3d
00000070: d602 9cbe 08e7 583e e789 253e e23c b43e
00000080: 2e55 883d 4ddf 593d b316 01bf 9427 bdbe
00000090: bb0e f73d a8c2 a5be 94d1 a7be e214 a73d
000000a0: e511 02bf 21fe 7d3b 68b7 163d 8252 1a3e
000000b0: b39b bebd bf69 fcbe 7fc2 63bc cee6 a6bd
000000c0: 8f80 d3bc 2df5 03bf fa07 313d 075d 4cbe
000000d0: aa4d 4e3d d60b 27bb f88b b13e ae6f b9be
000000e0: d292 59be 37a3 7c3e 60d1 87be ac75 3fbc
000000f0: 8098 903e dbc6 0dbc de6c 3f3d b906 7cbd
0.07918864 -0.11864727 -0.02892257 -0.06205879 0.2780147 0.20059118 0.06826758 0.10826433
-0.054775823 -0.49763972 0.043873474 -0.41110924 -0.20808445 0.14752726 0.24800947 -0.017700737
0.0664671 0.053041846 0.32821894 0.16105995 0.07414579 -0.19791706 0.034464467 0.13737252
0.13953966 0.13699363 -0.26204062 0.045925252 -0.30470914 0.21181881 0.16165887 0.352027
0.06656872 0.05319147 -0.5042526 -0.36944258 0.120633565 -0.32375073 -0.32777083 0.0815828
-0.50808555 0.003875621 0.036796004 0.15070537 -0.09307041 -0.49299428 -0.013901352 -0.08149491
-0.025818137 -0.51545984 0.043220498 -0.19957362 0.050367035 -0.0025489233 0.346771 -0.36218017
-0.21247414 0.24671637 -0.26526928 -0.01168577 0.28241348 -0.008653368 0.046734683 -0.06152985

network.3.weight f4 [32, 64]
00000000: ae96 9b3d 0cfc 87bd a70c acbe f5af edbd
00000010: aae4 ce3d a8ce 623d 9c9a 553e aa53 423d
00000020: 808c 113c 4067 0b3d b319 fb3e b262 99bd
00000030: 32c9 b73d 0e9b 63bc f32d 3bbd 5e28 b4bd
00000040: aaa2 953d 3652 573e 5213 abbc b2c3 5d3c
00000050: 61c5 b43d 8cfc c1bd 463f e73e bf00 99bc
00000060: ef9d 82bd 253f 84bd 7c30 1abd 47b6 983e
00000070: 80b8 23bd 7e2a b5bd 497b 5fbc 21d8 b63c
00000080: 7cdc ae3d fb01 bb3e 70a6 39bd 289f 91bc
00000090: 0c2d 03bb 2088 b13c 4486 56bd 3f1e d63d
000000a0: 9aae 9fbd cd6b 4abf cae6 983e 01cf ec3d
000000b0: c8cb c8bd 508f 893d 2c0d 8bbe 7053 2fbd
000000c0: 45da 77bd 0c41 573d 11b8 a43e d408 96bd
000000d0: 7214 613e 6fb1 16bf 1fe5 7d3d 08f2 9bbd
000000e0: fc03 20bd f762 a63c 2646 9abd c1d4 b1be
000000f0: 9aee 7cbd 79ae acbe 4edf 813e 2810 7abe
00000100: 6278 0fbe 7058 4f3d 3025 063e 52d3 b43e
00000110: c213 243d 735b a6bd 8d46 14be d4ed 893c
00000120: 634b e23d 30eb 5c3d 1ec6 39be 2c75 aabd
00000130: 70b4 8d3c 6256 99bd 9047 70bd a1d5 583e
00000140: 3eb8 24bd 7123 ffbd 2a99 5b3d f2b8 e4bc
00000150: a7c8 b4bc 8cd2 ffbd eb36 89be 73aa cb3d
00000160: 6d85 8f3d 9663 45b9 848f 2f3d 5f0d 96be
00000170: 3cfa 90bd ca61 72bc dfe6 673d 88f8 013d
00000180: a44d efbc 0e5a 93be 0028 743d 674b d9bd
00000190: 123d 20bc c073 dc3b 028f 863d 3a57 4cbd
000001a0: e2af f63d 9a27 0d3f 02b7 70be ce92 b0bd
000001b0: 17a1 743e 2097 dfbb 179e 993e 7ea2 b5bd
000001c0: 34da 8f3d 82fd b3bd aa65 cdbd bc49 a53d
000001d0: d19d e9bd e5be 763e 9207 aa3d b8b1 c43c
000001e0: 088a cfbd 157a bc3d 4ef2 873d 4c36 9c3e
000001f0: 091a 903d 9a28 913e e884 85be 8f18 cf3c
00000200: 1456 6bbd 6aec d13d 93da bcbe 5cdc 8ebd
00000210: 63a1 83bc a4d0 91bd 86e3 fd3d 5e29 093e
00000220: 0821 b1bd 48cd 853d cb76 f23e 8018 0a3d
00000230: 0447 1ebd 869d aebd 14c8 913d bc98 75be
00000240: f9aa c83d 4621 143e d196 94bd 0b83 cf3d
00000250: a018 913d 3068 e03d 0fe5 bb3e e82f 843d
00000260: 2ad6 023d 31dc b6ba 8081 84bd 2c04 b83e
00000270: 84e3 cbbd 5df1 5fbd 3322 a9bd 00f8 ea3c
00000280: edee 28bc 5849 a43e 501e 62bd 1280 99bd
00000290: ba35 afbc 28c7 c9bc b058 82bc 464d e43d
000002a0: 407a 193b a7c4 5dbf 94de 633e 3397 9ebd
000002b0: e724 963d 40f0 24bb 06f2 81be c0b1 b93c
000002c0: 0204 d4bd 90c9 fb3d 3580 0c3e aa70 fc3d
000002d0: 1341 933d 9c85 1dbf c745 05bd d215 c93d
000002e0: f633 b3bd 5e33 283d 6093 733d 34e1 a8be
000002f0: 1b38 913d 22ac d0be a1fd ca3e a3f4 a2bd
00000300: 0e1d a13c c08c 19bc 33ff 94be 3d24 b4bd
00000310: 147f d2bc 0d1c a2bd b8a3 213c cdf9 423d
00000320: 7d51 dbbd a05f 723c 1490 0f3f 3ca5 9f3d
00000330: 8062 3dbd e5b2 ad3c 2778 5bbd 8540 f1bd
00000340: 0883 b03d 593f 443d 9c04 0fbd fbbc 583d
00000350: 7c26 0b3d 7444 5e3d eb57 df3e 90c4 213d
00000360: bdee f3bd 3697 d3bd e00b ab3b 40f4 de3e
00000370: f8ce 503d 5cf4 5bbc 627d 3cbc 2b71 163d
00000380: 9a57 853d 1fc3 ca3e 9a39 f0bd c3b0 c4bd
00000390: d02c 81bd ce34 9a3d 405c 4b3c e8d8 903d
000003a0: 50cd 1dbc aa11 4fbf a014 843e 3c70 c1bd
000003b0: 80c9 c5bd 1c4c 65bd 24e8 68be b0a5 ee3d
000003c0: bbde 09be 30dc fbbc 8b8b 993e aaff f7bd
000003d0: 36d2 993d aea1 18bf 8281 3bba c441 e83d
000003e0: e0f5 cfbc 8c89 473d 3e82 d93d 51d9 d1be
000003f0: 8098 c6bc 5c3e 92be 19a1 f53e a701 41be
0.07597099 -0.06639871 -0.33603403 -0.11605827 0.10102208 0.055372864 0.2085976 0.04744307
0.0088835955 0.034034014 0.49043044 -0.07489528 0.08973922 -0.013891948 -0.045698117 -0.08796762
0.07306416 0.21027455 -0.020883236 0.013535427 0.088267095 -0.094719976 0.4516546 -0.018677114
-0.0637778 -0.06457356 -0.037643895 0.29826567 -0.039970875 -0.08845995 -0.013640233 0.022319855
0.08538148 0.36524948 -0.045324743 -0.017776087 -0.0020015864 0.021671355 -0.05237414 0.10454988
-0.077969745 -0.7907074 0.29863578 0.1156292 -0.09804493 0.06716788 -0.27158487 -0.04280418
-0.060510892 0.052552268 0.32171682 -0.073259026 0.21980456 -0.5886449 0.061986085 -0.07614523
-0.0390663 0.020310862 -0.07532911 -0.3473263 -0.061750986 -0.33726862 0.2536568 -0.24420226
-0.14010766 0.05062145 0.13100123 0.35317475 0.040057905 -0.08122911 -0.14480038 0.016837038
0.11049535 0.05393523 -0.18141982 -0.0832313 0.017297953 -0.07487179 -0.058661997 0.21175243
-0.04021477 -0.12457932 0.053612866 -0.02792022 -0.022068335 -0.124913305 -0.26799712 0.0994462
0.07007871 -0.00018824483 0.042861477 -0.29307076 -0.070789784 -0.014793823 0.05661666 0.03173116
-0.029211827 -0.28779644 0.05960846 -0.10610085 -0.009780185 0.0067276657 0.06570245 -0.049887873
0.12045266 0.5513855 -0.23507312 -0.08621751 0.23889576 -0.0068234354 0.30003425 -0.088688836
0.07024041 -0.08788587 -0.100291565 0.08070704 -0.11407054 0.24096258 0.08302225 0.024010524
-0.10133749 0.09202973 0.06638013 0.30510175 0.07036216 0.2835129 -0.26077962 0.025280265
-0.057455137 0.102501705 -0.3688551 -0.06975624 -0.016068166 -0.07119873 0.12396912 0.13394687
-0.08648878 0.06533295 0.47356257 0.03371477 -0.038641945 -0.08526139 0.0711824 -0.23984045
0.097982354 0.14465818 -0.072553284 0.10132416 0.07084775 0.10957372 0.36698195 0.0645445
0.031942524 -0.001395112 -0.06470013 0.35940683 -0.099555045 -0.05467354 -0.08258476 0.028682709
-0.010310871 0.32087207 -0.05520469 -0.074951306 -0.021387924 -0.024631098 -0.01591143 0.11147551
0.0023418814 -0.8662819 0.22252876 -0.07743683 0.07331257 -0.0025167614 -0.25379962 0.022667766
-0.10352327 0.12294304 0.13720782 0.123261765 0.07190146 -0.61531997 -0.032537248 0.09818615
-0.08750145 0.041064613 0.05946672 -0.32984316 0.070907794 -0.40756327 0.39646628 -0.07956817
0.019667175 -0.009371936 -0.29100952 -0.087959744 -0.025695361 -0.079155065 0.009865694 0.04760151
-0.10708902 0.014793307 0.5607922 0.07795188 -0.046236515 0.021203468 -0.053581383 -0.11779884
0.08618742 0.047911976 -0.034916505 0.0529146 0.03397225 0.0542645 0.43621764 0.039494097
-0.1191077 -0.103315756 0.0052199215 0.43545723 0.05097863 -0.013424959 -0.011504503 0.03672902
0.06510849 0.3960199 -0.117297366 -0.09604027 -0.063073754 0.07529603 0.012412131 0.070726216
-0.00963147 -0.8088633 0.25796986 -0.09445235 -0.09657574 -0.055980787 -0.22744805 0.11652696
-0.13463871 -0.030744642 0.29989275 -0.12109311 0.07510798 -0.59621704 -0.0007152782 0.11340669
-0.025385797 0.04871516 0.10620545 -0.40986112 -0.02424264 -0.285632 0.4797447 -0.18848287

network.3.bias f4 [32]
00000000: a7fe 5e3b e03a bcbc 4245 213d 48aa f63d
00000010: 1eba 8b3d 23b6 843d 5c22 5cbc 3bf6 03bd
00000020: e6c1 bc3c 74b6 5ebd c617 9c3d 47e9 20bd
00000030: 662e b93d 9281 2f3e 7c92 f13d 1703 e13d
00000040: 3c54 f43d b892 11bd 3ad0 a33c 4b9b 173d
00000050: 93d2 b53d 5e60 d8bd 8d2a 153d 4113 95bd
00000060: 9c45 8abd d433 473d d409 e13d 3990 88bd
00000070: c756 803d 851f a7bc 055c 703d 1118 0ebc
0.0034026296 -0.022977293 0.03937269 0.12044197 0.068226084 0.06480052 -0.013435926 -0.032217246
0.023041677 -0.05437322 0.07621722 -0.03928497 0.09042053 0.17139271 0.11795518 0.109869175
0.11930129 -0.035540313 0.019996751 0.037013333 0.088780545 -0.105652556 0.036417533 -0.07279063
-0.06751558 0.04863341 0.10988203 -0.06668133 0.062665515 -0.020400772 0.058681507 -0.00867273

network.6.weight f4 [16, 32]
00000000: e172 ae3e 79e9 ffbb 5831 c43e 741a cb3d
00000010: b0b1 83bd 8088 fa3d c5ec af3e a241 bcbc
00000020: 3b2a 2ebe 7e85 b53e 23a6 acbd d67a 0c3e
00000030: cf9b 923e 4dd7 323e 61a5 4f3e 9ddc 7f3e
00000040: 1c66 1a3e adf7 6b3d 3baa 36be dcc3 25be
00000050: fb22 b03e b213 2cbe 8fda 00be ecb8 b7bd
00000060: 3370 7dbd 472f a53e 8b61 603e 8351 0dbe
00000070: e6d0 b3bd c26c ac3e 1e7c 9e3e a488 213e
00000080: a2bc a73e b74d 163d 183a 2f3e f941 c63e
00000090: b4f8 123c 72f4 bd3e fbd2 c03c 5387 7dbe
000000a0: a72e 0bbe ca82 703e 9455 5abe c442 193d
000000b0: a1c3 813e c333 113e 90df 423e f58e 923e
000000c0: c953 703e 5573 56bd d8d7 be3b 57ab 10be
000000d0: 8452 b63e 21b6 19be c966 4cbe de80 f53b
000000e0: 1167 90be 5dfb ad3e 5296 ed3d b7aa 30be
000000f0: 945f f6bd 4568 bc3e b18d 6c3e 9d9f c33e
00000100: efea 3fbe 13b5 04be 15cb e03c 1b12 2dbe
00000110: 2eff 3bbe f66f 673d 4db0 96bd 384f 123d
00000120: e89f 103e 0c77 673d a7ee 23be 59f1 343d
00000130: c93d f1bd c7f0 a33d 55cf ebba 2104 0fbe
00000140: e668 d03d 2254 eebc 618a 90bc b7d3 d83c
00000150: 3ddb 0cbe dccd 1f3d aaf6 35be 2a47 dc3e
00000160: 5713 93be b10c 1dbc 302f 88bd 4672 da3d
00000170: 8f17 053e 0fba 753d 6fe9 acbd 3c71 ca3b
00000180: ec84 2dbd ce6a 5dbe 9050 27be 882b b1bc
00000190: 3d58 bbbd 61db debd ac4f c43d cc54 bebc
000001a0: d462 3d3e a090 77bd 4087 b9be 5e4f e13d
000001b0: 5a78 26bb ac94 2d3d fc62 e0bd 88c4 3bbe
000001c0: 02c7 8dbc 6939 30be ba28 973e 9e86 fcbd
000001d0: 82df c3bc fa54 82bd d736 0cbe 7388 a33e
000001e0: 208c fe3d 1873 513d 6c4e 93bd 1bcc b73d
000001f0: 59be e1bd 0fc2 4ebe ace6 b8bc 2e01 50bd
00000200: 996c 33be 1571 abbd f4d9 bbbd e123 3cbe
00000210: cbc1 a93d e9f1 e83c a450 e3bc a416 ad3d
00000220: 2c3f 9d3e cb6d 363c 2360 043e 79bf efbd
00000230: 9038 15be 0fcf ff3d 18e7 40be 0ff3 6f3c
00000240: ae1c 37bc 3ef8 d6bd ad70 373e aef5 53be
00000250: c570 81bc bcac 23bd 0158 61be e7fa 193d
00000260: d3fc d9bd 054a 593b 98b8 67bc dad5 bdbd
00000270: ef19 4ebe 5ae9 ae3a d0ac 3eba 3827 20be
00000280: f626 4bbe 0873 3a3e c5a4 ba3b 90ee 58be
00000290: 0b19 803e c778 04be 88c1 70bd 8e19 55bc
000002a0: 538b 4f3e eaaf 14be fb23 813e 180b 0bbe
000002b0: 9645 093c 8d2e c43c 2893 7bbd a581 88bd
000002c0: dccf 8a3c d17a f43d 26c3 86ba d08a 663e
000002d0: f67a 4abe 42b4 05be 1a64 693d 2ccc 383e
000002e0: f21b 073e 09a5 80be 77ad 673d b437 393e
000002f0: 6eb6 893e c214 1fbe a06c 683d 4edf 893d
00000300: f6c9 9a3c c006 f0bc 0527 093e 4231 babc
00000310: 98a8 c9bd e9e6 08bd 7315 0dbd ccb4 3cbe
00000320: 077e 96bd 2f66 243c b7ed 25be 9558 36bd
00000330: 7b9a eebd a52c fabd a1a9 44be b0c0 273e
00000340: c754 dabc b404 85bd 362f 473d d5e9 073e
00000350: b702 fdbd 01fb 133e ad9e 6f3c e957 d6bd
00000360: 90a9 28be 1223 ebbd d595 013d 6a37 113d
00000370: aff7 32be c623 89bd a0aa 563d d734 013e
00000380: c99b a33e 5b30 eebd b206 f93e 26c1 c73e
00000390: 54c3 63be 49d1 9e3e bb46 af3d 9176 98be
000003a0: 5948 97be d400 e43e 8cff 8bbe e402 823d
000003b0: 4fae 96bc 5cd1 903d 4f1c 0c3f 2eb1 cf3e
000003c0: 7812 17bd e240 60bd 595e 66be 5289 42be
000003d0: b818 153f b803 5fbd 5797 d1bd b220 b6bd
000003e0: 3a2d 8bbe dc16 cf3e 7ccb 8c3d 076c 39be
000003f0: d743 64be 03d2 b83e 02ed b1b9 886e bd3e
0.3407202 -0.0078098145 0.38318896 0.09917155 -0.064303756 0.122330666 0.34360328 -0.022980515
-0.17008297 0.3545341 -0.084301256 0.13718733 0.28634498 0.17464943 0.20277931 0.24986501
0.15078014 0.05760925 -0.17838375 -0.16187996 0.34401688 -0.16804388 -0.12583373 -0.08970818
-0.06187458 0.32262632 0.2191221 -0.13800626 -0.087800786 0.33676726 0.3095407 0.1577478
0.32761103 0.03669521 0.17112005 0.38722208 0.008970428 0.3710056 0.023538103 -0.24758653
-0.13592015 0.23487392 -0.21321708 0.03741719 0.25344566 0.14179902 0.19030595 0.28624693
0.23469462 -0.052356083 0.0058240704 -0.14127861 0.3560983 -0.15010883 -0.19961084 0.007492169
-0.28203633 0.33980837 0.11600937 -0.17252623 -0.12029949 0.367983 0.23100926 0.38207713
-0.18741964 -0.129597 0.027440587 -0.16901438 -0.18359062 0.05650326 -0.073578455 0.03572008
0.141235 0.056510016 -0.16009007 0.04417548 -0.11779363 0.08004909 -0.0017990867 -0.13966419
0.10176258 -0.029092852 -0.01764411 0.026468141 -0.13755508 0.039014682 -0.17769876 0.43023044
-0.28725693 -0.009585545 -0.06649625 0.10666327 0.12997268 0.059991892 -0.084429614 0.0061780494
-0.042363092 -0.21622774 -0.16339326 -0.021627203 -0.091476895 -0.10881687 0.09585509 -0.023233794
0.18494731 -0.06044066 -0.36236 0.11001466 -0.0025401325 0.042378113 -0.1095638 -0.1833669
-0.017306808 -0.172094 0.2952326 -0.12330364 -0.023910288 -0.06363864 -0.13692795 0.3194004
0.124290705 0.051135153 -0.07192692 0.08974477 -0.11022634 -0.20191215 -0.02257093 -0.050782375
-0.17521895 -0.08371178 -0.09172431 -0.18373062 0.08288916 0.028435664 -0.027748413 0.08451584
0.3071226 0.011134575 0.12927298 -0.117064424 -0.14572358 0.12490665 -0.18838155 0.014645352
-0.011176271 -0.10496567 0.17914076 -0.20699188 -0.015800843 -0.039959654 -0.22006227 0.037592795
-0.106439255 0.0033155691 -0.014143132 -0.092693046 -0.2012708 0.0013344691 -0.0007273676 -0.15639961
-0.19839081 0.18207943 0.0056959116 -0.21184754 0.25019106 -0.12936698 -0.058778316 -0.013006581
0.20267992 -0.14520231 0.25222763 -0.1357845 0.008378407 0.023947978 -0.061419636 -0.06665353
0.016944818 0.11937488 -0.0010281547 0.2251389 -0.19773468 -0.13057044 0.05698023 0.18046635
0.13194254 -0.25125912 0.056561913 0.18087655 0.26896995 -0.15535262 0.056744218 0.06732045
0.01889513 -0.029300094 0.13393791 -0.022728566 -0.0984661 -0.033423338 -0.034444284 -0.18428344
-0.073482566 0.010034128 -0.16203962 -0.044518072 -0.116505586 -0.122155465 -0.19205333 0.16382098
-0.026651753 -0.06495038 0.04862901 0.13272794 -0.123540334 0.14451219 0.014625234 -0.10465986
-0.16470933 -0.114812985 0.03163703 0.035453238 -0.17477296 -0.06696276 0.052408814 0.12617813
0.31954792 -0.11630317 0.4863792 0.39014548 -0.2224248 0.31019047 0.08558413 -0.2977796
-0.29547384 0.44531882 -0.27343404 0.063482076 -0.018393664 0.07071182 0.54730695 0.40564865
-0.036882848 -0.054749377 -0.22496928 -0.18997696 0.5824084 -0.054446906 -0.10233944 -0.08892955
-0.27182943 0.40447128 0.06874749 -0.18107615 -0.22291504 0.36097726 -0.00033936655 0.3699839

network.6.bias f4 [16]
00000000: 119e 683e 7f22 023e 9e9a e2bc 6eb5 343d
00000010: 42c0 f23c 202b 2c3e 8b31 20be 820f 9b3e
00000020: 07a5 203e 0bd1 1c3e 6524 143c 9bd7 183e
00000030: 47f3 99bc 3131 843e 488f 23bd 4101 b83d
0.22716548 0.12708472 -0.027661618 0.044118337 0.029632691 0.16813326 -0.15643899 0.3028527
0.15687953 0.15314119 0.00904188 0.14925997 -0.018792761 0.2581878 -0.039931566 0.08984614

network.8.weight f4 [1, 16]
00000000: f037 f8be e220 00bf d523 343e fe24 b93e
00000010: b868 783e b02d c83e b7d9 1cbe 552b ecbe
00000020: f88f 723e 50df 293e 19ab 483e fcdc c7be
00000030: 219d a53e 06b9 a5be 3683 313c bf69 c53e
-0.48480177 -0.50050175 0.17591794 0.36161035 0.24258697 0.39097357 -0.15317427 -0.4612681
0.23687732 0.16589093 0.19596519 -0.39035785 0.32346442 -0.32367724 0.010834506 0.3855724
