第六次作业10245501405杨云天/model/Economics & Business.pth (torch, 15491 bytes, 7 tensors)

network.0.weight f4 [64, 3]
000000 0c 55 b6 3e fd 51 ad 3f 22 b6 bf 3d ea 86 92 3e
       0.3561176 1.3540646 0.09360911 0.28618556
000010 19 9c 3b 3e 8b be 06 3f 85 2d 08 bf 6f bc 00 3e
       0.18321265 0.52634495 -0.5319446 0.12571882
000020 d8 e6 cc be fe 2d 53 bf 0a 97 65 bf a3 b1 1b 3e
       -0.4001987 -0.82492054 -0.8968359 0.15204482
000030 b4 4a 99 3e 21 66 b0 be 38 49 6b 3c 53 9e be bd
       0.29939806 -0.34452918 0.014360718 -0.09307542
000040 95 a1 92 3f 14 04 29 3e 45 1c 76 3e dd 68 93 3e
       1.1455561 0.16505462 0.24034221 0.28790942
000050 a8 4c d0 be ef 16 81 be a2 3b 9c be 23 39 fb be
       -0.40683484 -0.2521281 -0.30514246 -0.4906703
000060 ea a6 07 bf 92 6e d3 be 57 78 bd 3e 16 b8 1a 3f
       -0.52989066 -0.41295296 0.37005875 0.6043714
000070 17 b6 90 3f f5 01 a2 3e e7 fe 89 3e 79 24 59 3f
       1.130557 0.31642118 0.26952288 0.8482128
000080 82 ef 17 3f 5c e1 82 be 84 0d 5c bf a0 40 92 3e
       0.59349835 -0.2556256 -0.85958123 0.2856493
000090 c7 c4 e4 3e b3 4a ce be f0 7b 89 be 0c 70 e0 be
       0.4468138 -0.40291366 -0.2685237 -0.43835485
0000a0 0f f1 f9 3d 61 8e 98 be d5 03 65 be be 0d 64 3f
       0.122041814 -0.29796126 -0.22364743 0.8908347
0000b0 33 63 d3 3e c5 4a b9 3e 8a f2 94 3f 6e 03 e0 3d
       0.4128662 0.36189857 1.1636517 0.10938154
0000c0 a7 08 06 bf 5a e2 29 3e a2 40 e9 3e 15 41 86 bc
       -0.5235695 0.16590253 0.45557123 -0.016388455
0000d0 01 1b dc be ed 85 c9 bd f0 71 d6 be f7 f2 3d bf
       -0.42989352 -0.098399974 -0.41883802 -0.7419886
0000e0 f8 3e b7 be f1 99 e0 3e 2a 93 0a bf 30 e2 ff be
       -0.3579023 0.43867448 -0.54130805 -0.49977255
0000f0 62 10 63 be 88 6c 89 3e 2e be 38 3e 6c 99 d6 be
       -0.22174218 0.26840615 0.18041298 -0.41913927
000100 9f ae ef be 1f 22 d1 be f1 9e cd be fc 6d a3 3e
       -0.46812913 -0.40846345 -0.40160325 0.3191985
000110 3b 4a e1 3e 97 ac c8 3d d7 62 de 3e 95 88 83 bd
       0.44001946 0.09798544 0.43434784 -0.06422535
000120 51 e7 15 bf 02 3d ff be c5 64 59 bf 63 0f 5f bf
       -0.58556086 -0.49851233 -0.8491939 -0.87132853
000130 34 f0 92 bf a9 91 0f bf 53 2f 39 3e 61 0b a0 bf
       -1.1479554 -0.56081635 0.18084459 -1.2503473
000140 12 5d 96 be 70 90 70 be 86 9f f6 bd fe 3e 11 bf
       -0.29367882 -0.23492599 -0.120421454 -0.56736743
000150 16 e4 fb 3e 8c e4 62 3f f3 d5 68 3e 85 5b 9b be
       0.49197453 0.88629985 0.22737865 -0.3034326
000160 12 bd e0 be fc c5 09 3f 93 30 37 be e7 1f e7 3d
       -0.4389425 0.53817725 -0.17889623 0.11285382
000170 90 0c 03 bf e4 2f 29 3e 6a 15 80 3f b2 af 21 3f
       -0.51191044 0.16522175 1.0006535 0.63158715
000180 4d 77 aa be 61 cb d6 3d 8e ed e5 3e 84 ce 2c bf
       -0.33294144 0.1048801 0.44907802 -0.6750262
000190 26 ca fb be 0b d2 0e bf be d4 a0 3e 5f 8d ad 3f
       -0.49177665 -0.5578925 0.3141231 1.3558768
0001a0 a9 72 8a be db f9 f4 3e 75 25 25 3f 16 c1 09 3f
       -0.27040604 0.47846875 0.6451028 0.5381025
0001b0 ce 74 d8 be 5a 4f 4d bf dd b8 3b 3c 5e 89 7c 3e
       -0.42276615 -0.80199206 0.011457649 0.24661776
0001c0 c5 5f 53 3e 96 03 15 3f a4 fa 04 bf bd a9 a4 3e
       0.20642002 0.58208597 -0.5194495 0.3216075
0001d0 a1 47 7b 3d 7e 57 38 be f9 83 e7 be ed c7 8b 3e
       0.061347608 -0.18002126 -0.45217875 0.2730097
0001e0 45 8c c5 3e 43 47 44 3f d6 a1 0e bc df 34 ad 3e
       0.3858358 0.76671237 -0.008705577 0.338294
0001f0 6c 61 05 3f 23 9a ad be 74 d6 04 bf e0 62 51 bf
       0.5210178 -0.3390666 -0.5188973 -0.81791496
000200 14 48 b5 3c 82 e5 5f bf 3f 86 8d bf 45 23 9e bc
       0.022129096 -0.87459576 -1.1056594 -0.019303927
000210 37 15 a2 be 7b d9 e3 be 53 16 86 be e0 0a 45 be
       -0.3165681 -0.44501862 -0.26188907 -0.1924243
000220 e3 c3 e6 3d 89 b0 e7 3e 5f 6a 46 bf 39 22 4a 3d
       0.11267831 0.45251873 -0.7750606 0.049349044
000230 3b 08 06 3e 9e ad 15 be 55 3f e9 3e 47 3c 0f 3f
       0.13089077 -0.14617011 0.4555613 0.5595135
000240 fe 76 1f be bc a6 04 3f 65 d3 06 3f 4f 05 85 be
       -0.15572736 0.51816916 0.5266631 -0.25980613
000250 c2 cc 2e 3d 32 a4 dd 3e 15 9c f5 3e da 82 88 3f
       0.04267574 0.43289334 0.47970644 1.0664933
000260 93 86 02 3f 9c f6 a2 3d 3c df 64 3e 2d 54 fd be
       0.50986594 0.07957193 0.22350782 -0.49478284
000270 5e 72 d6 be f4 2d b3 be 92 35 4f be ab e2 45 be
       -0.4188413 -0.34995997 -0.20235279 -0.19324748
000280 27 9e 9a be 02 64 52 3d 85 51 1d 3f 8c 7b 2f 3f
       -0.30198786 0.051364906 0.61452514 0.6854789
000290 48 9e c9 3e 70 76 4b bf fa 3a 32 bf e5 27 2a bf
       0.39378572 -0.79477596 -0.6962124 -0.66467124
0002a0 98 1d 87 3d 86 df 1f be 7d d1 49 3e 93 ff a3 be
       0.065974414 -0.15612611 0.1970882 -0.32030925
0002b0 6d ec 3b 3e 58 9b 2e be cf d9 12 be b4 4e 96 bf
       0.18351908 -0.17051446 -0.143409 -1.1742768
0002c0 db 4e ce be 53 2d 9e 3e 33 8a 61 3f 6f 21 1f 3e
       -0.40294537 0.30893955 0.881015 0.15540098
0002d0 c0 8f 95 be 28 3f 5b bf 36 cb 6c bf f9 77 1c 3f
       -0.29211235 -0.85643244 -0.92497575 0.61120564
0002e0 6e ae f2 3d 46 66 c0 3e 3a 36 18 bf 9e 0e 28 bf
       0.11849676 0.37578028 -0.59457743 -0.65647304
0002f0 c3 84 9d be 57 11 6b be 88 74 78 bd 08 d6 0c 3f
       -0.30765352 -0.22955833 -0.060658008 0.55014086

network.0.bias f4 [64]
000000 15 9b d5 bc fc 9e 95 be 92 a1 90 be 31 40 da 3d
       -0.026074925 -0.29222858 -0.28248268 0.10656775
000010 9b 83 ed be 28 44 e6 39 50 da 32 3e b7 ae 0b bf
       -0.4638947 0.000439198 0.17466092 -0.5456347
000020 38 2f 8f be 03 ad 4f bd 78 e3 f3 3d ac 1e 09 3e
       -0.27965713 -0.050702106 0.119086206 0.13390607
000030 bb bd 07 bf 1b ed 44 be 4d 6c b9 3a 68 db b6 bc
       -0.5302388 -0.19231074 0.0014146656 -0.022321418
000040 df 24 b1 be fc 51 4d be 5e a0 be 3e b9 1c ca bd
       -0.34598443 -0.20050806 0.37231725 -0.0986876
000050 41 2b 69 3e 41 b1 89 bd 05 18 94 3e 23 24 00 bf
       0.22770406 -0.067232616 0.28924575 -0.5005514
000060 b0 15 89 3d 2f 00 29 3e da 9a 7d 3d 96 e6 ba be
       0.0669359 0.16503976 0.061915256 -0.36504048
000070 0a de 07 bd 4f 5e 69 be 6f 87 bc be 78 c5 ea bc
       -0.033170737 -0.22789882 -0.36822078 -0.028658614
000080 88 47 5c be 77 c9 c1 3e a5 d2 c9 bb 81 9c 14 bd
       -0.21511662 0.37849018 -0.006159144 -0.036282066
000090 53 e9 a6 3e 07 de c8 be fd cd bf 3e 44 e0 66 be
       0.32599887 -0.39231893 0.37461844 -0.22546488
0000a0 c2 6a 19 3e 82 25 a6 3e 13 2b df 3e bb b9 ac 3d
       0.14982131 0.3245049 0.4358755 0.08433863
0000b0 d0 84 1d bd 61 a9 d5 be 5d cc 7f 3e ac 07 10 bf
       -0.038456738 -0.41730788 0.24980302 -0.56261706
0000c0 ba e5 d3 be 9f a6 d9 be 38 74 01 bd 84 5f d5 be
       -0.41386205 -0.42509934 -0.031604975 -0.41674435
0000d0 4b 62 d4 be 31 a9 70 3e 8b 0d 39 bd a3 56 b8 3e
       -0.41481242 0.23502041 -0.04517893 0.360036
0000e0 a3 84 88 bd 33 1f 30 bb e7 12 95 3d 41 fb e3 bc
       -0.066659234 -0.0026874065 0.07278996 -0.027829768
0000f0 83 28 1c 3e 48 37 0b 3e f9 ee d7 3e c7 2b 02 be
       0.15249829 0.13595307 0.4217451 -0.12712012

network.3.weight f4 [32, 64]
000000 88 e2 96 be 69 ec 85 3d 22 d1 b2 bd 52 75 14 3e
       -0.29469705 0.06539232 -0.08731295 0.14497879
000010 a0 61 fc 3c 9d 92 9a bd ec d2 26 3d 24 7d a1 bd
       0.03080827 -0.075474955 0.040728495 -0.07885197
000020 bc e0 03 bd 40 92 be be 47 04 a2 3d 86 09 bc bb
       -0.032196745 -0.37220955 0.07910972 -0.00573844
000030 56 3f e0 bd 10 9a 5f 3d 53 a2 53 be 9d b9 71 bd
       -0.1094958 0.054590285 -0.2066739 -0.059014905
000040 a0 e6 c7 bb 12 b8 f5 bd 02 57 d0 bd 86 5d ea bd
       -0.0061004907 -0.11997999 -0.101728454 -0.114436194
000050 96 f1 ae 3d d0 78 31 3c 71 06 30 3d dc 19 18 3d
       0.085421726 0.010832027 0.042974893 0.037134036
000060 2b 7f 5f 3e d5 85 6f bd 25 e0 b2 3d c0 5b d5 bb
       0.21825854 -0.05847724 0.087341584 -0.0065111816
000070 32 e3 4e be 40 72 c6 3b 10 97 bf bc f1 4f c3 be
       -0.20203856 0.0060561 -0.023387462 -0.38146928
000080 54 8c 7e bd b3 40 d5 3d fd 6d ea bc a2 92 a3 be
       -0.062145546 0.10412731 -0.0286169 -0.3194781
000090 56 a8 36 3d bf fd dc 3d fc 3f 5a 3d a0 e9 ec bb
       0.04459413 0.10790586 0.053283677 -0.0072299987
0000a0 4d ed e3 3c f2 d9 c4 3c 6b 9f 75 bd 55 f1 98 3e
       0.027823115 0.024029706 -0.059966486 0.29871622
0000b0 0a 24 ee 3d 48 69 fd 3d 95 e0 e2 3d 70 3f 47 3d
       0.11627968 0.123735964 0.11077992 0.048644483
0000c0 7f 7a 23 bd ac 76 7a bd d1 f5 9e bc 16 df f1 bd
       -0.039911743 -0.06114833 -0.019404324 -0.118101284
0000d0 48 51 b6 bd 5f 1f 92 3d f8 74 91 be e9 71 33 3d
       -0.08902222 0.0713489 -0.28409553 0.043809805
0000e0 68 37 10 bd f4 ec f3 3d d0 26 a9 3d 07 bd be be
       -0.03520909 0.119104296 0.08259356 -0.3725359
0000f0 c3 8e 62 3e d9 18 28 3d 0b 81 88 bc 04 2f db bd
       0.22124772 0.04103932 -0.016663095 -0.10702327
000100 ad d2 cc be 85 12 05 be b8 89 db 3d e0 4c f8 3d
       -0.40004483 -0.12995346 0.10719627 0.12124038
000110 f0 a9 ae 3c ca 61 09 be d4 e5 9f 3d 00 24 f0 3a
       0.021321267 -0.1341621 0.07807508 0.0018321276
000120 da 39 e1 3d bd b5 e8 be 9d cb ea 3d a7 fe af 3d
       0.109973624 -0.45451155 0.114646174 0.08593493
000130 82 7b b1 3d ec b9 07 3d 48 0b 44 be 61 d4 0a 3d
       0.08666135 0.033136293 -0.19144928 0.033893947
000140 40 5f a7 bc d8 94 f3 3c 25 24 cd 3d 16 e1 d9 bd
       -0.02043116 0.02973406 0.1001666 -0.10638635
000150 90 ee 9a 3d 84 9b 83 bd f1 f9 43 3d 9a a4 82 3d
       0.075650334 -0.064261466 0.047845785 0.063790515
000160 b6 f3 93 3e e7 13 c9 bd f3 d9 5e 3e 4c 45 de 3d
       0.28896874 -0.09818249 0.21762829 0.10853061
000170 08 af 91 be 08 f6 b1 bd 2a bc 89 bd 28 8d b5 be
       -0.2845385 -0.08689505 -0.067253426 -0.35459256
000180 48 b7 8d 3d 25 3a 91 3c dd 4a f6 bd 29 04 ca be
       0.06919724 0.01772792 -0.12025998 -0.394563
000190 28 7f 81 3d f9 18 d1 3d cd f2 1c 3d 38 40 a0 3c
       0.06323081 0.10209841 0.03831749 0.019561872
0001a0 86 86 34 bd 9c d5 1b bd 13 ab 1b 3d 22 e6 a1 3e
       -0.044073604 -0.03804551 0.038004946 0.3162089
0001b0 98 f1 9c 3c a4 74 9d bd 93 21 99 bd 06 96 82 3d
       0.01915817 -0.07688263 -0.07477107 0.06376271
0001c0 bc 24 c6 bd a8 22 a9 3c 97 34 f3 bd 40 db f7 3c
       -0.09674975 0.020646408 -0.11875265 0.030255914
0001d0 18 91 eb 3c bf f8 0c 3e 66 ec 92 be 65 75 1a be
       0.02875571 0.13766764 -0.28695983 -0.15083845
0001e0 5c c1 72 bd 05 05 41 3d 4f 48 cb 3d 25 97 cf be
       -0.059266433 0.047123928 0.09925901 -0.40545002
0001f0 62 94 21 3c 19 16 00 3d 8c 1c f1 3c c4 e4 5a 3d
       0.009862037 0.031271074 0.029432558 0.053440824
000200 7c 86 76 3e 09 84 7c 3d c6 42 d7 3d f1 e0 8e bd
       0.24074739 0.061649356 0.10510783 -0.06976498
000210 1c bf 08 3d 2b 83 a8 3d a5 f0 93 bd a8 fa 5b bd
       0.03338538 0.08228143 -0.07223634 -0.05370584
000220 d0 cf 90 bc 63 63 8a 3e 5b ff 02 3e ab de 89 bd
       -0.017677218 0.2702895 0.12792723 -0.06731924
000230 fc 7f ac 3d 90 4e 5a bd 59 79 b7 3d 73 56 a9 3d
       0.084228486 -0.05329758 0.08958692 0.08268442
000240 e8 0d f6 3d 2e 8b d1 bd 15 77 4a bd e6 2e ed 3d
       0.12014371 -0.102316245 -0.04942997 0.11581211
000250 c8 8d 94 3d 5c 1b d9 3d 45 d2 e3 bc 04 65 54 bd
       0.07253605 0.106009215 -0.027810225 -0.05185415
000260 f6 5d 8d be d9 6d 00 be c4 60 92 bd 40 bf 06 3c
       -0.2761075 -0.12541904 -0.07147363 0.0082243085
000270 43 ed 52 3e 3e 3a b6 3d d0 5b 5b 3d ab 72 a5 3e
       0.2059832 0.088978276 0.053554356 0.32314047
000280 fe aa a6 3d 18 14 8b 3a 21 8f ce 3d 68 b5 90 3e
       0.08138083 0.0010610847 0.100858934 0.28263402
000290 4a 5b 3e bd af 8a e4 3d 1b 7b e7 bc 20 a7 a7 3c
       -0.04647378 0.11159264 -0.028256943 0.020465434
0002a0 ef 3d df 3c 47 20 aa 3d a6 18 93 bc 4c e7 f9 bd
       0.027251212 0.08306938 -0.01795609 -0.122023195
0002b0 c8 c8 9b bd 4e eb f3 bd 0f 39 08 be fc a1 75 bd
       -0.07606655 -0.11910115 -0.13303016 -0.059968933
0002c0 96 e0 2c bd 98 c7 c1 bc 8a 72 e1 bb 2c c0 37 3d
       -0.04220637 -0.023654744 -0.006880109 0.044861004
0002d0 f0 58 ee bd e7 24 8e bd 55 36 a6 3e fa 75 9d bd
       -0.11638057 -0.06940632 0.32463327 -0.07688518
0002e0 1c 57 0e bd 55 3e 92 3c 9d a5 f0 bd 88 a5 4f 3e
       -0.034751043 0.017851988 -0.11750338 0.20277989
0002f0 f6 aa ae bd a2 6a bf 3d b6 cd dd bd 5e 3d f9 bc
       -0.08528702 0.093465105 -0.10830252 -0.03042477
000300 f4 96 90 be 34 9d 11 be 3c 31 e7 bd fb a8 9b 3d
       -0.28240168 -0.14220124 -0.112886876 0.0760059
000310 d2 d7 e4 bd 04 d4 82 bd 48 b4 93 bc 00 29 b0 bd
       -0.11173977 -0.06388095 -0.0180303 -0.0860157
000320 b4 47 d6 bd d1 3f 6e be 43 83 ba bd a4 c2 98 3d
       -0.10462895 -0.23266532 -0.091070674 0.07459
000330 f2 b0 d4 bd d0 85 09 3c d2 4e f4 bc ee 0f da bd
       -0.10385312 0.00839372 -0.02982274 -0.106475696
000340 7c 0e 0c 3d 48 60 f7 bc f7 93 ed 3c 58 4b 24 bd
       0.0341935 -0.030197278 0.02900122 -0.040110916
000350 2c ba bd 3c 00 86 67 3d ee b5 69 3d 4c 76 9c 3d
       0.023160063 0.056524277 0.057058267 0.07639751
000360 d9 3c b1 3e d8 65 92 3d f2 5d 4c 3e b0 01 f1 bc
       0.34616736 0.071483314 0.19957712 -0.02941975
000370 7c 15 d3 bd 42 69 94 3d 4c a3 a5 bd 69 6e 81 be
       -0.10306832 0.07246639 -0.08087787 -0.2527955
000380 4a b5 88 3d 5e be 37 3c 92 14 09 be d2 95 ad be
       0.06675203 0.011214821 -0.13386753 -0.33903366
000390 2f 40 88 3c c3 2c c1 3d 82 7d 6c 3d e4 f9 3e bd
       0.016632168 0.09432366 0.05773688 -0.046625033
0003a0 f0 a0 96 bd cd 66 df 3c 8c cb 72 bd de 06 ad 3e
       -0.07354915 0.027270699 -0.05927615 0.33794302
0003b0 08 7a 57 bd c0 69 1b 3b 99 0c cb bd 36 9c 80 bd
       -0.052606612 0.0023714155 -0.09914512 -0.06279795
0003c0 ec 6d 02 bd 44 2a 49 bd 56 02 f8 bd 4c d5 01 bd
       -0.03184311 -0.049112573 -0.121098205 -0.031697556
0003d0 ac d8 77 bd 0c 04 82 3c 4f e4 b5 be 0d 90 8d 3c
       -0.06050937 0.01587107 -0.35525748 0.017280603
0003e0 5c a4 cf 3d 20 e4 93 3d 75 ac 85 3e c2 22 b4 be
       0.10138771 0.07221246 0.26108137 -0.35182768
0003f0 07 b2 c8 3d 26 a1 db 3c 9f 01 7f bd c1 94 4f bc
       0.09799581 0.02681024 -0.062257405 -0.012669743

network.3.bias f4 [32]
000000 76 2c 3f bd 78 c1 e4 bc 8f 76 bb bd db 92 63 3d
       -0.04667326 -0.027924284 -0.09153473 0.055559974
000010 c0 47 88 3d e0 7b 1e 3e 07 e5 d1 3d e0 a4 e9 bd
       0.0665431 0.15476942 0.102487616 -0.114084005
000020 d1 7b ff 3c 11 2e 5a bd 41 ac da bc 3b 34 55 3d
       0.03118697 -0.05326659 -0.026693465 0.052051764
000030 06 59 73 bd b5 29 01 3c 95 75 5c bd c9 36 f5 3c
       -0.05941107 0.007883479 -0.053823072 0.02993335
000040 ac 2c ea bd 3a 3e c1 3c 44 00 6a bb c2 34 86 bc
       -0.11434302 0.023589242 -0.0035705725 -0.016382579
000050 d1 5c 64 3d a3 ad 9b bd 43 a8 a4 3d 51 da 08 3d
       0.05575258 -0.07601478 0.08039906 0.033411328
000060 10 95 66 bd fb b5 26 3e 64 ad 92 bd 72 00 a4 bd
       -0.0562945 0.16280358 -0.07161978 -0.080078974
000070 94 44 1f 3d e5 71 8e 3d e9 9e 82 bd f8 0f 9f 3d
       0.03888376 0.069553174 -0.06377966 0.07766718

network.6.weight f4 [16, 32]
000000 dd 17 89 be 3f 09 c3 bd 4b 28 9c 3e 2f 53 2f be
       -0.2677602 -0.09523248 0.3049949 -0.17121576
000010 a6 a6 86 bd c5 42 f9 bc df 51 e3 bd 52 74 b0 bd
       -0.065747544 -0.030427346 -0.110996 -0.08615936
000020 ec 2b 80 3d 4b 19 99 3e c9 94 97 3d e8 17 40 3e
       0.062583774 0.2990211 0.074014254 0.1875912
000030 56 65 98 3e c1 5f 54 be 8b 24 eb bd 52 49 97 3c
       0.29764813 -0.20739652 -0.114815794 0.018467579
000040 49 3f 93 3e f1 68 52 3e 83 a8 26 be ca 23 2f 3d
       0.2875922 0.20547844 -0.1627522 0.04275874
000050 eb 91 23 be 6d a5 fe 3d 14 4f bc 3d 0d 04 26 be
       -0.15973632 0.12433896 0.091947705 -0.16212483
000060 2c aa 57 3e 7f 05 f0 3d 28 13 3b 3e 7f e1 3e 3d
       0.21061009 0.11719798 0.18269026 0.04660177
000070 b9 0b 83 be aa 4e 42 be 13 8d 68 3e 61 89 72 3c
       -0.2559488 -0.1897532 0.22710066 0.0148032615
000080 52 52 79 3e e7 fc 97 3e 5d 82 3e be 78 f4 9a 3e
       0.24347809 0.29685137 -0.18604417 0.3026464
000090 b5 7e 07 3e 0b e3 b3 3c f0 e4 49 3e 98 c2 ce 3c
       0.13231929 0.021958848 0.19716239 0.025239274
0000a0 10 20 aa 3d 63 70 95 bd f5 55 77 3d 2b eb a3 3d
       0.08306897 -0.07296827 0.06038471 0.08003839
0000b0 8d 33 ae bb 86 c3 93 3e 13 d8 d6 3d 22 30 53 bd
       -0.005316204 0.2886011 0.10490432 -0.051559575
0000c0 bb a2 3b be fd c4 9a bd f5 c7 49 3e 7f 17 fe bc
       -0.18323795 -0.07557104 0.19705184 -0.031017063
0000d0 53 25 7d bd da bb b8 bc e3 86 bf bc 43 1d 7c 3d
       -0.061803173 -0.022550512 -0.023379749 0.061551344
0000e0 93 8b e8 bd 02 13 90 3b c2 8c 06 3d 19 3e 12 bd
       -0.11354747 0.004396797 0.03284908 -0.035703752
0000f0 32 e5 e4 3d 02 b1 56 3e 08 78 fc bd 1d 0f c3 bc
       0.11176528 0.2096596 -0.12327582 -0.023810918
000100 52 4d 63 3d 78 7f 33 3e 05 13 0c be f1 b7 8c 3e
       0.05549366 0.17529094 -0.1367913 0.27484086
000110 1d ae f2 3d 0a 94 52 3c 83 6c 68 3e e0 80 17 be
       0.11849616 0.012852678 0.22697644 -0.14795256
000120 0a b4 97 3e ac 61 19 be 93 77 73 3e 33 ad 8b 3b
       0.29629546 -0.14978665 0.23776083 0.0042625903
000130 a0 45 e4 bd 46 e4 39 3e 4d 97 d5 3d 8d 7e f8 bd
       -0.111460924 0.18153486 0.10429249 -0.12133513
000140 d1 c4 15 be 26 48 28 be 27 59 ad 3e 72 5c 4b bb
       -0.14625861 -0.16433772 0.3385708 -0.0031030443
000150 25 43 b2 bd 87 a0 0a be 9a 4b 66 bd c3 b3 33 3e
       -0.08704213 -0.13537799 -0.056224443 0.17549042
000160 42 15 12 bd 54 01 27 3e 5e 74 d6 bd 4f 60 f2 bd
       -0.035664804 0.163091 -0.10471414 -0.11834776
000170 fa 78 ac 3e 00 c9 ba 3d 43 26 ef bc 0b 97 bd 3c
       0.33686048 0.09120369 -0.02919305 0.023143312
000180 e5 8d 6a bd 07 30 98 3a 68 da 67 3e 33 4a 46 be
       -0.057264227 0.0011610993 0.22641909 -0.19364242
000190 df 6c c4 bd 9b 76 06 be eb 54 b6 bd 1c e9 f3 bc
       -0.09591078 -0.13131182 -0.089029156 -0.029774241
0001a0 28 0d b9 bc fb 8b a5 3e a5 03 41 bc 4b af 98 bd
       -0.022589281 0.3233336 -0.011780654 -0.074553095
0001b0 5d 86 f9 3c 99 fa 9a bc 39 6e 4f 3d 40 84 27 bd
       0.030459577 -0.018918322 0.050642226 -0.040897608
0001c0 ed e0 a6 3d e8 4a 5d 3e 5a 57 85 bd e3 be ce 3d
       0.0814837 0.21610606 -0.065108016 0.100950025
0001d0 59 64 62 3c aa 06 61 3e 65 24 de 3c 91 14 f7 bd
       0.01381787 0.21975198 0.027116964 -0.120644696
0001e0 9f f4 1c 3e 2a 0f 20 bd f9 a8 77 3e e5 01 14 bd
       0.1532769 -0.03907696 0.24185552 -0.03613462
0001f0 13 4b 0b be 27 74 33 bd c4 5b 2d 3e 7a a9 4e bd
       -0.13602857 -0.043811943 0.16929537 -0.050454594
000200 12 05 81 3e d4 ee 14 3e d8 20 1a be 58 99 81 3e
       0.2519918 0.1454423 -0.15051591 0.25312304
000210 c3 cf a7 3d d9 e7 7c 3e 75 e4 88 3e 92 ae 14 3e
       0.08193924 0.24697818 0.267368 0.14519718
000220 02 7e 01 3e 42 6d e3 bd e2 c9 91 bd 66 29 b5 bc
       0.12645724 -0.11104824 -0.07118584 -0.022114467
000230 bf a4 3d be 54 12 5e 3e 76 8d 08 3e cc f2 2f bd
       -0.18519877 0.21686679 0.13335213 -0.04295616
000240 f6 31 fe bd 0c 23 32 bd 92 96 93 3e 5b 1b c3 3c
       -0.12411873 -0.043490455 0.28825814 0.023816755
000250 b0 4f f4 bd b4 91 0e be a3 29 13 bd f3 0e 7a 3e
       -0.11929262 -0.13922769 -0.03592838 0.24419765
000260 9a 30 4f be cf 9a 5d bd 94 79 91 bd 08 80 3d 3c
       -0.20233384 -0.054102715 -0.07103267 0.01156617
000270 a1 87 7c 3e 90 d7 1f 3e d9 b9 14 be b0 88 a8 3c
       0.24661113 0.15609574 -0.1452402 0.02057299
000280 b2 f3 93 3e 16 ec f8 3d f5 fe f4 bd 47 f7 82 3e
       0.28896862 0.12154405 -0.11962692 0.25579283
000290 b0 37 56 3d 60 78 01 3e c9 1f 35 3e 0d d7 98 3c
       0.0522992 0.12643576 0.17687906 0.018657232
0002a0 3c df 87 3e 2b eb e0 bc 29 ad 84 3e 74 4a 14 3d
       0.26537502 -0.027455887 0.2591336 0.036203817
0002b0 5d fd f8 bb e6 ba 76 3e 3f 27 87 bd 70 53 22 be
       -0.0075985626 0.24094734 -0.065992825 -0.15852141
0002c0 9e aa b5 bd 08 74 a8 bd e1 e5 07 3e 2e 4d 00 3e
       -0.08870433 -0.08225256 0.13271286 0.12529442
0002d0 a3 79 de bd 84 87 4a bc 9c 8c a1 bc 58 67 a7 3e
       -0.10863044 -0.012361411 -0.019720368 0.32696033
0002e0 28 b0 04 bd c0 16 33 3e 25 59 58 bd 7c 47 39 3d
       -0.03239456 0.17489147 -0.05281939 0.04523419
0002f0 ea d2 ae 3e 82 1f 44 3e a8 b1 a6 3c 35 3a 95 3d
       0.3414529 0.19152644 0.020348385 0.07286493
000300 44 9c 8b 3e 53 12 81 3e 79 32 29 3c 1b c5 09 3e
       0.2726766 0.25209293 0.010326975 0.13454096
000310 68 75 18 bd 60 07 83 3e c7 33 e3 3c 4f a2 98 bd
       -0.037221342 0.25591564 0.02773465 -0.07452833
000320 c6 d8 91 3e 74 bb e9 bc b8 f1 86 3e 51 96 bd bd
       0.28485698 -0.028531767 0.26356292 -0.09257186
000330 06 c4 76 bd ca 4a ed 3b b2 76 aa 3d 4a ee a0 bd
       -0.060245536 0.0072415816 0.083234206 -0.0785795
000340 eb e5 4e bd 37 cb da bc a2 aa 36 bd bd 4f 26 be
       -0.050512236 -0.026708229 -0.044596322 -0.16241355
000350 33 d8 64 3b e7 94 4a be 43 4a 58 be 62 74 99 3e
       0.0034918904 -0.19783364 -0.21122079 0.29971606
000360 cb 14 5b be f8 b2 c4 3d ba 31 83 be 81 55 af bc
       -0.2139465 0.09604448 -0.25623876 -0.021403076
000370 33 b4 2d 3e dd 3a 70 3e ac 4d ce bd 82 bd d3 bc
       0.16963272 0.23459955 -0.100734085 -0.0258472
000380 79 4b 95 3d fd d9 88 3e 32 16 ea bd 45 78 44 3c
       0.07289786 0.26728812 -0.11430015 0.011991565
000390 80 24 52 3e ba d7 16 3e 7f 54 9a 3e 15 40 24 be
       0.20521736 0.1473073 0.3014259 -0.1604007
0003a0 62 26 a5 3d 08 0d 11 be 9f 98 78 3e 74 e9 2d be
       0.080639616 -0.14165127 0.2427697 -0.16983587
0003b0 71 a2 89 bd 78 54 4e 3e 5f 57 cd bd 46 56 fc bd
       -0.06720436 0.2014941 -0.1002643 -0.12321143
0003c0 32 ec 3b be 5a 7c 42 be bb 0f 0f 3e 62 0e d8 3b
       -0.1835182 -0.18992749 0.13970844 0.0065935114
0003d0 67 f1 af 3c e5 ed b3 bd c8 30 73 3d d2 b4 9b 3e
       0.021477414 -0.08785609 0.059372693 0.30411392
0003e0 eb d8 9d bd 9b d6 44 3d 81 8e 37 3b 38 15 22 3e
       -0.077073894 0.048056226 0.0028008523 0.15828407
0003f0 62 43 04 3e 7e ce 03 3e 0a 72 96 3c 44 98 c5 3d
       0.1291633 0.1287174 0.018364925 0.09648183

network.6.bias f4 [16]
000000 4c b2 1b 3e d7 e4 0b 3e f1 a6 4b 3e 73 ae 1d 3e
       0.15204734 0.13661514 0.19887902 0.15398578
000010 5e ca 87 3e 18 0f 6f 3d 9d e2 2f bd 0e f8 8d 3e
       0.2652158 0.058364004 -0.042940725 0.27728313
000020 8c 97 df bd 04 89 6c 3d d3 79 1f 3d 4e 2c 12 3e
       -0.10917577 0.057747856 0.03893454 0.14274713
000030 ea f8 b4 3d 30 71 b6 3d d8 06 53 3e ca a5 77 3e
       0.08836539 0.089083076 0.2060808 0.24184337

network.8.weight f4 [1, 16]
000000 4a 66 a8 3e 91 a3 b0 be 73 85 97 be 9b 68 0c 3e
       0.3289054 -0.3449979 -0.29594 0.13711779
000010 1c 7f 89 be 24 ca 65 be 93 c6 ad be f7 0f 31 be
       -0.2685479 -0.22440392 -0.33940563 -0.17291246
000020 cf 0f 69 3e 45 a2 98 3e 3c 65 07 bf 6f b2 c1 be
       0.22759937 0.29811302 -0.52888846 -0.37831447
000030 cd fd dc 3e 6d 02 fb be 97 bb d7 be da 4c 94 be
       0.43162385 -0.49025288 -0.42135307 -0.28964883
