第六次作业10245501405杨云天/model/Engineering.pth (torch, 15365 bytes, 7 tensors)

network.0.weight f4 [64, 3]
00000000: 369c 253f 49ae f73f f017 3c3e 6460 a23d
00000010: 61f8 fcbe 58b7 b13c 2f43 c8be 1ccf 2d3e
00000020: f1ac 7cbd 36f8 663e e7b2 3b3c 3268 d83e
00000030: daca afbc 8eca dfbf ce68 31be 5532 73be
00000040: 3163 b63e dc7d 483c 421b d4be 88cd da3d
00000050: 15f6 ce3e 426c eabe 1729 07be b4c2 a7be
00000060: 0f14 133e 06b8 74be fd51 ebbe fffe 173f
00000070: b2f4 3940 db0d 88be 971f 333f d84b e63f
00000080: 53f7 e83e 8198 293e 7784 8abe 0049 b33d
00000090: f328 563f 4863 f73f 6f1f 053f 6fa6 5cbe
000000a0: 0f52 9abe 8f74 f9be 2e04 5dbe f6f4 66be
000000b0: 2a63 913e 2b7b 41bc 36dd 5dbe cc0f d9bd
000000c0: 48a7 413e f40a 4fbe 4ed1 0ebf 6fdc 7b3f
000000d0: 86f5 cd3f 6bed 423f 371b 99be 5378 03bf
000000e0: e970 28bf 89bb 07bc ceaf ffbe 9677 feb9
000000f0: e349 c53e 7dd3 f0bd a33a 543d 5b47 033f
00000100: 6b99 753e fc40 6fbe 44c0 703e 77ad 833e
00000110: 505f 85be af13 b0bf 2a6e c7bf ab00 68bf
00000120: 39e5 9fbe 16d6 14bd 1541 863d e965 23be
00000130: 87d0 f63d bd8a 3f3e 4013 a23e 03de 3b40
00000140: 6aba 863d bd3b 503f 787e a43f a209 443f
00000150: 9b97 c93e 45b6 52be 6a5e a73e d82a 823e
00000160: 5f29 2640 4c6a e13e 3914 10bf ae70 f93e
00000170: 75a9 35be 7148 1bbe f895 4d3e a2b1 0fbf
00000180: b082 373f 87f8 c83f f104 5a3f bb22 123f
00000190: 0b69 0140 f565 b43c 1b2f 30bf 6f18 18c0
000001a0: 24f8 48bf cdf7 0dbe 9d2f c93d b5cf fabe
000001b0: 9539 d53e 2f15 ba3e 9c58 ba3d e18e 3a3f
000001c0: 36d2 0040 4c9c e33d 1461 71be 30d2 a03e
000001d0: c4a0 10bf 8699 f4be ba92 d6be eafc 46be
000001e0: 4cc7 7fbf 2e85 25c0 dfec 5dbf 9b3b c3be
000001f0: 89a6 85bd 9f27 9a3b 8ab2 17be 3275 f83f
00000200: d882 2a3f 2ba6 96bd 7540 0c3f a9de 0cbf
00000210: 0c60 f2be cfa3 f4be c068 ad3e 3318 113f
00000220: 530f c13e 0c6a 053f ef4a 7e3d 9f44 1f40
00000230: 22c9 e1bc 5094 9cbf 6ed7 c3bf a222 8cbe
00000240: 28ce 923e 7be2 de3d 2444 0abf 2d4f c2bf
00000250: 363b ebbf ffd6 57bf 10d8 503e 58bf 703e
00000260: 247e 8c3e c387 12bf 3f38 03bf c844 de3e
00000270: 71b3 503e 1052 133e 8ddb 433e ce4f f6be
00000280: fd28 f8be 630c 563e 2a13 dc3e f9d6 e43e
00000290: 6453 4abe ff87 b43e b316 683e 1b05 f1be
000002a0: 89c8 6c3d d1b8 0ac0 ef2c b23d 2c12 e13e
000002b0: 5e4c 683e f3b9 f93e 5789 99bf dd20 0dc0
000002c0: 057e 3bbe 363e e3bd 0f91 653e 06e7 f4be
000002d0: 38d4 983e 1029 05c0 8b6d 043f 4e21 0e3f
000002e0: c9ce 03bf ec30 403c aa0c 94be 4ae2 f33e
000002f0: befd 5db8 000a 83be b443 2c40 c3f4 01be
0.64691484 1.9350063 0.18368506 0.07928541 -0.49408248 0.02169387 -0.39113757 0.16973537
-0.061688367 0.22555622 0.011456228 0.42266995 -0.021459032 -1.748369 -0.17325136 -0.23749669
0.35622552 0.012237038 -0.41427046 0.10683733 0.4042212 -0.4578572 -0.13199268 -0.32765734
0.1436312 -0.23898324 -0.4596099 0.5937347 2.90556 -0.2657307 0.6997008 1.7991896
0.45501193 0.16562082 -0.27054188 0.08754158 0.83656234 1.9327173 0.5200109 -0.21547864
-0.3014073 -0.4872174 -0.21583626 -0.22554383 0.2839597 -0.011809151 -0.21666417 -0.10598716
0.18911469 -0.20219022 -0.55788124 0.9838323 1.6090553 0.7614352 -0.29903576 -0.51355475
-0.6579729 -0.008284458 -0.49938816 -0.00048535754 0.38532934 -0.11759088 0.051813733 0.51280755
0.23984306 -0.23364633 0.23510844 0.2571828 -0.2604928 -1.3756007 -1.5580494 -0.9062602
-0.3122957 -0.03633698 0.06555382 -0.15956844 0.12051492 0.18705268 0.31655312 2.9354255
0.065785244 0.81341153 1.2851095 0.765772 0.39373478 -0.20577343 0.3268922 0.25423312
2.596275 0.4402641 -0.5628086 0.4871878 -0.17740424 -0.15164353 0.2007674 -0.5613042
0.7168379 1.5700845 0.8516379 0.57084244 2.0220363 0.022021273 -0.6882188 -2.3764913
-0.7850363 -0.1386406 0.09823535 -0.48986593 0.41645494 0.36344287 0.09098932 0.72874266
2.0128303 0.11113796 -0.23572189 0.3141036 -0.5649531 -0.4777338 -0.41908818 -0.19432417
-0.9991348 -2.5862536 -0.8668956 -0.38131413 -0.06525905 0.0047044302 -0.14814201 1.9410765
0.666059 -0.07355913 0.54785854 -0.5502725 -0.47338903 -0.47781226 0.3386898 0.5667755
0.37707004 0.5211494 0.06208318 2.4885633 -0.027561728 -1.2232761 -1.5300119 -0.27370173
0.2867291 0.108830415 -0.54010224 -1.5180413 -1.8377445 -0.84312433 0.20394921 0.23510492
0.27439988 -0.57238406 -0.512577 0.4341185 0.20380951 0.14386773 0.1912672 -0.4810776
-0.48468772 0.20903163 0.4298337 0.4469526 -0.19758373 0.35260007 0.22664909 -0.47074208
0.057808433 -2.1675303 0.08699977 0.43959177 0.22685382 0.4877468 -1.1995038 -2.2051308
-0.18309791 -0.1109585 0.22418617 -0.47832507 0.2984941 -2.0806313 0.5172965 0.5551957
-0.51487404 0.011730414 -0.28915912 0.47633582 -5.292682e-05 -0.25593567 2.6916323 -0.12691025

network.0.bias f4 [64]
00000000: 7487 94bc a6bf f5be 3d14 cbbb 413e a3be
00000010: 1571 4d3c b49d dcbe b088 d8bd ce0a 88be
00000020: c287 fabe d577 e8ba 7e2f a4bc 3a81 0abf
00000030: fccc cdbc 2c7e 03be 1fd8 a8bd 1187 e7bc
00000040: 65b8 4fbe 6624 84bc 9e44 da3c 2f35 9dbe
00000050: 7f27 81be 3853 f9be 4fd7 70be dcf9 863c
00000060: 1d7f 38be b92f 66be e3fb a0bb 33f5 92bc
00000070: d0c9 d5be 86fd 67bb 8f25 ebbe 7bcd b9be
00000080: e980 34bc 3822 bebb 09af 663c 2147 c8be
00000090: 530e d9be 8a01 3fbc 7c5a 9ebe 3e68 29bc
000000a0: 3937 8b3c 486b 03bf 1152 07bb 41f8 cebe
000000b0: f2a2 a3bd 7f22 08bf ccc4 30bb f5b9 693c
000000c0: d2a5 d0be 9a86 443c a2a1 0ebf 45cf 4abe
000000d0: 0b1c 45be beda e1be 3695 cabe f82e edbe
000000e0: 8cd2 973c 8f98 cbbe 9db9 733c f827 87be
000000f0: 69e6 293c 68a6 9bbd e0db ebbe b92e a8ba
-0.018130995 -0.4799778 -0.006197481 -0.31883433 0.012539168 -0.43089068 -0.10572946 -0.26570743
-0.489317 -0.0017735908 -0.020042177 -0.54103434 -0.025122158 -0.128411 -0.08244347 -0.028262647
-0.20285185 -0.016130637 0.026644047 -0.30704638 -0.25225446 -0.48696303 -0.23519634 0.016476564
-0.1801724 -0.22479142 -0.0049128397 -0.017939186 -0.41755533 -0.0035398914 -0.45927092 -0.36289582
-0.011017063 -0.005802419 0.014079818 -0.39116767 -0.4239374 -0.011658082 -0.3092841 -0.010339795
0.016994106 -0.51335573 -0.002064828 -0.40423778 -0.07990064 -0.53177637 -0.0026972769 0.014265527
-0.4075151 0.011994982 -0.5571538 -0.1980563 -0.19248979 -0.441122 -0.39566964 -0.46324897
0.018533014 -0.3976483 0.014875797 -0.2639768 0.0103698755 -0.07600099 -0.4606619 -0.0012831307

network.3.weight f4 [32, 64]
00000000: b7e9 51bf 3899 603d e2df 06bd 04bd f53d
00000010: 6f09 9b3c 606c 7e3d 9fe6 8bbc 04cd bb3d
00000020: c459 7bbd debc 4bbd bf3d 69bf 026a b9bd
00000030: 083d 4abf 703a eabc 145e dd3d 8af1 8dbd
00000040: 50ac bfbd ec10 14bd 943b 48bd 40e5 70bb
00000050: 9803 d4bd dc53 8e3d 5cf3 ee3d 2dab 3e3e
00000060: d644 80bd c093 e5bc 9238 8ebe 5577 cabb
00000070: d73e d43d b458 babe d02f 183d eae1 e3bd
00000080: f321 d63b 4941 64bf 56b1 2e3f c064 a3bb
00000090: a403 0b3d 9662 69bf ca2c ae3d 0024 673b
000000a0: 4712 ea3e 3e04 a53d 75d3 61bd f442 0b3d
000000b0: 608c 1bbd 4eb1 f9bd e589 8fbf 2116 163e
000000c0: a04f d2bc 10fe 7b3f e28a 8f3b 5c9b f33d
000000d0: 5fd6 e53d 4880 cdbd ae49 d63d 80ea c83b
000000e0: 6eb8 8bbc a33e 4c3d 5574 a13e c0f5 e7bc
000000f0: 4308 633d 0030 52bd 10c4 ebbc 0bde 7abf
00000100: fae7 66bd 90ec 8c3c 7fdd 0dbd c4cd d2bd
00000110: db74 9ebb 20a2 433c 4369 00be c085 93bb
00000120: d695 e1bd 73f6 883c 86a9 0cbc a8b5 ed3c
00000130: 515c 10be e21b b2bd f80d a63d f83d bf3d
00000140: c89c b33c ea6e 6f3b 2a6e f7bc e8f4 e53d
00000150: 9360 9c3d 503b 6dbc b266 e1bb c07c e1bc
00000160: 6425 543d c07d c23b c39e 41bc 1cbe bb3c
00000170: 7870 943d cac4 f5ba b0b2 133c 8aa8 8abd
00000180: ceea 5d3d 6b13 03bb cfa2 b7bc 0236 ebbd
00000190: 1877 b43c a51e 8ebc d8ad f43c da0a bc3d
000001a0: 33bc acbd 98fb 7f3d 091f 03be a0db dd3d
000001b0: 38e8 393d 34cc f5bd 6294 dbbc 358a 7cbd
000001c0: 98a2 923d 5bb5 a03d 8779 d8bd 90fc 303c
000001d0: b2c7 933d e07d 08bd 2f05 0e3d 00c0 21ba
000001e0: 7634 b2bb afe6 e33d 6cf8 a13b f052 a73d
000001f0: b650 fe3b 8c2c 6fbd ac1e 64bd c691 f0bd
00000200: 916f 093f 1c4f abbd c70c a13d 3fa2 93bd
00000210: bfa8 6ebd 2896 323d b47d 8e3d 80b8 663c
00000220: 7cb1 363d d325 3c3e f81d 263f d487 4c3d
00000230: 0abe 333f f457 b73d e0c6 d0bb f075 b73c
00000240: 701e abbd e84b 053e 17fd 7b3c 484e e9bc
00000250: f2ba febc da30 eebd a886 e23d 2129 6dbe
00000260: ec20 2b3d 6021 22bc a873 eb3e e253 7d3d
00000270: 571b 49bd 4603 1d3f ece9 9f3d 362f c9bd
00000280: 1fbc 333d 74f1 343f 6675 1bbf 984f a43d
00000290: 175a 153d 1b3a fa3e 58f7 d1bd 9e66 dd3d
000002a0: dfca 9cbe c014 7c3b 20a0 753d 724f 83bd
000002b0: 7887 e0bd 6935 1fbd cad2 353f 0224 03be
000002c0: 4023 793d 59f7 1fbf 0fb6 863d d474 f7bd
000002d0: 1016 123e 00c5 e4bb dac4 fe3d 2adc d13d
000002e0: 572f 8dbd 0be1 603d f6f7 91be 2c00 743d
000002f0: 0b7b a8bd 9a61 86bd 7808 ec3d 01e5 563f
00000300: e465 1d3f 388a eabd c42c 213d 762e 3dbd
00000310: bf4c 18bd a29b 873d 6198 0fbd 6cfd 82bd
00000320: 2072 bb3c 4645 483d d447 1f3f c65c dc3d
00000330: 0809 443f 40b2 6a3c 50e7 c73d 100c 273c
00000340: 0c7d 153d e8c5 753d ffa3 03bd 6020 ebbd
00000350: 83e6 0d3d 97b4 c83d f495 4dbc 7a1d 91bd
00000360: bc53 93bd 40f3 ddbb f94c 9a3e fcb9 b2b8
00000370: 3893 85bc 22da ab3e 507d 413c 10af 353d
00000380: cd33 773c c349 bd3e 3958 b2be 9cf9 4bbd
00000390: c476 87bd 1849 dc3e 00de 983a c492 fa3d
000003a0: cbb3 10be cc0f a1bd e7f0 8f3c 38c7 d1bc
000003b0: f4fa bb3d 5687 893d 7c2d 003f 523f aabd
000003c0: c872 60bd 2fca e8be 25c4 ebbd cc76 f43d
000003d0: ed14 99bd a86a e03c 6296 b9bd 6a0f 82bd
000003e0: 59df 45bd 5c5c 29bd 29ff efbd f06c 1d3d
000003f0: f752 98bd a0fd 88bc 7451 6abd 4298 153f
-0.81997246 0.05483362 -0.032928355 0.119989425 0.018925397 0.062115073 -0.017077742 0.09169963
-0.061364904 -0.049740665 -0.9110984 -0.090534225 -0.78999376 -0.028592318 0.108089596 -0.069308355
-0.09359038 -0.03614895 -0.048884943 -0.0036757737 -0.10352248 0.06949589 0.11667511 0.18619986
-0.062631294 -0.028024554 -0.27777535 -0.0061787763 0.10363548 -0.363958 0.037154973 -0.11127074
0.006534809 -0.8916212 0.68239343 -0.0049863756 0.03393902 -0.91166055 0.085046366 0.003526926
0.4571707 0.0805745 -0.0551333 0.0339994 -0.03797567 -0.12192021 -1.1213957 0.14656879
-0.025672734 0.98434544 0.00438057 0.11894867 0.11222529 -0.10034233 0.10463272 0.00613147
-0.017055716 0.049864423 0.31534067 -0.028315425 0.0554278 -0.051315308 -0.028780013 -0.9799506
-0.056373574 0.017202646 -0.034635063 -0.10293153 -0.0048357076 0.011940509 -0.12540154 -0.004502028
-0.11014907 0.016719079 -0.008585339 0.029017285 -0.14097716 -0.086967245 0.08108133 0.093379915
0.021925345 0.0036534616 -0.030203898 0.11228353 0.076356076 -0.014479473 -0.0068786973 -0.027525306
0.05179347 0.0059354007 -0.011817637 0.0229178 0.07248014 -0.0018750664 0.00901477 -0.067704275
0.054179005 -0.0020000588 -0.0224165 -0.114849105 0.022029445 -0.017348597 0.029868051 0.09181757
-0.08434334 0.062495798 -0.12804808 0.10832906 0.045387477 -0.12001839 -0.026804153 -0.061655242
0.071599185 0.07847091 -0.105700545 0.010802403 0.07215823 -0.03332317 0.034672912 -0.0006170273
-0.0054383827 0.11127984 0.0049429443 0.08170116 0.0077610863 -0.058392093 -0.055693313 -0.11746554
0.5368586 -0.08364698 0.07863765 -0.0720868 -0.058266398 0.04360023 0.0695757 0.014082074
0.044602856 0.18373804 0.6488948 0.049934223 0.7021185 0.089523226 -0.006371364 0.022395104
-0.08355415 0.13017237 0.015380166 -0.02847971 -0.031095002 -0.116304114 0.1106084 -0.2316022
0.041779444 -0.0098956525 0.45986676 0.061847575 -0.04909834 0.6133312 0.07808289 -0.09823458
0.043880578 0.7068093 -0.6072601 0.08022994 0.03646287 0.48872456 -0.10252255 0.10810588
-0.30623528 0.0038464516 0.05996716 -0.06411637 -0.109633386 -0.038869295 0.71024764 -0.12806705
0.060824633 -0.624868 0.06577694 -0.1208283 0.14266229 -0.006981492 0.1243989 0.10247071
-0.06893795 0.054902118 -0.28509492 0.059570476 -0.082265936 -0.06561585 0.11525053 0.8394318
0.614836 -0.114521444 0.039349332 -0.046186887 -0.037182566 0.066214815 -0.03505743 -0.06395993
0.022881567 0.04889419 0.62218976 0.10759883 0.7657628 0.014324725 0.09760916 0.010195747
0.036496207 0.06000319 -0.03213882 -0.114807844 0.03464366 0.0980007 -0.012547959 -0.070857
-0.071937054 -0.0067733824 0.3013685 -8.522344e-05 -0.016305551 0.3356486 0.011809662 0.044356406
0.015088034 0.36970338 -0.34832934 -0.049798593 -0.066144496 0.43024516 0.0011662841 0.122350246
-0.14131086 -0.07864341 0.017570926 -0.02560769 0.09178725 0.067152664 0.50069404 -0.08312859
-0.054796964 -0.45466754 -0.11512021 0.11936721 -0.074746944 0.027394608 -0.09061886 -0.06350596
-0.048308704 -0.041347846 -0.1171859 0.03843397 -0.07437699 -0.0167225 -0.057206586 0.5843545

network.3.bias f4 [32]
00000000: efd7 f53b 07cb d1bd 0783 983c 8b86 3e3c
00000010: 8950 053c bec8 e5bd 035b 423c fe88 8e3c
00000020: c283 7a3c ecd8 083c 6839 1b3c 7702 c8bd
00000030: 8ac0 133c bd75 f7bd 23f2 44bc e475 203c
00000040: 2812 f93b 2143 8a3c 7170 0abe cae8 d53b
00000050: 6213 63be e30f 463b 96a0 323c 8d7f 1e3c
00000060: 2840 c8bd 848c 363c be9a e83b c8ea 343c
00000070: d8f8 6b3c 13c5 92bd e6a7 6a3b bf54 513c
0.007502548 -0.102438025 0.018617166 0.011628757 0.008136877 -0.11219929 0.011862519 0.017399307
0.015290203 0.008352499 0.009474136 -0.09766095 0.009018073 -0.12083004 -0.0120206205 0.009793732
0.0076010413 0.016877713 -0.13519455 0.0065279948 -0.22175363 0.0030221872 0.0109025445 0.009673965
-0.09777862 0.0111419 0.007098525 0.011042304 0.014402591 -0.07166495 0.0035805642 0.012776553

network.6.weight f4 [16, 32]
00000000: fecb 4cbe f22f be3d a208 503e 6020 9c3e
00000010: 21f2 913e c20a 973d a6f0 14be 295b 163e
00000020: c064 00be 10ff 873e 3740 7a3e e294 4dba
00000030: 08c4 843e 8d23 983d f5dd a1be 4558 26bc
00000040: c035 1d3e 3876 c2bc bde3 dd3d 60c4 6c3e
00000050: 8162 bd3e 6657 d73d 30ab 4c3e 5af3 493e
00000060: 0bb7 99bd d51c 453e 71e2 663e d75a e6bd
00000070: 0760 553e d16f a7bc 3087 593e 3e7f 543e
00000080: b402 c9be ef5b fcbd fc03 7a3d b6bf 953e
00000090: c009 a13e 581f 1cbe 7cc4 a63d 7849 3e3e
000000a0: fc02 c1be 5b04 383e 493d 1f3e 0614 58bd
000000b0: a093 2f3e 05f5 5d3d 856c c83d a660 c8be
000000c0: 6172 843c e3ab e63e 5ad1 52bd b77f 603d
000000d0: d9cf 98be 6905 cf3e 81a0 9c3e 7d9d 03bc
000000e0: d208 a53c 69d0 ec3d 2e04 a33e 5838 93be
000000f0: bdb6 313e ca1e 7a3d 225e 873e 01df 323e
00000100: 286a 9ebe f41b 96bc 1b6c 403e 7b82 903e
00000110: f2d2 a13d df56 5c3d 130c 90bd 7f11 5f3d
00000120: 7b95 eabe 86e6 633e 49b2 723e 3a43 7ebc
00000130: 23ba 783e b8b1 ae3d a1b6 cf3d 751d ddbe
00000140: 2ec5 1b3e bd04 733e 71cf a7bd 99e8 513d
00000150: f847 90be e743 9f3e 211d c63d d1cb 423e
00000160: 4395 85bd 7c8c ca3d 7bb8 013e f5e9 d1be
00000170: e533 8e3e 44bf 2bbe f509 903d 8fe3 4e3e
00000180: 9917 1cbe 63dc b5bd f508 313e 2f2c fb3d
00000190: 5891 3d3e 780a eaba a0b5 943d 2fac 8e3e
000001a0: 6a4b 24be fd43 443e a7f8 e73d 5f93 1bbd
000001b0: 5bd3 6b3e 08a7 1fbd 9324 f53d 0c20 38be
000001c0: 6ac2 873e fc06 8d3e 4e8f 4b3e 4fdd 1b3e
000001d0: 93bb 5dbe c54f de3e 3815 b7bc 31b4 3ebd
000001e0: aa33 d83d fe0a 603e 74e1 68bd 5c02 28be
000001f0: e280 3c3e cb6e 0a3c f154 a43e 5e25 163c
00000200: 2266 d3be 3749 203e f771 eb3d 45d8 8e3e
00000210: 09fd a43e 58c6 fcbd 5833 c23c 7879 913d
00000220: 8912 92be 16ad 543e 8fa9 d83d 91ec af3d
00000230: 4048 b43b 10cf 613d 4a3b 2d3e f13b 6ebe
00000240: 9f25 963d 823a c83e a7f8 e73d 85d8 983e
00000250: ee74 21be 8afd be3e fad5 e63d 4395 983e
00000260: 7fb3 493d 69fa e23d 65f3 703e 0b51 ebbe
00000270: 3b2c 433e 02ca 153d dfdd c4bc 9d67 693d
00000280: 0b22 a03f c750 ea3d bdb2 7dbf d5c6 a0bf
00000290: 8d26 a8bf 9a62 0abe e6c1 8e3e f5d1 95bf
000002a0: 2a2b a33f a6b9 abbf cf3a 8dbf e4bf d53d
000002b0: e2f4 94bf c199 ac3d fe94 253e 39c8 913f
000002c0: 4f37 b9bf 3860 66be 3246 45bd 375d b7bf
000002d0: c64c 11be 9156 73be 8ea8 a3bf 42ee 9fbf
000002e0: 0f70 113e b0ca 9bbf dc0e 9fbf 2668 8d3f
000002f0: f1a1 8ebf 674e fabd 3078 afbf 3f03 92bf
00000300: 1035 b8be 5ada a83c 85b7 5d3e c8c1 8a3e
00000310: 6e22 983e e070 f33d 1070 9a3c ff56 1d3e
00000320: eabc 9dbe c4c0 183e 97e1 543e b601 e7bd
00000330: 805d 903e 73ae 043e 5190 a63d 9a73 66be
00000340: 6172 d83d a298 083f 95cb 96bd a97b 613e
00000350: 0075 94bd de09 8e3e 5281 543e 64bc 213e
00000360: 1cf2 19be 3886 3d3e 6bc2 303e 8848 96be
00000370: 33d1 a13e 7b6c cc3d 3689 743e 9985 653e
00000380: 3e24 69be 8799 99bc 5eef 993d d9e8 8a3e
00000390: fa1d 7e3e 4dbd 943d c4a7 233d 9a9e 0a3e
000003a0: 9b9e 70be 7856 283e f5df ae3d f588 333e
000003b0: 820e 893e eb7c 2cbe ea15 a63d 21e5 a1be
000003c0: 6755 873e 0010 563e eb01 bebd 3fa8 a23e
000003d0: 38dd 16be 3ac3 0b3f 4ff8 7a3e c2a9 833e
000003e0: 9a57 afbc af81 a23e a7b9 b43d 648e d3be
000003f0: 28ca b53d 4619 103e 2d46 0d3e 9b8f 9f3e
-0.19999692 0.092864886 0.20315793 0.3049345 0.28505042 0.07375099 -0.14544925 0.14683212
-0.12538433 0.26561785 0.24438559 -0.00078423147 0.2593081 0.07428656 -0.31614652 -0.010152881
0.15352535 -0.023738012 0.10834453 0.23121786 0.36989215 0.10514717 0.19987178 0.19721738
-0.07505616 0.1924928 0.22547318 -0.11247795 0.20837413 -0.02043906 0.21242976 0.20751664
-0.39259875 -0.123222224 0.061038956 0.29247826 0.3145275 -0.15246332 0.08142945 0.18582714
-0.3769759 0.17970411 0.15550722 -0.05275347 0.17146158 0.054188747 0.097863235 -0.39136237
0.016167821 0.45053014 -0.051469184 0.0548093 -0.29846075 0.40433815 0.30591205 -0.008033154
0.020145807 0.115631886 0.31839126 -0.28753924 0.17354865 0.06106452 0.26439005 0.17467882
-0.30940366 -0.018323876 0.18791239 0.2822455 0.07901563 0.053793784 -0.07033553 0.054460045
-0.4581717 0.22255906 0.23700823 -0.015518958 0.24289756 0.08529991 0.101422556 -0.43186536
0.15211937 0.23732276 -0.08193863 0.051247213 -0.28179908 0.31106493 0.09673525 0.19023062
-0.0652261 0.098900765 0.1266803 -0.40998808 0.27773967 -0.16772181 0.07033149 0.20203994
-0.15243377 -0.08879926 0.17288573 0.12264287 0.18512475 -0.0017855903 0.07261205 0.2786574
-0.16044393 0.1916656 0.113267235 -0.03798234 0.23029844 -0.038977653 0.119698666 -0.17980975
0.26515514 0.2754439 0.19878885 0.15221141 -0.21653585 0.43420234 -0.022348985 -0.046558563
0.10556729 0.21879193 -0.056855634 -0.1640715 0.1840854 0.008449267 0.32096055 0.0091641825
-0.4128886 0.15652929 0.114963464 0.27899376 0.322243 -0.123425186 0.023706123 0.071032465
-0.28529766 0.20769152 0.10579216 0.08590043 0.005501777 0.05512911 0.16917148 -0.23265053
0.073313944 0.39107138 0.113267235 0.2985269 -0.15767261 0.3730281 0.112712815 0.29801378
0.049243446 0.11082918 0.23530348 -0.45960268 0.19059841 0.036569603 -0.024031578 0.05698358
1.2510389 0.11441188 -0.9910086 -1.2560679 -1.3136765 -0.13514176 0.27882308 -1.1704699
1.2747548 -1.341603 -1.1033572 0.10436991 -1.1637232 0.08427764 0.16170117 1.1389228
-1.4470004 -0.22497642 -0.048162647 -1.4325322 -0.14189443 -0.23763491 -1.2785814 -1.2494586
0.14202903 -1.217123 -1.242641 1.1047409 -1.114317 -0.12221985 -1.3708553 -1.1407241
-0.35977983 0.02061193 0.21652038 0.27100968 0.29713768 0.118867636 0.018852264 0.15365218
-0.30808192 0.14917284 0.2078918 -0.11279623 0.28196335 0.12957172 0.08132995 -0.22505036
0.10568691 0.533579 -0.07363049 0.22019829 -0.072488785 0.27741903 0.20752457 0.15794522
-0.15033764 0.18508232 0.17261665 -0.29352212 0.3160492 0.099816285 0.23880467 0.22414245
-0.22767732 -0.018749965 0.07516359 0.27130774 0.24816123 0.07262669 0.039954916 0.13537064
-0.23498003 0.16439235 0.0853881 0.17532714 0.2676888 -0.16844527 0.081096485 -0.31620124
0.26432344 0.20904541 -0.092777096 0.31768987 -0.14732826 0.5459477 0.24508785 0.25715452
-0.021404076 0.31739566 0.08824473 -0.41319573 0.08876449 0.14072141 0.13796301 0.3116425

network.6.bias f4 [16]
00000000: 2df1 f3be 782b 503d 6fb5 863d f2a7 a53c
00000010: 1115 493d eb08 c33e 07b0 2d3d 29a9 2a3d
00000020: 6d1a 333d 41db 053f c68c 293d a616 d43e
00000030: ee53 44bf aa91 8f3d 40c2 15be ca22 21be
-0.4764494 0.050822705 0.065775745 0.020221684 0.049092356 0.3809274 0.0424042 0.04166523
0.043726373 0.5228768 0.041394018 0.4142353 -0.76690567 0.07010205 -0.14624882 -0.15735927

network.8.weight f4 [1, 16]
00000000: 64d5 77bf dee9 9e3e 154d ab3e 8226 b23e
00000010: 862c 853e 338b a5bf 88c0 943e 6c6b 643e
00000020: 601f b63d f790 6ebf 03cf 7c3e 9f9b 87bf
00000030: 232f 68bf 5025 903e 834c d5bd 1572 a9bd
-0.96809983 0.31037802 0.33457246 0.34795004 0.2601053 -1.2933105 0.2905314 0.22306603
0.08892703 -0.9318995 0.24688344 -1.0594367 -0.90696925 0.28153467 -0.10414984 -0.082737125
