第六次作业10245501405杨云天/model/Environment Ecology.pth (torch, 15477 bytes, 7 tensors)

network.0.weight f4 [64, 3]
-1.0065655 -1.4257498 -0.8754582 -0.3914142 -1.2481663 -0.6806182 0.7367409 1.7250347
0.20527378 -1.3330991 -1.9947932 -0.84642893 -1.0753536 -1.1612486 -0.51169455 -1.1987071
-2.0851526 -0.5891541 0.01976297 -0.55396676 -0.42209733 -0.39178938 0.26793897 0.21184617
-0.34224114 -0.1481432 -0.26955512 -0.886341 -1.7247763 -0.54841834 0.42803985 0.33876434
0.9092225 0.3433232 -0.11962019 -0.03145216 0.023271564 2.6838186 0.43879843 -0.31558922
0.1811723 0.018373383 0.32697922 0.0035335019 0.07277232 0.22657125 -0.31336182 -0.31540105
0.94798625 1.3297913 0.48450953 0.075633526 -0.54925346 -0.17390597 -0.63104266 -2.3141024
-1.0192355 -0.34877497 -1.7815878 -0.72607905 0.06783824 1.2709651 0.16018702 0.32647604
-0.3159515 -0.37617004 0.3512856 0.7798188 -0.14967708 -1.2229751 -1.3378197 -1.0770409
0.7804438 1.8714067 0.7774532 0.91395456 1.8521675 0.4887363 -1.0791726 -1.9564106
-0.28581214 -0.14355713 0.5027411 0.16734527 -0.749967 -0.763158 -0.7090967 -0.003252172
2.221003 0.23915032 0.4252481 0.34266737 0.27466568 -0.55795276 -0.4059452 0.35208943
-0.45278454 -0.20150596 -0.44244936 -1.2589352 -1.6721073 -0.98850125 -1.2361676 -1.403781
-0.9396323 -0.55489004 -0.34459963 -0.44363102 -0.035564084 0.9304666 -0.025995793 0.468473
-0.46956524 0.21993083 0.26534563 -0.7049246 -0.12875389 -0.5458936 0.13289243 -0.23475976
0.35680357 1.5492035 -0.285424 -0.3804928 -0.2168149 0.110576145 -0.1405565 -0.19331525
0.042165127 0.41252255 1.684153 0.77423245 0.8965574 0.71756834 0.8396845 0.4634139
0.049523193 0.15599655 0.19268735 0.32232785 -0.37169844 -0.05616568 -0.23154266 -0.5160253
0.6080795 2.1925235 0.52029 -0.056672413 -1.0304192 0.2400476 1.2739527 1.684745
0.82227176 -0.010762815 0.28793076 0.78919876 -0.5799789 -1.5716399 -1.0028765 0.07279723
-0.47116503 -0.14337648 0.7201004 2.0088315 -0.08543877 -0.33725336 -0.6293475 -0.33495393
0.38149095 0.026479928 -0.53562856 0.56479996 1.9176142 0.320409 0.16289471 0.44343275
-0.24420173 0.46530554 0.090551384 0.10158446 0.1634585 1.6598943 0.7879548 -0.42596793
-0.4723989 -0.46983758 -0.57767546 -1.3905729 -1.2760261 0.5886732 0.44386098 0.98006094
00000000: 23d7 80bf f87e b6bf 071e 60bf 7167 c8be
00000010: eac3 9fbf ff3c 2ebf 0d9b 3c3f f0cd dc3f
00000020: 4a33 523e fea2 aabf 6255 ffbf 91af 58bf
00000030: 30a5 89bf cba3 94bf 6afe 02bf 3c6f 99bf
00000040: 2473 05c0 ced2 16bf f4e5 a13c c4d0 0dbf
00000050: 241d d8be 9e98 c8be 4c2f 893e 34ee 583e
00000060: 3b3a afbe dab2 17be 2103 8abe 3ee7 62bf
00000070: 78c5 dcbf 2565 0cbf 0a28 db3e 8572 ad3e
00000080: cec2 683f 0fc8 af3e 6efb f4bd fbd3 00bd
00000090: 02a4 be3c afc3 2b40 30aa e03e e994 a1be
000000a0: 3b85 393e c783 963c d269 a73e 5392 673b
000000b0: a709 953d 4b02 683e f670 a0be 3f7c a1be
000000c0: 3aaf 723f 9a36 aa3f a211 f83e c0e5 9a3d
000000d0: e09b 0cbf 6814 32be 038c 21bf 411a 14c0
000000e0: 4f76 82bf a292 b2be 120b e4bf 51e0 39bf
000000f0: c6ee 8a3d fcae a23f 1108 243e de27 a73e
00000100: 65c4 a1be 5c99 c0be b5db b33e 34a2 473f
00000110: f344 19be 738a 9cbf ad3d abbf 7adc 89bf
00000120: 2acb 473f 418a ef3f 2c07 473f edf8 693f
00000130: d313 ed3f a53b fa3e 5422 8abf aa6b fabf
00000140: f855 92be a400 13be a4b3 003f 8f5c 2b3e
00000150: d6fd 3fbf 535e 43bf 5d87 35bf 6422 55bb
00000160: ea24 0e40 d2e3 743e 1eba d93e 1972 af3e
00000170: fba0 8c3e fed5 0ebf 0dd8 cfbe 1145 b43e
00000180: 60d3 e7be 9457 4ebe b988 e2be ca24 a1bf
00000190: 9d07 d6bf 6b0e 7dbf bd3a 9ebf 19af b3bf
000001a0: be8b 70bf 460d 0ebf 5d6f b0be 9b23 e3be
000001b0: a5ab 11bd 0f33 6e3f 21f5 d4bc b1db ef3e
000001c0: db6a f0be 8c35 613e 62db 873e f075 34bf
000001d0: 0fd8 03be afbf 0bbf f414 083e dd64 70be
000001e0: f5ae b63e 4d4c c63f 1823 92be f4cf c2be
000001f0: ba04 5ebe bf75 e23d 0bee 0fbe 6ff4 45be
00000200: 57b5 2c3d 2836 d33e 5392 d73f 1934 463f
00000210: c984 653f 8fb2 373f 90f5 563f 9644 ed3e
00000220: d5d8 4a3d 8fbd 1f3e d54f 453e 2808 a53e
00000230: 424f bebe fc0d 66bd 8519 6dbe 3c1a 04bf
00000240: 19ab 1b3f 4e52 0c40 ba31 053f 5521 68bd
00000250: c7e4 83bf 0acf 753e e210 a33f b9a5 d73f
00000260: 6780 523f 8556 30bc a96b 933e ee08 4a3f
00000270: 7f79 14bf 7f2b c9bf 425e 80bf b716 953d
00000280: 8b3c f1be 49d1 12be 8058 383f b290 0040
00000290: 86fa aebd 79ac acbe eb1c 21bf 157f abbe
000002a0: c852 c33e 6fec d83c f41e 09bf bb96 103f
000002b0: 6274 f53f a60c a43e dfcd 263e 9e09 e33e
000002c0: 0510 7abe 873c ee3e 0173 b93d 830b d03d
000002d0: aa61 273e 6b77 d43f 68b7 493f 7818 dabe
000002e0: 45de f1be 8d8e f0be 8ae2 13bf 4bfe b1bf
000002f0: d354 a3bf 49b3 163f bf41 e33e 46e5 7a3f

network.0.bias f4 [64]
0.110552296 0.10380161 -0.0012236953 0.019380974 0.08418435 0.02025581 -0.4995181 -0.4151182
-0.20902136 0.017763255 0.13243335 -0.42216098 -0.0027291246 -0.023242515 -0.4618973 -0.010537324
-0.025330564 -0.31889966 0.017807199 0.035933975 0.054896854 -0.36963588 0.08269699 0.0172225
-0.010554225 -0.017512547 0.06267391 -0.3727867 0.066711344 -0.0025698831 -0.48023608 -0.47619548
-0.53148323 0.06471636 0.090457335 -0.022286871 0.083584845 -0.3102763 0.061425813 -0.13291535
0.012321208 0.06673863 -0.21474841 -0.014069128 0.0813016 0.047747716 -0.5547958 -0.010491073
-0.011008944 0.023970872 -0.033091046 0.018703325 0.07462497 -0.27795005 -0.0093633775 0.03943091
-0.4625676 0.004259162 -0.463653 -0.32185435 0.0020402912 -0.44758242 0.08151895 0.025944315
00000000: 3e69 e23d f095 d43d 6764 a0ba d9c4 9e3c
00000010: d868 ac3d 83ef a53c d6c0 ffbe 5f8a d4be
00000020: b209 56be 3f84 913c 9c9c 073e 7c25 d8be
00000030: 1ddb 32bb 1667 bebc ce7d ecbe bda4 2cbc
00000040: 0b82 cfbc d146 a3be 67e0 913c 812f 133d
00000050: 86db 603d ea40 bdbe 0a5d a93d 3316 8d3c
00000060: a1eb 2cbc 7976 8fbc 2e5b 803d e6dd bebe
00000070: f59f 883d 7c6b 28bb 81e1 f5be e5cf f3be
00000080: 490f 08bf 038a 843d b241 b93d f592 b6bc
00000090: 882e ab3d 89dc 9ebe a299 7b3d f61a 08be
000000a0: e4de 493c 43ae 883d 02e7 5bbe 3382 66bc
000000b0: 7481 a63d 1c93 433d 1907 0ebf c0e2 2bbc
000000c0: dc5e 34bc 905e c43c 7a8a 07bd b737 993c
000000d0: fad4 983d 784f 8ebe da68 19bc 4e82 213d
000000e0: a9d5 ecbe 7190 8b3b ed63 edbe 18ca a4be
000000f0: 68b6 053b 8629 e5be 68f3 a63d 2c89 d43c

network.3.weight f4 [32, 64]
-0.06122977 -0.06064508 0.1716335 -0.2432486 0.019277915 -0.4382244 0.015942693 0.06797524
-0.07693571 -0.16171618 -0.0028400493 0.038702592 0.26336718 -0.021945849 0.0111979395 0.108969554
0.6040001 -0.03421083 -0.11849411 -0.13894862 -0.03652672 -0.001417622 -0.050408356 -0.17647192
0.20435941 0.40660095 -0.123811804 -0.0029331695 -0.03519868 0.51280797 0.12640214 0.026876122
-0.07483001 -0.09950812 -0.113289334 -0.11543886 0.03770851 0.09166251 -0.023796923 0.10117145
0.010085886 -0.029729804 0.020944357 0.429533 0.021506734 0.07843664 -0.09301469 -0.10588084
0.46794513 0.07147706 0.15436445 -0.045230746 -0.10411317 0.05408992 0.33726513 0.09112097
0.12103106 0.031125417 -0.023507014 3.782689e-05 0.016430052 0.12425341 -0.058750927 -0.013524214
-0.10377838 -0.004370496 -0.013744056 0.8942202 -0.018888574 0.9410321 -0.008520126 -0.05974157
-0.038872793 0.17279203 -0.02214743 -0.041152716 -0.5495983 -0.009143025 -0.06257422 0.09383458
-0.7225713 -0.091087446 0.33476806 0.0048316047 -0.0011375167 -0.10160644 -0.011371424 0.64026195
-0.29691145 -0.7956818 0.010099688 0.085194066 0.030626087 -1.0817596 0.011190549 -0.0044979006
-0.07370187 0.0803123 -0.08187123 -0.036822483 0.025282321 -0.06611848 -0.029960461 -0.057881117
-0.04725779 0.01002296 0.06820008 -0.68888354 0.012568474 -0.06839428 0.11308728 0.082395494
-0.7306831 0.011972796 -0.3808848 -0.06625271 0.08294177 0.079457626 -1.0269406 0.02200768
0.11711039 -0.09377183 -0.038141802 0.117008686 -0.049150754 0.058008403 -0.020907074 0.0043025217
0.08029307 0.03349697 -0.08339524 0.013312452 -0.0647598 0.10213244 -0.06696783 0.078093186
0.078079954 -0.09199785 0.077472955 0.11838552 0.040852495 0.011097565 -0.07878119 0.108462706
-0.11974721 -0.07332258 -0.041837793 0.05127201 0.077067405 -0.06704846 0.07412343 -0.1130636
-0.13288432 0.010449592 -0.056853883 0.112586156 -0.0865241 -0.058449753 -0.033539116 -0.01869367
0.048748493 -0.10060637 0.09348234 -0.07482381 0.0065828525 0.001103431 -0.00047275066 0.03318782
-0.045808256 -0.11207277 -0.010772362 -0.1060072 0.022534251 -0.045196097 0.09126122 -0.03615555
-0.063560866 -0.03359891 0.088851474 -0.05304574 -0.11302332 -0.057825044 -0.0043736584 0.025840025
0.00456883 0.081922755 -0.016791314 0.08051345 -0.09780623 -0.08196673 -0.1029709 -0.11716747
-0.04422951 -0.093118906 -0.12183827 0.9147209 -0.05114115 1.0734155 -0.042027593 -0.03162709
-0.011636421 0.4011901 -0.046674293 0.112367764 -0.9857331 0.043622524 0.030889437 -0.0050500333
-0.63403547 -0.031535685 0.76544523 0.11740082 -0.09060496 0.063295245 -0.07895231 0.7639637
-0.47306013 -0.58862126 -0.10763323 0.07500327 -0.07575824 -0.7562186 -0.013907716 -0.07709172
0.05459705 0.089898296 -0.012468279 0.065856114 -0.06244998 0.013680279 0.035685983 0.10695429
-0.06624982 -0.06962572 0.011307254 -0.40217394 -0.013170827 -0.037751384 0.024242327 0.08630103
-0.5102136 0.009390837 -0.54630446 -0.018483432 -0.043669436 0.09379174 -0.7555338 -0.095460825
0.093262926 -0.09875595 -0.023519143 0.037767872 -0.16271631 -0.03746383 -0.10098629 -0.07924053
00000000: 11cc 7abd fa66 78bd b1c0 2f3e 2916 79be
00000010: b8ec 9d3c f35e e0be 409a 823c 9a36 8b3d
00000020: 7890 9dbd ed98 25be 1f20 3abb 9c86 1e3d
00000030: 10d8 863e c8c7 b3bc 9077 373c 6e2b df3d
00000040: c09f 1a3f a820 0cbd 0aad f2bd 8c48 0ebe
00000050: 0b9d 15bd 80cf b9ba fe78 4ebd 0eb5 34be
00000060: 9843 513e 002e d03e 0b91 fdbd 6b3a 40bb
00000070: 7e2c 10bd 6247 033f 906f 013e 502b dc3c
00000080: 7a40 99bd eaca cbbd 3d04 e8bd 366b ecbd
00000090: 3d74 1a3d 8eb9 bb3d c4f1 c2bc fa32 cf3d
000000a0: 463f 253c eb8b f3bc 8093 ab3c c0eb db3e
000000b0: e42e b03c 64a3 a03d 7c7e bebd 0ed8 d8bd
000000c0: 8196 ef3e 9162 923d b711 1e3e e043 39bd
000000d0: 4939 d5bd 648d 5d3d 04ae ac3e a29d ba3d
000000e0: 22df f73d bbfa fe3c c891 c0bc 50a8 1e38
000000f0: 5198 863c 9278 fe3d d0a4 70bd aa94 5dbc
00000100: c289 d4bd 6136 8fbb c02e 61bc 9deb 643f
00000110: 36bc 9abc 7be7 703f 0098 0bbc 94b3 74bd
00000120: 1439 1fbd 65f0 303e 876e b5bc c08f 28bd
00000130: 79b2 0cbf a0cc 15bc ea26 80bd 582c c03d
00000140: 6ffa 38bf 0e8c babd b866 ab3e 7052 9e3b
00000150: ba18 95ba 0a17 d0bd 364f 3abc 35e8 233f
00000160: c704 98be cdb1 4bbf 2979 253c 3a7a ae3d
00000170: 8fe3 fa3c 1977 8abf 9058 373c 2063 93bb
00000180: 02f1 96bd c67a a43d 1aac a7bd 2cd3 16bd
00000190: df1c cf3c 2069 87bd a46f f5bc c014 6dbd
000001a0: 6291 41bd 5737 243c 7cac 8b3d ac5a 30bf
000001b0: 00ec 4d3c 4d12 8cbd 4e9a e73d f8be a83d
000001c0: 0c0e 3bbf 8c29 443c 5503 c3be 80af 87bd
000001d0: 60dd a93d aeba a23d ca72 83bf 7349 b43c
000001e0: 92d7 ef3d 720b c0bd 943a 1cbd 40a2 ef3d
000001f0: 4d52 49bd 389a 6d3d 5045 abbc 2bfc 8c3b
00000200: b170 a43d 1e34 093d 20cb aabd 781c 5a3c
00000210: c9a0 84bd d02a d13d 6e26 89bd 52ef 9f3d
00000220: 62e8 9f3d 5e69 bcbd 24aa 9e3d 1c74 f23d
00000230: f254 273d 90d2 353c 0858 a1bd b221 de3d
00000240: 063e f5bd 262a 96bd 1b5e 2bbd 9902 523d
00000250: 84d5 9d3d b450 89bd 06ce 973d e48d e7bd
00000260: d412 08be c434 2b3c 9edf 68bd 9293 e63d
00000270: 8c33 b1bd 0269 6fbd 5060 09bd 7823 99bc
00000280: 80ac 473d b60a cebd ab73 bf3d 3a3d 99bd
00000290: f8b4 d73b 00a1 903a 85db f7b9 f4ef 073d
000002a0: 70a1 3bbd 6986 e5bd 907e 30bc 4e1a d9bd
000002b0: c099 b83c 8b1f 39bd 2ae7 ba3d d817 14bd
000002c0: 332c 82bd 039f 09bd c3f7 b53d 7d46 59bd
000002d0: c578 e7bd f4d9 6cbd e850 8fbb 76ae d33c
000002e0: 20b6 953b 1ec7 a73d f08d 89bc 3ce4 a43d
000002f0: a24e c8bd 2cde a7bd 68e2 d2bd 80f5 efbd
00000300: 012a 35bd 20b5 bebd 5886 f9bd 262b 6a3f
00000310: 6279 51bd ae65 893f 2025 2cbd 688b 01bd
00000320: b0a6 3ebc ca68 cd3e 8b2d 3fbd 1221 e63d
00000330: 0159 7cbf 88ad 323d d80b fd3c c07a a5bb
00000340: 2650 22bf 902b 01bd 38f4 433f d76f f03d
00000350: 188f b9bd f0a0 813d c0b1 a1bd 2093 433f
00000360: f034 f2be e2af 16bf d06e dcbd 509b 993d
00000370: 2327 9bbd 8b97 41bf 30dd 63bc 44e2 9dbd
00000380: 28a1 5f3d 991c b83d c147 4cbc 92df 863d
00000390: 8dcb 7fbd 4023 603c 772b 123d da0a db3d
000003a0: fcad 87bd ee97 8ebd 1042 393c bee9 cdbe
000003b0: 74ca 57bc 32a1 1abd d897 c63c 98be b03d
000003c0: 5c9d 02bf 06dc 193c 9cda 0bbf 916a 97bc
000003d0: b9de 32bd e215 c03d aa6a 41bf f780 c3bd
000003e0: a200 bf3d 8f40 cabd 38ab c0bc 7cb2 1a3d
000003f0: 1b9f 26be ac73 19bd e6d1 cebd dc48 a2bd

network.3.bias f4 [32]
4.9781007e-05 0.045009095 -0.11859167 0.1213788 0.019306706 -0.0036716517 -0.041396525 -0.022318978
0.012849543 -0.011029066 0.055161197 -0.05275849 0.0043796515 0.060645316 0.018184315 -0.12985191
-0.008154743 0.04083929 -0.12976304 -0.09114109 -0.0026801154 0.051359463 0.024288101 0.044708002
-0.00908383 0.02699066 -0.12381603 -0.042581532 -0.026341455 0.05492389 0.056903575 0.05172249
00000000: f3cb 5038 755b 383d 31e0 f2bd 7395 f83d
00000010: 1929 9e3c 18a0 70bb 678f 29bd 4ad6 b6bc
00000020: e486 523c 41b3 34bc b5f0 613d 4919 58bd
00000030: 2e83 8f3b 3967 783d 46f7 943c e6f7 04be
00000040: 799b 05bc 1947 273d 9ae0 04be 2ea8 babd
00000050: e0a4 2fbb 4d5e 523d d7f7 c63c bd1f 373d
00000060: 58d4 14bc 841b dd3c 4293 fdbd f969 2ebd
00000070: 09ca d7bc dff7 603d b913 693d f6da 533d

network.6.weight f4 [16, 32]
-0.1854804 0.49790722 -0.109202966 0.27271828 0.5505745 0.590865 -0.12838285 -0.020915514
-0.20155594 0.40036473 0.2740588 -0.2458308 -0.23998614 0.29883248 0.35947254 -0.049960047
-0.18282159 0.4511219 0.003760131 -0.013215246 -0.07843985 -0.070571736 -0.15461671 0.4474785
0.43635026 0.19105405 -0.15301947 -0.16295585 0.36002234 0.55756956 0.30585048 0.520793
0.068576254 -0.008584829 0.022494817 -0.032445956 -0.17865565 -0.08720812 0.24584895 0.345072
-0.1115815 -0.039988916 -0.16468453 -0.14474578 -0.20203844 0.046182133 0.030361498 -0.10107095
-0.014787511 -0.032289293 0.0030139806 -0.14856252 -0.123353206 0.087987095 -0.18580723 0.03431069
-0.06956529 -0.032814916 0.034504496 0.107264474 -0.07333712 -0.11646663 -0.039920375 -0.10211466
-0.26890785 0.5406788 -0.18519874 0.22301413 0.47870943 0.39079517 -0.36316425 -0.024970107
-0.20180227 0.32267153 0.47272465 -0.42475605 -0.19936098 -0.025387308 0.50642186 0.073307484
-0.26620093 0.52662027 -0.13570741 -0.17251147 -0.20186606 -0.18249068 -0.08304084 0.5800745
0.6130689 0.40521243 -0.09001013 -0.35157242 0.5415669 0.57158387 0.63377607 0.66593057
-0.042412773 -0.22405247 -0.049758475 -0.08332845 -0.24104393 -0.1521321 0.010409379 0.10324519
0.18849464 -0.22678754 -0.11274517 0.21573871 0.07764912 0.07753532 0.061336845 0.13962021
0.16040239 -0.19300319 0.073189564 0.26848966 0.12255957 -0.012553012 0.15010154 0.013002309
-0.10537402 -0.1870186 -0.07994959 0.21140146 -0.03782952 -0.15573351 -0.14083177 -0.24784335
-0.26298183 0.42299005 0.08504036 0.12101551 0.4818537 0.3588996 -0.40981397 -0.09392252
-0.36065793 0.47077897 0.22033405 -0.36051413 -0.46985364 -0.070847996 0.37563518 -0.086012274
-0.25650755 0.549226 0.14624168 -0.15604343 -0.38026807 -0.103303716 -0.133927 0.5262426
0.32082164 0.24346839 0.10747689 -0.4754137 0.3188261 0.41886878 0.46909362 0.4969177
0.016751181 -0.30753207 0.014539763 -0.068552166 -0.2866364 -0.18526858 0.0029359765 0.22990105
0.17115788 -0.26537934 -0.04150396 -0.010893614 0.13025764 -0.037110176 -0.23713504 -0.13819492
-0.077479474 -0.17334267 0.111614555 0.09266568 0.084577456 -0.040792882 0.059788242 -0.21177053
-0.11447186 -0.23391107 0.0015132256 -0.016936503 -0.32287902 -0.24490544 -0.33013782 -0.28320873
0.2327429 -0.052962348 -0.048966344 0.0005631272 -0.33678147 -0.093063 0.07673976 0.16289328
0.22470793 -0.25583595 -0.21253131 -0.039436124 0.19912037 0.08167439 -0.19828333 -0.10732137
0.23403983 -0.0050637275 0.071104154 0.2570702 0.062799275 0.21749038 0.16849993 -0.13797681
-0.15933174 -0.048399318 0.058866292 0.10463285 -0.15064295 -0.27212995 -0.30368525 -0.24337597
-0.26705483 0.36838403 -0.033584423 0.28043237 0.30722597 0.3228693 -0.28578132 0.06781215
-0.1408426 0.34401935 0.33773816 -0.4357945 -0.30465427 0.19022214 0.42594144 -0.048484668
-0.14640155 0.47607225 0.055577926 -0.17323738 -0.11402519 0.023369215 -0.093214065 0.37546548
0.26576117 0.4866722 -0.03414548 -0.30013064 0.43949676 0.2536557 0.34999523 0.32210878
00000000: 93ee 3dbe b2ed fe3e cea5 dfbd bba1 8b3e
00000010: 73f2 0c3f ee42 173f cb76 03be 0357 abbc
00000020: ae64 4ebe 9bfc cc3e 6f51 8c3e 12bb 7bbe
00000030: edbe 75be 9200 993e c90c b83e e8a2 4cbd
00000040: 9535 3bbe 73f9 e63e 886c 763b c284 58bc
00000050: 12a5 a0bd ea87 90bd d853 1ebe e71b e53e
00000060: 4d69 df3e aca3 433e 23b1 1cbe e6dd 26be
00000070: d954 b83e e1bc 0e3f 6f98 9c3e b152 053f
00000080: b571 8c3d 62a7 0cbc 0d47 b83c 0de6 04bd
00000090: 82f1 36be 2c9a b2bd d4bf 7b3e 47ad b03e
000000a0: d784 e4bd 6bcb 23bd 10a3 28be 3d38 14be
000000b0: 2ae3 4ebe 7a29 3d3d adb8 f83c 49fe cebd
000000c0: 5147 72bc c741 04bd 3486 453b c620 18be
000000d0: 9ba0 fcbd 9432 b43d 4044 3ebe 5e89 0c3d
000000e0: 3f78 8ebd ef68 06bd 9654 0d3d 7aad db3d
000000f0: c631 96bd 0e86 eebd 8c83 23bd 7e21 d1bd
00000100: 4aae 89be ed69 0a3f bda4 3dbe d15d 643e
00000110: 6719 f53e 4e16 c83e aaf0 b9be 1c8e ccbc
00000120: 41a5 4ebe 3435 a53e f708 f23e a079 d9be
00000130: 4925 4cbe 0bf9 cfbc dda4 013f 3c22 963d
00000140: 7d4b 88be 96d0 063f e2f6 0abe d9a6 30be
00000150: fab5 4ebe d6de 3abe 5111 aabd c37f 143f
00000160: 15f2 1c3f 0178 cf3e 3b57 b8bd 4d01 b4be
00000170: 21a4 0a3f 5253 123f 263f 223f 6d7a 2a3f
00000180: 04b9 2dbd 036e 65be 8bcf 4bbd 1ba8 aabd
00000190: 38d4 76be 84c8 1bbe 1a8c 2a3c 3772 d33d
000001a0: bd04 413e fe3a 68be f1e6 e6bd 9cea 5c3e
000001b0: 8006 9f3d d6ca 9e3d 583c 7b3d 9af8 0e3e
000001c0: 8640 243e a1a2 45be 69e4 953d 7a77 893e
000001d0: 8300 fb3d 26ab 4dbc 38b4 193e a307 553c
000001e0: 56ce d7bd ce81 3fbe 9cbc a3bd a079 583e
000001f0: 20f3 1abd 9b78 1fbe 3436 10be a6ca 7dbe
00000200: 8ea5 86be 2792 d83e a429 ae3d fbd6 f73d
00000210: 87b5 f63e b0c1 b73e 23d3 d1be 735a c0bd
00000220: 28a8 b8be f109 f13e 409f 613e 4f95 b8be
00000230: a890 f0be c118 91bd 4153 c03e 3427 b0bd
00000240: f554 83be 139a 0c3f 61c0 153e d9c9 1fbe
00000250: 7fb2 c2be e690 d3bd 2924 09be d6b7 063f
00000260: bc42 a43e c74f 793e d81c dc3d 6d69 f3be
00000270: 2d3d a33e f875 d63e 0a2d f03e ff6b fe3e
00000280: c639 893c d874 9dbe 3038 6e3c 1465 8cbd
00000290: 02c2 92be 0cb7 3dbe 8369 403b 2e6b 6b3e
000002a0: 0344 2f3e cddf 87be 0e00 2abd 217b 32bc
000002b0: 4262 053e d700 18bd 87d3 72be f882 0dbe
000002c0: 8fad 9ebd be80 31be 2c96 e43d 81c7 bd3d
000002d0: f236 ad3d 7016 27bd 84e4 743d 60da 58be
000002e0: 3970 eabd 6286 6fbe 6d57 c63a 6cbe 8abc
000002f0: 6650 a5be 7ec8 7abe d307 a9be bc00 91be
00000300: 2854 6e3e 0cef 58bd ef90 48bd d49e 133a
00000310: 9f6e acbe d097 bebd bc29 9d3d 7fcd 263e
00000320: d619 663e eefc 82be cfa1 59be c687 21bd
00000330: 36e6 4b3e e744 a73d c90a 4bbe 4ecb dbbd
00000340: 23a8 6f3e a0ed a5bb 0e9f 913d b59e 833e
00000350: e89c 803d ccb5 5e3e 3f8b 2c3e cb49 0dbe
00000360: dc27 23be 5d3e 46bd c81d 713d bf49 d63d
00000370: 2542 1abe 9e54 8bbe a27c 9bbe 8d37 79be
00000380: 69bb 88be d59c bc3e d28f 09bd d594 8f3e
00000390: b94c 9d3e 204f a53e ee51 92be 19e1 8a3d
000003a0: 0b39 10be 4e23 b03e 04ec ac3e 7520 dfbe
000003b0: a5fb 9bbe 98c9 423e ff14 da3e dc97 46bd
000003c0: 4aea 15be bebf f33e aea5 633d 2465 31be
000003d0: 0a86 e9bd cc70 bf3c 04e7 bebd 033d c03e
000003e0: d911 883e 192d f93e 21dc 0bbd b9aa 99be
000003f0: b805 e13e 29df 813e 9332 b33e 71eb a43e

network.6.bias f4 [16]
0.115854114 0.02970295 0.14028774 0.107208006 0.2320571 0.17315918 0.113884404 0.10219703
0.14432542 0.18873554 0.18718374 0.3180567 0.22220771 0.12143651 0.09251271 0.14118944
00000000: ec44 ed3d 9a53 f33c 97a7 0f3e df8f db3d
00000010: 60a0 6d3e a450 313e 3a3c e93d ad4c d13d
00000020: 0bca 133e e443 413e 18ad 3f3e 54d8 a23e
00000030: 6b8a 633e b4b3 f83d 4e77 bd3d f793 103e

network.8.weight f4 [1, 16]
-0.6000026 0.37415466 -0.6898922 0.43456638 -0.56534994 0.31203994 0.46919274 -0.5994463
0.4016036 0.5384543 0.20448525 -0.5373695 -0.6780551 0.38277504 -0.6499158 0.3991502
00000000: c599 19bf 3391 bf3e c69c 30bf 7c7f de3e
00000010: c6ba 10bf b3c3 9f3e 083a f03e 5075 19bf
00000020: fd9e cd3e 24d8 093f 9564 513e 0c91 09bf
00000030: 0595 2dbf 17fb c33e e260 26bf 6a5d cc3e
