第六次作业10245501405杨云天/model/Geosciences.pth (torch, 15365 bytes, 7 tensors)

network.0.weight f4 [64, 3]
-0.8789204 -0.85320294 -0.9337761 0.4750617 -0.023089722 -0.10094721 0.7293468 1.1702194
0.3288437 -0.20107532 -0.013528481 0.5089104 0.9743757 1.1314964 0.9006355 0.6229508
1.4126804 0.5854426 0.48808336 0.782477 0.44332588 0.39860785 0.36536565 -0.3507764
0.25041 0.8193737 0.70770544 -0.3831394 -0.38663486 -0.47938332 -0.05875345 0.32292664
-0.07524714 0.6112064 0.45944005 0.33829188 -0.004253279 -0.41982916 0.085736424 -0.51350206
0.4071781 0.31709552 0.6695188 1.3808758 0.0019601812 0.1993879 1.356161 0.7692848
-0.03811392 -0.2258298 0.53419596 -0.48814029 -0.14869422 -0.7200435 -0.5099664 -0.03758513
-0.8640704 -1.1672401 -1.0165043 -0.50824696 -0.10279902 -0.37270796 -0.8308207 0.15784767
0.3009783 -0.033122417 -0.89147836 -0.82534206 0.04509333 -0.6378377 -0.71643454 -0.2672204
0.29642358 0.97448045 0.651137 -0.6989696 -1.359185 -0.08731445 0.9329577 1.4601492
0.8526534 0.81572956 1.2375251 0.73197585 -0.13586342 0.2953934 -0.20173757 0.37817034
0.32422885 0.13377208 -0.30146125 -1.0178355 -0.6197647 0.60789394 0.51483476 -0.028772587
-0.31041738 -0.3182736 -0.19800563 0.2213425 0.08344371 0.113537185 0.24275318 0.6151886
-0.2703574 0.76390755 0.6147863 0.46362293 0.0429518 0.41696182 -0.42240825 -0.5509525
-0.21449547 -0.1724817 0.24618554 0.11102138 0.2780584 -0.14550582 -0.32894507 0.23349042
-0.5268183 -0.28378066 -0.54260445 -0.03801894 0.5351791 -0.21929117 0.11683633 -0.28112304
0.10570415 -0.055885766 -0.36155275 -0.31509325 0.47769243 0.4786939 -0.544112 0.20160876
1.4255167 0.65492845 0.4691059 0.124307685 0.28606147 0.57713753 -0.4121452 -0.510364
0.06688422 -0.11331963 -0.21169661 0.92441994 1.3049604 0.31776702 -1.047701 -1.4252528
-1.145767 -0.9948199 -0.41894847 -1.0092105 -0.2828237 0.07198239 -0.4654856 -0.09499318
-1.0964091 -0.18887922 -0.81818837 0.07642568 -0.8596868 -0.013966196 -0.257187 -0.46817347
0.81142145 1.3658671 0.34911343 0.45220095 0.7949689 0.47530064 -0.3910557 0.20026104
-0.3049079 0.6328527 1.4291235 0.6096102 0.032771338 -0.34333086 0.16559336 0.40285805
-0.08804924 0.1932986 0.31542224 0.16188078 -0.05354343 -0.25417057 -0.30691898 -0.33886206
00000000: ed00 61bf 826b 5abf f30b 6fbf 4a3b f33e
00000010: a826 bdbc 69bd cebd 79b6 3a3f c0c9 953f
00000020: 345e a83e b0e6 4dbe 90a6 5dbc f447 023f
00000030: b070 793f e0d4 903f 0c90 663f b479 1f3f
00000040: b6d2 b43f 91df 153f 10e6 f93e 6a50 483f
00000050: 9cfb e23e 5416 cc3e 3511 bb3e f798 b3be
00000060: bd35 803e 7ac2 513f 2f2c 353f d92a c4be
00000070: 01f5 c5be bb71 f5be 75a7 70bd a456 a53e
00000080: 2c1b 9abd 0678 1c3f ba3b eb3e 9834 ad3e
00000090: 175f 8bbb d9f3 d6be 9496 af3d df74 03bf
000000a0: a679 d03e 585a a23e 9665 2b3f 8ac0 b03f
000000b0: 6276 003b 572c 4c3e af96 ad3f d9ef 443f
000000c0: 571d 1cbd ed3f 67be 11c1 083f 86ed f9be
000000d0: 4c43 18be c554 38bf 288d 02bf def2 19bd
000000e0: b833 5dbf 2068 95bf d01c 82bf 791c 02bf
000000f0: 4b88 d2bd 94d3 bebe aab0 54bf d2a2 213e
00000100: d419 9a3e 5fab 07bd ed37 64bf 9e49 53bf
00000110: c9b3 383d 5549 23bf 4168 37bf 1dd1 88be
00000120: d5c4 973e 8d77 793f eab0 263f acef 32bf
00000130: c6f9 adbf ebd1 b2bd 51d6 6e3f 2be6 ba3f
00000140: 7e47 5a3f a7d3 503f 3967 9e3f c562 3b3f
00000150: c81f 0bbe ce3d 973e 4b94 4ebe 8b9f c13e
00000160: 5301 a63e 8cfb 083e 2159 9abe 6f48 82bf
00000170: e6a8 1ebf f09e 1b3f 36cc 033f 7db4 ebbc
00000180: 07ef 9ebe c2f4 a2be fdc1 4abe 9ca7 623e
00000190: 89e4 aa3d 2f86 e83d 4a94 783e 007d 1d3f
000001a0: 496c 8abe 728f 433f a362 1d3f fc5f ed3e
000001b0: 3aee 2f3d 057c d53e e545 d8be 390b 0dbf
000001c0: b3a4 5bbe 0b9f 30be 1018 7c3e 2d5f e33d
000001d0: ac5d 8e3e 7aff 14be 7d6b a8be 1d18 6f3e
000001e0: 90dd 06bf b34b 91be 20e8 0abf bfb9 1bbd
000001f0: 7f01 093f dd8d 60be e347 ef3d 5cef 8fbe
00000200: 6b7b d83d 79e8 64bd 711d b9be e753 a1be
00000210: 1a94 f43e 5e17 f53e ed4a 0bbf 8772 4e3e
00000220: 5577 b63f 64a9 273f a62e f03e 0795 fe3d
00000230: a676 923e 49bf 133f b204 d3be 37a7 02bf
00000240: 98fa 883d 1f14 e8bd ffc6 58be c9a6 6c3f
00000250: f108 a73f 5cb2 a23e 111b 86bf af6e b6bf
00000260: 7ea8 92bf 84ac 7ebf 6a80 d6be cf2d 81bf
00000270: 45ce 90be 816b 933d 2154 eebe c98b c2bd
00000280: 2257 8cbf 8e69 41be cb74 51bf 1185 9c3d
00000290: 6f14 5cbf 79d2 64bc 04ae 83be 6fb4 efbe
000002a0: 51b9 4f3f bcd4 ae3f ffbe b23e e286 e73e
000002b0: 1583 4b3f 9b5a f33e 7438 c8be 3b11 4d3e
000002c0: e31c 9cbe a202 223f 85ed b63f 6a0f 1c3f
000002d0: 3d3b 063d 10c9 afbe 4e91 293e 6943 ce3e
000002e0: 2953 b4bd 11f0 453e 067f a13e 13c4 253e
000002f0: 5b50 5bbd a522 82be 7c24 9dbe 547f adbe

network.0.bias f4 [64]
0.021116747 -0.3931469 -0.009952202 -0.29767853 0.0004524391 -0.007701406 0.26912472 0.09066425
0.0093574375 0.2155021 -0.47083154 0.0640815 -0.04703343 -0.2237166 -0.00519675 -0.0036131688
-0.35421064 0.10307196 0.10350536 0.022347763 0.037382167 -0.3723675 0.050082948 0.19759302
0.12121582 0.028537229 -0.009515852 -0.012384664 -0.13421209 -0.26442307 0.18985122 -0.2189495
-0.073687345 -0.3729148 0.19881348 0.052250255 -0.560196 -0.2891364 0.18850435 -0.57430285
-0.12368977 -0.3109216 -0.32706875 -0.2599523 -0.50783175 -0.0056489184 -0.37040633 -0.23668179
-0.3059329 -0.009001872 0.041295953 0.0588436 0.16590755 0.10358897 0.14531636 0.18267874
-0.0064772265 0.28848496 -0.1344823 -0.007032123 -0.5230088 -0.21268936 -0.17444274 -0.19305804
00000000: 07fd ac3c 8d4a c9be 900e 23bc 5269 98be
00000010: 5935 ed39 135c fcbb b7ca 893e 2eae b93d
00000020: f04f 193c 95ac 5c3e d510 f1be 293d 833d
00000030: 20a6 40bd f715 65be 8049 aabb eaca 6cbb
00000040: 195b b5be 6417 d33d 9efa d33d a812 b73c
00000050: 0b1e 193d f4a6 bebe c723 4d3d d355 4a3e
00000060: 0040 f83d e8c6 e93c 60e8 1bbc 0ce9 4abc
00000070: e56e 09be 7662 87be 5c68 423e 4c34 60be
00000080: 64e9 96bd b0ee bebe c395 4b3e 5d04 563d
00000090: 0169 0fbf b009 94be 4907 413e 8305 13bf
000000a0: 1051 fdbd 1e31 9fbe 8e75 a7be 7818 85be
000000b0: 4301 02bf 901a b9bb e6a5 bdbe b65c 72be
000000c0: 3da3 9cbe 967c 13bc f225 293d fd05 713d
000000d0: abe3 293e 7426 d43d d0cd 143e 2310 3b3e
000000e0: ea3e d4bb 4db4 933e bab5 09be b96d e6bb
000000f0: e8e3 05bf 3dcb 59be 1ea1 32be 02b1 45be

network.3.weight f4 [32, 64]
-0.412841 -0.047727883 0.3707296 0.080653876 0.0034131315 0.34340882 0.038865644 -0.0778406
0.019113773 -0.08657003 0.03928989 -0.00791941 -0.022966221 -0.10379814 0.40333718 0.39867228
0.11149983 0.022074563 0.01819858 -0.27519205 0.044758823 -0.077001005 -0.05531949 -0.04779677
-0.013101946 -0.29788467 0.13181312 0.3202092 0.0036356002 0.121645726 -0.0085245455 0.06405385
0.08149074 -0.068819985 -0.054599047 0.007257926 -0.08673085 -0.11271159 0.003717857 -0.08779189
0.0022131056 -0.09036584 0.07489875 0.036717534 -0.02375032 0.23564531 0.05146846 0.10051742
-0.009051457 0.19005004 -0.1955531 0.0110851275 -0.04595478 -0.0011212814 -0.110729165 -0.010367056
0.3018707 0.010990939 -0.012845978 0.17282902 0.018036649 -0.053417712 0.046135142 -0.05940768
0.44088 -0.11965823 -0.66559803 0.07630508 -0.09843231 -0.49834168 0.052513644 0.055385955
0.054627147 0.054151367 0.022684753 -0.038690556 -0.06510991 -0.10477366 -0.7500912 -0.6497675
0.08269246 0.08252536 0.010524066 0.33513543 0.04279436 -0.02037844 -0.03059892 0.056809466
0.006852402 0.18447673 -0.2594872 -0.6787045 -0.096175954 0.038547445 0.049004573 0.0955001
-0.078460276 -0.031723917 0.055657618 -0.0036495791 -0.027501687 0.10410592 -0.03599977 -0.094460055
-0.047861636 0.095869124 0.116701365 -0.030245692 0.0066848993 -0.4706945 -0.04112944 0.05334112
0.00012008846 -0.47630173 0.31144813 0.0015513563 -0.01928893 0.058686327 -0.051412445 -0.007904608
-0.523166 0.005718403 -0.011529744 -0.13813695 -0.020819202 0.002701357 0.026883855 -0.05991842
-0.057082977 0.03579469 -0.115784004 0.117259815 -0.0071120197 0.085424185 -0.033212926 0.018091587
-0.12910688 -0.017024968 0.07405971 -0.06367573 0.10868685 0.065741494 -0.09233201 -0.10625229
-0.03809659 -0.082106344 -0.13234176 0.0153446505 -0.1346371 0.03112869 -0.06505555 0.0972283
0.091143124 0.026205715 0.07671087 -0.004492615 -0.123415604 0.08833648 -0.053690188 -0.034261063
0.04445134 0.09315929 0.05803033 0.08613306 0.0847272 -0.089001656 -0.12021872 -0.0733778
-0.05419144 -0.07395716 -0.086918086 -0.080296576 0.100400195 0.040910527 0.021922305 -0.018644333
-0.118311584 0.0128618255 0.018675324 -0.02841318 -0.13203873 -0.029420333 -0.035858598 -0.12271034
-0.056832105 -0.0955154 -0.024180427 -0.07224165 -0.042695954 -0.005264044 0.017470822 -0.11735712
0.40359974 0.038171917 -0.5015233 -0.06351827 -0.10150994 -0.30686525 -0.039047256 0.0011026885
-0.033213247 0.00361704 -0.071576566 -0.11008799 -0.10882981 0.09940295 -0.62084764 -0.5457507
-0.038254246 0.027089674 0.07576748 0.5048547 -0.012030848 -0.11486673 -0.07428645 0.040136687
-0.056487024 0.18674809 -0.10258062 -0.6197423 0.07348065 0.019591419 -0.10045398 -0.024984954
0.052080035 -0.04335913 0.037122406 0.021245902 -0.05344291 -0.028567865 -0.04751845 -0.048878938
0.023335978 -0.10118477 -0.009416595 -0.03785801 -0.07815382 -0.52360946 -0.036253348 0.10750814
-0.072298154 -0.48718777 0.2749787 0.06314002 -0.08230865 -0.041817393 0.07492949 0.048524372
-0.57050735 0.0013668984 0.024532154 -0.20529848 0.035888895 -0.11296311 -0.043510437 -0.117433324
00000000: e55f d3be 507e 43bd 45d0 bd3e dc2d a53d
00000010: d8ae 5f3b 48d3 af3e 9531 1f3d e46a 9fbd
00000020: 7d94 9c3c a14b b1bd 70ee 203d 6ac0 01bc
00000030: a823 bcbc 1f94 d4bd 3682 ce3e c61e cc3e
00000040: 065a e43d b7d5 b43c 3015 953c f9e5 8cbe
00000050: 0755 373d b4b2 9dbd b196 62bd 8cc6 43bd
00000060: 8ba9 56bc 5784 98be 05fa 063e 76f2 a33e
00000070: 4043 6e3b 6521 f93d 89aa 0bbc aa2e 833d
00000080: 9ee4 a63d 7ef1 8cbd 40a3 5fbd e5d3 ed3b
00000090: f29f b1bd 56d5 e6bd 4aa7 733b 3ccc b3bd
000000a0: c009 113b ba11 b9bd 8464 993d 2065 163d
000000b0: 0890 c2bc 014d 713e 98d0 523d 14dc cd3d
000000c0: 904c 14bc 7a9c 423e 123f 48be 659e 353c
000000d0: 143b 3cbd f6f7 92ba f9c5 e2bd 96da 29bc
000000e0: cc8e 9a3e 5713 343c f077 52bc 17fa 303e
000000f0: 98c1 933c 88cc 5abd 34f8 3c3d 7855 73bd
00000100: 06bb e13e 600f f5bd a264 2abf d645 9c3d
00000110: e196 c9bd a426 ffbe 8c18 573d 62dc 623d
00000120: b7c0 5f3d d3cd 5d3d 60d5 b93c fd79 1ebd
00000130: 5858 85bd 9393 d6bd fa05 40bf 2a57 26bf
00000140: aa5a a93d 0e03 a93d 226d 2c3c df96 ab3e
00000150: 2449 2f3d b0f0 a6bc 96aa fabc 0bb1 683d
00000160: 1d8a e03b 78e7 3c3e 82db 84be 94bf 2dbf
00000170: e6f7 c4bd ede3 1d3d 05b9 483d 8e95 c33d
00000180: c8af a0bd f0f0 01bd 3ef9 633d c72d 6fbb
00000190: 384b e1bc 7c35 d53d 7f74 13bd 4674 c1bd
000001a0: 900a 44bd 0857 c43d 2001 ef3d d0c5 f7bc
000001b0: 000d db3b dffe f0be 5877 28bd 387c 5a3d
000001c0: 00d8 fb38 d2dd f3be 2176 9f3e e156 cb3a
000001d0: d103 9ebc 1361 703d db95 52bd 5482 01bc
000001e0: 35ee 05bf 7161 bb3b 40e7 3cbc c673 0dbe
000001f0: 088d aabc 4009 313b 883b dc3c 046d 75bd
00000200: d7cf 69bd 749d 123d 2a20 edbd ea25 f03d
00000210: f20b e9bb e0f2 ae3d 470a 08bd cf34 943c
00000220: 9834 04be f277 8bbc 9eac 973d 6c68 82bd
00000230: 3697 de3d 7aa3 863d 9118 bdbd cd9a d9bd
00000240: 2c0b 1cbd 5f27 a8bd 9984 07be 2168 7b3c
00000250: 4fde 09be 9801 ff3c d83b 85bd a21f c73d
00000260: 3fa9 ba3d 5ead d63c 971a 9d3d c936 93bb
00000270: 52c1 fcbd c2e9 b43d 3eea 5bbd 5455 0cbd
00000280: 9c12 363d 4cca be3d 36b1 6d3d 8866 b03d
00000290: 7485 ad3d 8046 b6bd 3b35 f6bd 1a47 96bd
000002a0: d8f7 5dbd da76 97bd 1c02 b2bd 8872 a4bd
000002b0: 9e9e cd3d cc91 273d 6896 b33c 00bc 98bc
000002c0: 584d f2bd 68ba 523c fefc 983c c2c2 e8bc
000002d0: 2935 07be e902 f1bc 77e0 12bd 8f4f fbbd
000002e0: c8c8 68bd 949d c3bd 0816 c6bc 6ef3 93bd
000002f0: f4e1 2ebd 007e acbb f81e 8f3c ee58 f0bd
00000300: a0a4 ce3e 285a 1c3d d563 00bf de15 82bd
00000310: 72e4 cfbd 711d 9dbe 04f0 1fbd 1688 903a
00000320: 9d0a 08bd dd0b 6d3b bc96 92bd d075 e1bd
00000330: 2ae2 debd c693 cb3d dfef 1ebf 51b6 0bbf
00000340: 7cb0 1cbd 2aeb dd3c fb2b 9b3d 283e 013f
00000350: 091d 45bc 403f ebbd 7f23 98bd 5e66 243d
00000360: f05e 67bd e43a 3f3e ca15 d2bd 6ea7 1ebf
00000370: 067d 963d 2f7e a03c d1ba cdbd 3fad ccbc
00000380: e051 553d 5899 31bd aa0d 183d e30b ae3c
00000390: f4e6 5abd 2807 eabc b5a2 42bd 4835 48bd
000003a0: 182b bf3c f639 cfbd 1048 1abc 0011 1bbd
000003b0: 1c0f a0bd 450b 06bf 647e 14bd 3a2d dc3d
000003c0: 0e11 94bd ad70 f9be 02ca 8c3e 8e4f 813d
000003d0: 7091 a8bd b748 2bbd a274 993d 7ec1 463d
000003e0: c50c 12bf 8029 b33a a8f7 c83c c439 52be
000003f0: 3c00 133d 3459 e7bd 0038 32bd e280 f0bd

network.3.bias f4 [32]
0.030444 -0.00019940172 -0.089672975 0.08008378 0.04949349 -0.108111896 -0.105353184 0.08378801
-0.0024144293 -0.05877571 0.0017227905 -0.03280151 0.08881824 -0.089237675 0.04106505 0.018627124
0.0112899365 0.012572455 0.05687993 -0.03451166 -0.022663778 0.061851494 0.09381731 0.0073693907
0.07403165 0.062790886 0.00587991 -0.017011551 -0.0336717 -0.13255367 0.15829732 0.012016242
00000000: b265 f93c 7e16 51b9 77a6 b7bd f702 a43d
00000010: b0b9 4a3d c569 ddbd 69c3 d7bd 0c99 ab3d
00000020: 673b 1ebb cdbe 70bd 42cf e13a e05a 06bd
00000030: 56e6 b53d 3ec2 b6bd d333 283d e997 983c
00000040: 6df9 383c b3fc 4d3c eefa 683d 195c 0dbd
00000050: 63a9 b9bc fe57 7d3d 4a23 c03d ee7a f13b
00000060: e89d 973d 8298 803d 43ac c03b cf5b 8bbc
00000070: 56eb 09bd 26bc 07be b118 223e c6df 443c

network.6.weight f4 [16, 32]
-0.21080713 0.17321499 -0.1344026 0.3775632 0.24449079 -0.33883983 -0.45546246 0.43204406
0.29240587 -0.44446266 0.45066512 0.29762924 0.27292007 -0.0049077393 -0.092494786 -0.20204017
-0.00974085 -0.14607023 0.59489495 -0.15091954 0.40574622 -0.24240142 0.40538928 -0.14674947
0.28520492 -0.049388316 -0.22875494 -0.19241165 -0.19118416 -0.0743304 0.31168807 -0.24845408
0.17821869 0.021081477 0.0013831763 0.005127264 0.006014129 0.20149161 0.11844475 0.039405003
-0.11934456 -0.0341899 -0.22951618 -0.058355127 -0.12475416 0.06550667 0.086033344 0.25595614
0.08453068 0.008688863 -0.23806301 0.20342813 0.06394941 0.09154155 -0.12892736 0.24973442
-0.13194281 0.26930052 0.14249167 0.19094062 0.19327389 -0.102212496 -2.5317016e-05 0.12455739
-0.23536278 0.3419982 0.1304771 0.36830568 0.10415912 -0.2065971 -0.2897629 0.42758268
0.37776873 -0.32951263 0.31227532 0.13568477 0.19368255 0.10292843 0.047850184 -0.18460368
-0.028117128 -0.100625515 0.46090248 -0.26267323 0.30450842 -0.077068895 0.21496633 -0.15292813
0.37659013 -0.05405037 -0.047920007 -0.17733824 -0.13998288 -0.00995157 0.099576205 -0.04141307
-0.08323361 -0.074759744 -0.09203095 0.051795512 -0.07343468 -0.18802017 0.19087017 0.097076304
-0.1555883 0.10183045 -0.01645528 -0.18746983 -0.03130002 0.004141181 -0.17744765 -0.0587811
-0.18185554 0.1834671 0.10502526 -0.06125816 0.035062015 -0.18550487 0.0024336376 -0.077801004
0.06999904 0.36198217 -0.14358497 0.07052495 -0.025797104 -0.04194372 -0.105761945 -0.1599844
0.09528588 -0.15371211 -0.16331786 -0.06341229 -0.17753577 0.10248731 -0.10641852 -0.15463786
-0.21432011 -0.009563245 -0.1943535 0.004025046 -0.2035446 0.050206214 0.047662035 -0.03916888
0.2171091 0.25004634 -0.15790951 0.12525105 -0.19364019 0.23293503 -0.049245343 -0.0069859363
-0.028272245 0.13650283 0.038123816 0.033045556 -0.08809097 -0.14239438 -0.008701012 0.19938445
0.027796898 -0.11108894 -0.08295359 -0.1513593 -0.28067422 0.022164905 -0.018872434 -0.26739854
-0.027783452 0.21638635 -0.13049644 -0.04217894 -0.19652727 -0.026976261 -0.07008593 0.22349177
0.12373264 0.15876731 -0.25942323 0.00067615375 -0.22580445 0.18677875 -0.12758195 0.06845055
-0.26271105 0.122006446 0.110109076 0.035257064 0.18910871 -0.026300482 0.03697804 -0.04367686
-0.053626683 0.23930134 -0.08874522 0.08437611 0.35216013 -0.25713694 -0.22590163 0.34324038
0.3999239 -0.01053893 0.41758627 0.33564532 0.38755366 0.006200055 -0.077735186 0.008359558
-0.02047465 -0.22270486 0.2856467 -0.25584346 0.21548173 -0.25369078 0.40167713 -0.16839243
0.30669925 -0.036000967 -0.17518756 -0.2084882 -0.09423944 -0.079817146 0.28920478 -0.08050789
0.09432511 -0.15726557 -0.054956112 -0.17270443 -0.20843966 -0.025131436 -0.00082379486 -0.21022767
-0.030079635 -0.044028606 -0.14045784 -0.08348138 0.040350467 0.13295618 -0.10929248 0.21051867
0.22510882 0.21096821 -0.056692123 0.10612849 -0.15875645 0.16656823 -0.19938108 0.013756509
-0.12903406 0.22423583 -0.08754166 0.086075746 0.045631543 -0.15540369 0.07577215 0.16795889
00000000: d3dd 57be 455f 313e d6a0 09be f74f c13e
00000010: cb5b 7a3e 6a7c adbe 6032 e9be e134 dd3e
00000020: 39b6 953e 9c90 e3be 94bd e63e dc62 983e
00000030: 2ebc 8b3e 1ad1 a0bb e86d bdbd 9ee3 4ebe
00000040: 1698 1fbc 6f93 15be 094b 183f a78a 1abe
00000050: f8bd cf3e 1438 78be 2f8f cf3e 7e45 16be
00000060: 6106 923e 674b 4abd bc3e 6abe 8f07 45be
00000070: c8c5 43be 893a 98bd 9495 9f3e bf6a 7ebe
00000080: f67e 363e 10b3 ac3c b24b b53a 9c02 a83b
00000090: 2c12 c53b d153 4e3e 2993 f23d 2467 213d
000000a0: ec6a f4bd b50a 0cbd 4a06 6bbe c905 6fbd
000000b0: 1c7f ffbd 5c28 863d 4032 b03d af0c 833e
000000c0: 6c1e ad3d bc5b 0e3c cac6 73be 774f 503e
000000d0: e9f7 823d 237a bb3d 8905 04be 61ba 7f3e
000000e0: 041c 07be c2e1 893e 56e9 113e f085 433e
000000f0: 97e9 453e c954 d1bd e15f d4b7 f217 ff3d
00000100: f102 71be 631a af3e ca9b 053e 9092 bc3e
00000110: 6051 d53d 318e 53be ce5b 94be 1eec da3e
00000120: e76a c13e e1b5 a8be 8de2 9f3e f3f0 0a3e
00000130: b854 463e 24cc d23d 8efe 433d bf08 3dbe
00000140: e455 e6bc c014 cebd 69fb eb3e 1b7d 86be
00000150: 87e8 9b3e 4cd6 9dbd 2220 5c3e 3199 1cbe
00000160: 6cd0 c03e ec63 5dbd c547 44bd 2898 35be
00000170: ac57 0fbe e90b 23bc 9cee cb3d c0a0 29bd
00000180: 6276 aabd a31b 99bd b97a bcbd 8827 543d
00000190: ec64 96bd 5c88 40be 7873 433e f1cf c63d
000001a0: 8a52 1fbe 7c8c d03d 39cd 86bc 17f8 3fbe
000001b0: 7334 00bd beb2 873b d6b4 35be 73c4 70bd
000001c0: 5738 3abe cdde 3b3e 7c17 d73d d6e9 7abd
000001d0: 309d 0f3d fdf4 3dbe aa7d 1f3b 2256 9fbd
000001e0: a85b 8f3d ba55 b93e f007 13be 636f 903d
000001f0: 7354 d3bc 2ecd 2bbd b899 d8bd f3d2 23be
00000200: 3e25 c33d b566 1dbe cc3c 27be 4dde 81bd
00000210: f0cb 35be dee4 d13d f4f1 d9bd 6359 1ebe
00000220: bb76 5bbe 28af 1cbc 9b04 47be 88e4 833b
00000230: ff6d 50be 08a5 4d3d 4439 433d 8c6f 20bd
00000240: d951 5e3e 1306 803e 08b3 21be d041 003e
00000250: 9d49 46be 8586 6e3e 7cb5 49bd 48ea e4bb
00000260: 329b e7bc 66c7 0b3e b827 1c3d c75a 073d
00000270: 0a69 b4bd d5cf 11be b08e 0ebc 702b 4c3e
00000280: 52b6 e33c 9982 e3bd 92e3 a9bd effd 1abe
00000290: 88b4 8fbe 2d93 b53c 5d9a 9abc 76e8 88be
000002a0: 1f9a e3bc 6294 5d3e dca0 05be d3c3 2cbd
000002b0: 723e 49be 52fd dcbc 3689 8fbd 07db 643e
000002c0: 8a67 fd3d e693 223e 1fd3 84be e93f 313a
000002d0: 4839 67be ee42 3f3e d8a4 02be cd2f 8c3d
000002e0: 1082 86be 84de f93d de80 e13d b669 103d
000002f0: b7a5 413e 1c74 d7bc 4976 173d 82e6 32bd
00000300: a7a7 5bbd 690b 753e 0ec0 b5bd 62cd ac3d
00000310: 554e b43e 74a7 83be c252 67be 34bd af3e
00000320: d3c2 cc3e 7aab 2cbc decd d53e b4d9 ab3e
00000330: 6f6d c63e d529 cb3b a033 9fbd 87f6 083c
00000340: 74ba a7bc be0c 64be 4940 923e eafd 82be
00000350: 3ea7 5c3e c2e3 81be a0a8 cd3e 116f 2cbe
00000360: af07 9d3e c075 13bd 5e64 33be ee7d 55be
00000370: 9c00 c1bd 2c77 a3bd a612 943e 52e1 a4bd
00000380: 862d c13d 3a0a 21be a919 61bd 6ed9 30be
00000390: 3571 55be 71e0 cdbc f0f3 57ba ec45 57be
000003a0: 9169 f6bc 5757 34bd 2ed4 0fbe 49f8 aabd
000003b0: 8846 253d aa25 083e bcd4 dfbd 3592 573e
000003c0: ed82 663e 0d08 583e 0036 68bd e559 d93d
000003d0: 0d91 22be dd90 2a3e 8e2a 4cbe fb62 613c
000003e0: 8121 04be 149e 653e 0b49 b3bd 7b48 b03d
000003f0: 24e8 3a3d 2522 1fbe 6e2e 9b3d 6afd 2b3e

network.6.bias f4 [16]
0.14710185 0.069592915 0.24842289 -0.011485882 0.1383428 0.17737226 0.29330465 0.1145619
0.2913203 0.14354911 0.2695207 0.0411902 0.06838864 0.13586693 0.21415934 0.17599538
00000000: dea1 163e bb86 8e3d 9262 7e3e 482f 3cbc
00000010: bca9 0d3e 13a1 353e 072c 963e 6e9f ea3d
00000020: ef27 953e 8afe 123e 9efe 893e 0eb7 283d
00000030: 580f 8c3d b320 0b3e 964c 5b3e 2238 343e

network.8.weight f4 [1, 16]
-0.4690136 0.3756548 -0.48327053 0.15937759 0.20787255 0.16299228 -0.48631796 0.36999628
-0.6151091 -0.59299535 -0.4177671 0.33781084 0.3200427 0.12388756 -0.5872328 0.2743443
00000000: 8d22 f0be d355 c03e 3c6f f7be e133 233e
00000010: 8bdc 543e 73e7 263e abfe f8be 2770 bd3e
00000020: ca77 1dbf 8bce 17bf 92e5 d5be 8bf5 ac3e
00000030: a3dc a33e c3b8 fd3d e454 16bf db76 8c3e
