第六次作业10245501405杨云天/model/Immunology.pth (torch, 15351 bytes, 7 tensors)

network.0.weight f4 [64, 3]
000000 7e 83 21 3e b6 06 ac 3e 2c 30 b2 3d 54 13 ae be
       0.15772817 0.3359887 0.08700594 -0.3399912
000010 d2 19 9d bd 2d 12 a3 bd 45 f0 24 bf 03 6a ce be
       -0.076709405 -0.07962451 -0.6442912 -0.40315256
000020 a3 f8 59 bf f7 06 1b 3f a5 71 92 3f eb ed 31 3f
       -0.85145015 0.605575 1.1440932 0.6950366
000030 2c 58 b0 be da 5a a5 bf 11 21 1c bf 26 47 ba bd
       -0.3444227 -1.2918351 -0.60987955 -0.09095602
000040 dd bd b8 3d 40 f3 84 be d3 83 97 3e 65 48 e7 3e
       0.090205885 -0.25966835 0.2959276 0.4517242
000050 e0 6d 37 3e 60 5e 11 be 64 bf f5 3d be 4a 70 3e
       0.17913008 -0.14196157 0.119993955 0.23466012
000060 f2 5a 37 3f 6f 7d f0 3e 56 07 c7 3e 8f ab b5 be
       0.71623147 0.46970698 0.38872784 -0.3548245
000070 6c 75 9e be 3c c0 b9 be 4b 45 c7 3e b9 a2 bf 3e
       -0.3094896 -0.36279476 0.38920054 0.37428835
000080 7d 0c 0a 3f c8 8d 37 be ff 46 d6 be 27 49 57 3e
       0.53925306 -0.17925179 -0.4185104 0.21023999
000090 b3 58 1e 3f d0 75 bc 3f 4b 70 32 3f df ee fe 3e
       0.61854094 1.4723454 0.69702595 0.4979162
0000a0 e0 58 26 3e d4 90 f8 bc 4b b1 0e 3f 2a dc ab be
       0.1624484 -0.030342497 0.5573928 -0.3356641
0000b0 f0 72 cb be 56 46 4e 3e bf a1 90 3f 7f aa 31 3f
       -0.39736128 0.20144019 1.1299361 0.6940078
0000c0 8b de 0d 3e 77 f0 10 bf da 3d c2 3e 76 cc 93 be
       0.13854425 -0.5661692 0.37937814 -0.2886693
0000d0 e4 3a 49 be 94 d3 e2 39 48 c5 19 bf 73 66 91 bf
       -0.19651371 0.00043263717 -0.6006665 -1.135939
0000e0 51 ab 3a be 3e 13 58 3e 32 e7 f4 be 6e eb 21 3e
       -0.18229415 0.2110109 -0.47832638 0.15812466
0000f0 3d 75 13 bf 21 0a 09 bf 6f d1 fe 3d ea a5 00 bf
       -0.57600766 -0.5353108 0.1244229 -0.50253165
000100 d5 e3 ab 3e 77 8e d2 3d 27 c3 31 be eb cd 63 3f
       0.3357226 0.10281079 -0.17359601 0.8898608
000110 22 05 0c 3f 0d af 85 3e 6c 23 47 bf 34 43 4f be
       0.5469533 0.26110116 -0.77788424 -0.2024048
000120 95 bf a6 3e 1b e7 cf 3d c7 5b e0 bd 10 a4 99 be
       0.3256804 0.10151502 -0.10955005 -0.30007982
000130 8a 6d 88 bf 74 0c ae be 8a 03 aa be 58 46 3a bf
       -1.0658429 -0.33993876 -0.33205825 -0.72763586
000140 08 7f e2 be 8e 1e 3c be 64 bc 14 bf 1a f4 f2 be
       -0.44237542 -0.1837103 -0.5809996 -0.4745186
000150 c5 ce 47 bf ad 0c 19 bf 30 21 98 bd b5 77 5a 3c
       -0.7804988 -0.59784967 -0.07428205 0.013334204
000160 d2 5a c0 3f c5 ad a2 3d 49 43 7f 3e 53 42 c5 3f
       1.5027716 0.079433 0.24928011 1.5410866
000170 76 bd 93 3e f1 c3 01 3e fb 61 aa be 12 72 b9 3c
       0.28855485 0.12672402 -0.33277878 0.0226374
000180 98 87 ed 3e 8f 36 83 3e 12 9c 81 bd 75 5d 62 be
       0.46392512 0.25627562 -0.06328596 -0.22105964
000190 8d f5 ad 3d 45 b7 94 bd 20 cc dd bd 62 c3 fe be
       0.08494101 -0.072615184 -0.108299494 -0.4975844
0001a0 04 09 81 bf 7f f0 cc be 0e 69 ce 3e 91 57 57 be
       -1.0080876 -0.40027234 0.40314525 -0.21029498
0001b0 f2 db ff be 1f 8c 27 bf c6 ff 0b bf 12 85 27 3f
       -0.49972492 -0.6544818 -0.54687154 0.65437424
0001c0 36 d4 96 be 9a 42 31 3f 7c 57 ba 3e bd e2 af 3f
       -0.2945878 0.6924225 0.3639487 1.374107
0001d0 b7 3e 8f bc 51 82 12 3e 14 96 03 3c ea 2d d4 be
       -0.01748596 0.14307524 0.008031387 -0.4144128
0001e0 aa ce 0f bd b0 bb 0f bf a9 26 11 be b7 39 89 3e
       -0.0351092 -0.56145763 -0.14174904 0.26801845
0001f0 d7 00 cc be 77 c9 b8 be ac 47 c6 3e 36 83 40 3f
       -0.3984439 -0.36091205 0.38726556 0.7520021
000200 b9 e4 48 3f 2a 6a 58 bf 75 b6 2a bd e5 25 8d 3d
       0.78474003 -0.84536994 -0.04167791 0.068919934
000210 d7 9b 0b 3f c4 0b 93 3f 04 15 c8 3e cc a7 0d bf
       0.5453467 1.1487966 0.39078534 -0.5533416
000220 46 ff 77 3e 47 02 83 bc a5 6a 94 be 49 80 83 3e
       0.24218473 -0.015992297 -0.28987613 0.2568381
000230 f8 0a ba 3e 5f 92 de 3e 60 e3 37 3f 3a e0 f7 3e
       0.36336493 0.43471047 0.7183132 0.4841326
000240 4f 54 0a bf e7 d7 2d 3e f9 41 91 bd ef c3 0d 3f
       -0.54034895 0.16976891 -0.070926614 0.55377096
000250 c6 d0 37 3f 7d ea e2 3e 08 76 3a 3e b6 c7 a9 3f
       0.7180294 0.44319525 0.18209088 1.3264072
000260 79 05 e3 3c f8 33 c4 3e c5 29 b5 3f 21 36 3c 3c
       0.02771257 0.383209 1.4153372 0.011487515
000270 0d e2 a3 3e e2 9d 93 bb 8f 14 b2 be 4b 3a 63 be
       0.320084 -0.004504905 -0.3478131 -0.22190206
000280 0e d7 0c be f5 9b 49 be 8a a5 57 bf d4 e1 3e bd
       -0.13753912 -0.19688399 -0.8423697 -0.046602085
000290 38 d2 08 bf 1e 20 10 3f 2d 1e ad 3f 47 1a 23 3f
       -0.5344577 0.56299007 1.3524834 0.6371197
0002a0 65 02 11 be 31 d9 31 3e b6 6f d9 bd a5 92 62 bf
       -0.1416107 0.17368008 -0.1061701 -0.8850501
0002b0 af a4 79 bf 31 51 d6 bd 9c ef 18 3e 09 6a 00 3f
       -0.9751691 -0.10464705 0.14935154 0.50161797
0002c0 8a f6 90 be da ee 1a 3e 69 ef 9c 3f a7 ae 20 3f
       -0.28313094 0.15130177 1.2260562 0.627665
0002d0 a6 37 27 3f aa 9a 95 3f 9a c6 3b 3f 38 35 aa 3e
       0.6531929 1.1687825 0.73349917 0.33243728
0002e0 30 cb c0 3d 0e fb 17 bf f9 e4 2b 3f 78 36 99 3f
       0.09413755 -0.59367454 0.6714626 1.1969748
0002f0 11 8c f9 3e 2e 9c b0 3d 2b 50 b0 3f b9 3f 19 3f
       0.48739675 0.08623539 1.3774465 0.5986286

network.0.bias f4 [64]
000000 1c e3 45 3e a7 20 93 be 20 71 c3 3d 21 8e 74 bc
       0.19324917 -0.2873585 0.09543061 -0.014926464
000010 46 1b ec 3c 5b 87 ff be 53 45 c2 be 46 66 a1 3d
       0.028821599 -0.49907956 -0.37943515 0.07880835
000020 a3 c3 19 bd 02 c4 48 be a4 9f 55 3e 8c f0 25 be
       -0.03754009 -0.19606021 0.2086168 -0.16205043
000030 e9 18 9c bc a4 84 ef bd b6 71 11 bf 1a a6 c0 bc
       -0.019054847 -0.11695221 -0.56814134 -0.023516703
000040 25 a8 d7 bd e7 0a 01 bf 1f 8e f4 3c 68 e3 2f 3e
       -0.10530118 -0.5040726 0.029852925 0.17176592
000050 e1 b7 c1 be 1f e3 09 be 79 7f 7b 39 34 af 68 3e
       -0.378356 -0.13465546 0.00023984713 0.22723085
000060 af b3 13 bf 3e 53 86 3d 35 e0 60 3e 95 b3 22 3e
       -0.5769605 0.06558846 0.21960528 0.15888818
000070 39 a6 8f 3d fa 02 97 bb 7c ed 23 bc 00 3d 00 be
       0.07014126 -0.004608509 -0.010005351 -0.1252327
000080 1e 06 81 3e b1 2b 71 be 1d 63 97 3d 67 62 33 be
       0.2519998 -0.23551823 0.07391951 -0.17518006
000090 8e d5 25 3e b3 03 88 3d e6 e4 84 bb ae bf fe bd
       0.16194746 0.066413306 -0.004055607 -0.12438904
0000a0 b9 96 ad 3e a5 53 f4 be 51 5f 05 bd dd bf 4b 3e
       0.33904055 -0.47720066 -0.032561604 0.19897409
0000b0 4e a3 5f bc 66 41 ce be 7f b7 e3 be 13 15 34 3e
       -0.013649775 -0.4028427 -0.44475934 0.17586164
0000c0 f9 09 93 3e a2 6d 8a bc b3 d9 b6 bb a4 8c c1 bb
       0.28718546 -0.01689798 -0.005580151 -0.0059066582
0000d0 f7 88 05 be e6 4c 1b be a0 4a ae 3e 21 a0 a6 bc
       -0.13040529 -0.15166053 0.3404131 -0.020340027
0000e0 40 77 81 be 37 0c a3 3d 20 f8 cf be 36 74 db bb
       -0.25286293 0.07961314 -0.40618992 -0.006697203
0000f0 09 b2 db bc 9a 64 17 3e f5 34 51 bd ca 72 1b bc
       -0.026818292 0.1478447 -0.051075894 -0.009487817

network.3.weight f4 [32, 64]
000000 1c eb 9b bd cc 19 b1 3d 52 2b e2 bd 48 24 59 3e
       -0.07613203 0.086474985 -0.11043419 0.21205246
000010 87 1e 5e be f0 d5 31 bc 35 0e 14 3e e4 1b fe 3b
       -0.21691333 -0.010854229 0.14458545 0.0077547897
000020 49 9e b8 3e 98 ba dc bd 71 2b 47 3d 14 d8 85 3d
       0.36058262 -0.107777774 0.048625413 0.06535354
000030 c4 16 dc 3d 8a b2 30 3d e0 8d 43 bc 4e 03 82 3e
       0.1074653 0.043139018 -0.011935681 0.25393146
000040 14 89 81 3d c0 c0 8e 3c 1c 23 d0 bd 30 5f 83 3d
       0.06324974 0.017425895 -0.101629466 0.0641464
000050 08 e3 ad 3d 52 0d 8c bd 7e ea 82 3e c7 cf 96 3c
       0.084905684 -0.06838478 0.25569528 0.018409623
000060 34 79 2f bd 23 f0 10 be 21 44 8a 3d a0 a9 9c bd
       -0.042840198 -0.14154105 0.06751276 -0.07649541
000070 59 72 8b bd 22 3f da 3e 9d d4 4d 3e 70 10 52 bd
       -0.068089195 0.42626292 0.20100637 -0.051285207
000080 64 01 cc 3d 50 ca 06 3c 88 37 0f be 4e f1 ee bd
       0.09961203 0.008226946 -0.13986027 -0.11667119
000090 84 43 8c bd fc cc 8b bd 42 21 6e 3e 7e 45 fd 3d
       -0.06848815 -0.06826207 0.23254874 0.1236677
0000a0 6f 67 8c bd 70 96 12 3c ec 5d 9b 3e 51 98 98 bd
       -0.06855666 0.008947 0.30345094 -0.07450927
0000b0 08 9e e0 3d 20 ea 82 3c c4 6e 8c 3d 52 e3 8e 3c
       0.10967642 0.01598078 0.06857064 0.01744238
0000c0 52 b4 8d 3d c6 bd 7a 3e 29 77 b1 3e 18 f2 ec 3e
       0.06919159 0.24486455 0.34661224 0.46278453
0000d0 20 3f db bd d8 42 b6 3c 5f 36 11 bd 69 cd 34 3e
       -0.107053995 0.02224867 -0.035452243 0.17656483
0000e0 58 79 88 3c b6 53 d4 bd 84 5e bc bc 42 65 a0 3e
       0.016659424 -0.10367529 -0.022994287 0.31327254
0000f0 9c a3 36 3e 1e fa a4 3d 1e f9 92 3e 52 b7 1d 3e
       0.1783585 0.080555186 0.28705686 0.15401962
000100 73 90 59 3d 20 41 62 bd 42 bf d6 3c 69 9c e8 3d
       0.053116273 -0.05523789 0.026214246 0.11357958
000110 6a bf 80 3e 2e 98 86 bd 59 73 2e bd 30 0f 46 3e
       0.25146037 -0.06571995 -0.042590473 0.19341731
000120 54 83 41 3e 28 9e c1 bd 54 a1 95 3d 9c 0a ea 3d
       0.18897754 -0.09453994 0.073061615 0.11427805
000130 06 ed c4 bc 3d 15 77 bd bc 6d f1 bd b2 00 31 bc
       -0.024038803 -0.06032299 -0.11788508 -0.010803388
000140 b4 9b a5 bd 5e 2d 85 3d 0d c6 46 3e cd 4f 20 3e
       -0.08086339 0.06502794 0.19411488 0.15655442
000150 00 46 32 3a ae af f9 bd 09 2c 81 3e 74 df 17 bd
       0.0006800592 -0.12191711 0.2522891 -0.037078336
000160 56 59 83 3d 31 73 31 3e fc cc 1c 3d 9f 90 35 3e
       0.06413524 0.17329098 0.038281426 0.1773095
000170 45 26 bf 3c 59 d3 9e 3c 6b b8 d7 bd 98 cb d6 bc
       0.023333678 0.019387888 -0.10533222 -0.026220128
000180 1c 53 b1 3d 40 bb 74 bc 63 e8 03 3e 50 ac 20 3c
       0.0865843 -0.014937222 0.12881617 0.0098067075
000190 c1 78 04 3c 13 5b d3 3d 9c 89 f1 3d ae 2d ce bd
       0.008085431 0.103201054 0.11793825 -0.100673065
0001a0 c6 68 54 3d 74 88 08 bd 4f 99 92 bc 69 84 ad 3d
       0.051857732 -0.033333257 -0.017895369 0.08472521
0001b0 15 70 d7 3d 40 3d 2a bb 48 5e da bc b8 05 12 3c
       0.10519425 -0.002597645 -0.026656285 0.008912496
0001c0 00 55 b9 3c 78 27 1e 3e 3e bb 8c bd ff 28 1e be
       0.022623539 0.15444744 -0.06871651 -0.15445326
0001d0 90 e3 ca bc a8 81 4b 3d 7e 9f 31 ba 32 d7 39 3d
       -0.024766713 0.049684197 -0.00067757803 0.045371242
0001e0 70 8a 63 bd 9f 79 0c 3d 7a d7 5a 3c 9d c8 30 3d
       -0.055551946 0.034295674 0.013357038 0.04316007
0001f0 2c e4 79 3d 14 52 19 3e af 76 1c be 31 a6 da 3d
       0.061008617 0.14972717 -0.15279649 0.1067623
000200 3d eb 95 bc 6e 1f c6 bd 2f c6 c2 bc af c2 77 be
       -0.018300647 -0.096739635 -0.023776142 -0.2419536
000210 3c 33 16 3f 38 22 1f 3d 15 b2 32 bd eb a3 23 bc
       0.5867193 0.038850993 -0.043626864 -0.009987812
000220 f6 9f 94 be a0 65 b7 3c c2 64 ed 3d 7c 22 ab 3d
       -0.2902829 0.022387326 0.11591484 0.08356187
000230 3e b6 6f be 18 74 d5 3c 28 54 e4 bc b2 13 ab be
       -0.23409364 0.026056334 -0.02787216 -0.33413464
000240 c8 4d b0 bd a0 2d df bc c7 05 ef 3e eb 99 62 bd
       -0.086085856 -0.027243435 0.46684095 -0.05532257
000250 ec fa fa bd d0 1e ed 3d 9c 83 96 bd 24 2a 7a bc
       -0.12254891 0.11578143 -0.07349321 -0.015268836
000260 90 e8 a9 bc 0a dd 1b 3d 35 f4 9e bd 58 f9 3f 3d
       -0.020740777 0.038052596 -0.077614225 0.046868652
000270 30 e6 08 3d 50 57 3c bf c9 d3 19 bf 1c 5e aa bd
       0.03342265 -0.7357073 -0.60088784 -0.08318731
000280 7d 33 b7 bd fe 1d b6 3d da 2c 99 3d fa 17 94 3d
       -0.089453675 0.08892439 0.07479258 0.07231136
000290 79 b6 aa bc c7 ed 8f 3d c6 d4 07 bf ce cd a5 3d
       -0.020838963 0.07027774 -0.5305904 0.08095895
0002a0 16 8d 16 bd e8 ef b0 bd 8b ff b2 be b9 56 7d bd
       -0.036755644 -0.086395085 -0.3496059 -0.061850283
0002b0 48 66 2d be 50 d4 a1 3d 9a de d5 3d 01 2f 8a bd
       -0.16933548 0.079018235 0.104428485 -0.067472465
0002c0 30 05 58 bc b0 31 e2 bd 17 3c 2e bf a3 5c e2 be
       -0.013184831 -0.110446334 -0.6806044 -0.442113
0002d0 e8 b1 b9 3c 4c b0 1b 3d 25 36 40 3d eb 65 c9 be
       0.02266784 0.038009927 0.046926636 -0.3933557
0002e0 a0 e5 a3 3b c4 70 08 3e 80 5e ab bc 29 ca 0e be
       0.0050017387 0.13324267 -0.020919085 -0.13944305
0002f0 d7 c9 9e be df e7 32 3d 8c d7 c8 be bf 81 1f be
       -0.31013367 0.04367816 -0.3922695 -0.15576838
000300 35 3f 85 bd 2e a4 f2 bd fc 66 0b 3d 95 4c 8d be
       -0.065061964 -0.11847721 0.03403376 -0.2759749
000310 aa 10 ba 3e 78 4d 67 3d f4 f7 81 bd 65 80 49 bd
       0.3634084 0.056470364 -0.063461214 -0.049194712
000320 ca 17 da be b8 22 c7 bc 13 d0 33 3c f0 4f 2e bc
       -0.42596275 -0.024308547 0.010974902 -0.010639176
000330 8b 2e e1 be c0 c2 9e bd 80 ac d0 3c 49 4a 45 be
       -0.43980822 -0.07751989 0.02547288 -0.19266619
000340 10 3d 00 bc ec de 3c 3d 2a 10 91 3e 10 de 45 bd
       -0.007827058 0.046111032 0.28332645 -0.04830748
000350 08 14 bf bd 2e fd 9c bd a6 15 e1 bd 6f 68 b8 bc
       -0.093299925 -0.07665478 -0.10990457 -0.022510735
000360 08 70 f7 bd 11 85 6a 3c 97 f6 19 3d 3e 6b 74 3d
       -0.12081915 0.014313952 0.037588682 0.059672587
000370 63 a1 1d bd 30 58 2f bf 63 2c 1c bf c0 eb 0e 3b
       -0.03848399 -0.6849394 -0.6100523 0.0021807998
000380 1f 56 1b 3d 10 e6 1e 3d 4d f2 e6 3d e6 9f d9 bd
       0.03792393 0.038793623 0.11276684 -0.10626201
000390 ae 40 a4 bd 2d 90 ac bd c3 32 e5 be f4 ac 06 3d
       -0.08020149 -0.08425937 -0.4476529 0.032879785
0003a0 85 9b 56 bd 50 74 03 bc 25 0e ab be 3c 49 5e 3c
       -0.05239441 -0.0080233365 -0.3340923 0.013567265
0003b0 e0 63 70 be a0 c8 b2 bb cc 6b 67 3d 6a ad ba bd
       -0.234756 -0.0054560453 0.056499287 -0.09115107
0003c0 0b e5 5b bd 8e 38 61 be 73 18 16 bf 23 67 0c bf
       -0.05368523 -0.2199423 -0.58631057 -0.54844874
0003d0 b4 0d d1 3d 18 fd 3c bd 24 43 63 bd 81 77 09 bf
       0.10207692 -0.046139807 -0.055483952 -0.53697973
0003e0 e0 42 1b bc 91 0e a9 bd 7c 35 b7 3d b0 cd 7c be
       -0.009476393 -0.082547314 0.08945748 -0.24687839
0003f0 d1 df af be 7e 5e c3 bc 1d 0a 61 be 2b d5 8e be
       -0.34350446 -0.023848768 -0.21976514 -0.2789701

network.3.bias f4 [32]
000000 61 1e 9b bd 41 69 74 3d b8 16 f7 3d 81 49 1a 3e
       -0.07574154 0.05967069 0.1206488 0.15067102
000010 d1 52 e4 bc b3 d2 5c 3e f4 67 a6 bd 6d 3e c3 bd
       -0.027871521 0.2156475 -0.08125296 -0.09533391
000020 d1 fb c5 3c 15 af 85 bd b5 1a 7b bc b5 14 40 bd
       0.024167927 -0.06527535 -0.015326192 -0.046894748
000030 ab 0c 1e be 71 29 a2 bd dd 9f f1 3d 6b f5 75 3d
       -0.1543452 -0.079180606 0.117980696 0.060048502
000040 f6 fd ef 3d 1a 04 b2 3d 87 54 be 3c bb a8 21 bc
       0.11718361 0.086921886 0.023233665 -0.009866889
000050 30 ac dc 3d ed 79 a4 bc f2 00 14 3d d2 fb 83 3d
       0.1077503 -0.02007767 0.036133714 0.06444515
000060 99 d3 9b bd 11 ed 27 3d fc f3 de 3b e1 ef 23 3d
       -0.076087184 0.04099757 0.0068039875 0.04002369
000070 bd 5e fe 3d fb d9 4d bd 2a 71 17 3e 40 0f d2 ba
       0.12420414 -0.05025671 0.14789262 -0.0016026273

network.6.weight f4 [16, 32]
000000 92 62 79 be be 27 f6 3d ac 51 40 3e dc c4 d4 3e
       -0.24354008 0.12019299 0.18781155 0.41556442
000010 0c e1 b4 be 58 b1 40 be 6b 4c 28 3e d4 a4 62 be
       -0.35327947 -0.18817651 0.16435401 -0.2213319
000020 df 51 d9 bd 96 fe 00 bd 64 4c 36 be 45 0f 38 be
       -0.10611319 -0.031492792 -0.17802578 -0.17974575
000030 ab d0 c6 be 7a 69 ac bd ea 16 48 3e b9 19 62 3e
       -0.38831076 -0.084185556 0.19539991 0.22080125
000040 e7 49 2b 3e e2 27 93 3e b8 da af 3e 13 e5 b0 3e
       0.1672741 0.28741366 0.34346557 0.3454977
000050 87 9f 43 3e 46 a7 46 be b5 31 ae 3e 76 5c d2 3e
       0.19103824 -0.19399747 0.34022298 0.41086167
000060 53 ac 7d be 0c 7a 0c 3f 88 ca 7c 3e 44 9d 3c 3f
       -0.24772768 0.5487373 0.24686635 0.7367747
000070 ba 93 da 3e b8 90 89 be 7a 0a b8 3e f6 4a 95 3e
       0.4269083 -0.26868224 0.35945493 0.29158753
000080 c6 d0 4a bd 24 60 19 3d 71 de a5 3e d5 29 a9 3e
       -0.049515508 0.037445202 0.32396272 0.33039728
000090 64 ff 4a be 56 24 12 3d 06 60 3f bd 64 0a 81 be
       -0.19823986 0.035679184 -0.046722434 -0.2520324
0000a0 6f 4d 74 be 63 8c 37 bd 55 b0 6a bc d5 08 01 be
       -0.23857664 -0.044811618 -0.014324267 -0.12601025
0000b0 06 5f 82 bd e2 be 7f be a1 c6 99 3e 57 bd 05 3d
       -0.063657805 -0.2497516 0.30034354 0.03265127
0000c0 cc 7c 82 3e b2 5f 77 3e 65 bd b3 3e 99 f2 5d 3e
       0.25485837 0.24157599 0.35105434 0.21674575
0000d0 ac 36 55 3e d6 09 84 be a8 80 48 3e ae 76 cd 3d
       0.20821637 -0.25788754 0.19580328 0.10032402
0000e0 75 f2 a8 bd 60 b9 8c 3e 12 61 bb 3e c8 63 22 3e
       -0.0824937 0.2748518 0.36597496 0.15858376
0000f0 85 dc dd 3d 11 f1 f8 bd 67 a2 8a 3e 8e 98 8c 3e
       0.108330764 -0.12155355 0.27077028 0.2746014
000100 51 45 28 3d 15 e7 a1 bd 29 ef 8b 3d c0 c5 96 3e
       0.04108173 -0.079054035 0.068327256 0.29447746
000110 c9 33 88 bd 3b 18 c5 bb 7b 04 0c 3e 2d fb 1e be
       -0.06650502 -0.0060148514 0.13673584 -0.15525503
000120 44 c3 d5 bd 1c 54 b3 ba 0e 59 15 be 3b 21 86 be
       -0.104376346 -0.0013681683 -0.14584753 -0.26197228
000130 f8 3c d1 3d b8 d0 29 bd bc 00 22 3e f0 35 96 3e
       0.10216707 -0.041458815 0.15820593 0.29338026
000140 df 41 c1 3d 36 97 6a 3e 1a 16 99 3e 4a 56 4d 3e
       0.09436392 0.22909245 0.29899675 0.20052448
000150 76 90 81 3e d4 c2 2b be 7d 38 a2 3e 3a 1f 67 3e
       0.25305527 -0.1677354 0.31683722 0.22570506
000160 9f f7 27 be d2 a6 27 3e 9d 32 97 3d 76 28 a2 3e
       -0.16403054 0.1637223 0.073827006 0.31671494
000170 c2 aa 96 3e 6e ef 82 be bb 32 11 3e bd 29 53 3e
       0.29427153 -0.25573295 0.14179508 0.2062139
000180 d6 18 8c be a3 d2 53 bd b0 98 2b 3e 22 a9 92 3e
       -0.27362698 -0.05171455 0.16757464 0.28644663
000190 82 95 b8 bd f3 88 51 bd 06 91 f6 3d b3 8b 2d bf
       -0.09012891 -0.051155996 0.1203938 -0.6779129
0001a0 83 eb c5 be ce bb 3e 3e b9 10 a5 be 45 1c af be
       -0.38656244 0.1862633 -0.3223932 -0.34201255
0001b0 02 6a 4b be 2b ca 92 be 53 b0 cb 3e 03 aa cf 3e
       -0.19864658 -0.28669867 0.39782962 0.40559396
0001c0 36 b6 db 3d 5a 99 9f 3e e1 44 a6 3e 8d 4a 13 3f
       0.10728113 0.31171685 0.32474425 0.5753563
0001d0 26 fd 35 3e 94 1a 5b be da cb a6 3e fb 45 86 3d
       0.1777235 -0.21396858 0.325774 0.065563165
0001e0 21 a5 10 be 6f 7f 27 3f 8b b6 f3 3e c6 3c 10 3f
       -0.14125492 0.65428823 0.47600207 0.5634273
0001f0 cb e3 d9 3e d5 3a e5 be 5e b3 fd 3e 60 be 8b 3d
       0.42556605 -0.44771448 0.4955091 0.068234205
000200 a9 5e f9 3d cc 1a 1f 3e c4 88 b0 bd fd 1b a2 bd
       0.12176258 0.15537566 -0.08619836 -0.079154946
000210 f8 27 77 3e d8 c0 f5 3d 8b cb 13 3e c1 3a 93 3e
       0.2413634 0.11999673 0.14433114 0.28755763
000220 6f 6e 77 3e 83 a1 19 be 51 20 08 3e 63 6c 56 3e
       0.24163221 -0.15003018 0.13293578 0.20939784
000230 fc a2 86 3e dc 00 e7 3d b7 04 73 3d d9 5c 91 3c
       0.26296222 0.11279461 0.05933067 0.017744469
000240 50 7b 27 3e 6a a0 38 be 83 98 bf bd 02 60 c6 3d
       0.16355634 -0.18029943 -0.09355261 0.09686281
000250 a9 da 18 bd 98 9b e6 3d d1 90 0f be c9 33 81 bd
       -0.037317906 0.11260146 -0.14020087 -0.06308705
000260 a5 da e1 3d 2d 63 2a be 17 86 6e bd c5 c7 63 be
       0.11028031 -0.16639395 -0.058233347 -0.22244175
000270 d3 25 ae ba d0 49 4f 3e c4 e6 24 3d 0a 70 98 bd
       -0.0013286419 0.20243001 0.040259138 -0.07443245
000280 1d c4 f8 bd 17 62 da 3d a7 99 7b 3e 96 c5 d7 3e
       -0.12146781 0.106632404 0.24570332 0.42142934
000290 01 80 39 be aa 37 e8 bd ca 4a bb 3b a4 f3 8e be
       -0.18115236 -0.11338742 0.0057157027 -0.27920258
0002a0 b9 e4 81 be d8 80 54 3e fa 60 62 bd c2 ae 4c be
       -0.25369814 0.20752275 -0.055268265 -0.1998854
0002b0 bb 72 4f bd 02 bc df bd aa d9 b9 3d 89 8a ba 3e
       -0.050646525 -0.109245315 0.09074719 0.3643382
0002c0 3a 7a 4c bc 83 7d c5 3d 31 ee e4 3e 91 18 78 3e
       -0.012480313 0.0964308 0.44712976 0.24228121
0002d0 40 ec 66 3e 5a 69 8f bd 88 1f ef 3e 87 c8 93 3e
       0.2255106 -0.07002516 0.46703744 0.28863928
0002e0 9f 66 5d be 5c 4c 96 3e 40 6b 15 3d 73 42 08 3e
       -0.21621178 0.29355133 0.036479235 0.13306598
0002f0 cc cb 4d 3e f5 ec 7a be e4 87 be 3e 7a c8 d2 3d
       0.20097274 -0.24504454 0.3721305 0.10292144
000300 ca e9 92 3e d1 c5 fe 3d 49 91 aa 3d b3 fe 68 be
       0.28693992 0.12440074 0.08328492 -0.2275341
000310 8d 01 5a 3e 5b 4d 22 3e 3a 83 c3 bd 98 ca 5f 3d
       0.21289654 0.15849821 -0.09546514 0.054636568
000320 dc 03 ca 3d 5b 4d d2 3d c3 70 e9 3d 12 6a 3b 3e
       0.09864017 0.10268661 0.11398461 0.18302181
000330 19 3e 4c 3e e2 fc 2d 3e ab 93 32 be bf a7 cc bd
       0.19945563 0.16990998 -0.17439143 -0.099929325
000340 74 de e3 3d 8a 9a 84 be dc bf 45 be 80 cd f4 bc
       0.11126414 -0.25899154 -0.1931147 -0.029883146
000350 ca 07 5e 3d c9 47 2f 3e c4 5a 59 be 04 d5 a2 3d
       0.054206647 0.17117228 -0.2122603 0.07950786
000360 33 e3 68 3e 7d ab b6 bd e7 b3 f4 bd ce 88 f9 bd
       0.2274292 -0.089194275 -0.11948376 -0.121842965
000370 87 d6 03 be f0 98 79 3e 85 ec 58 be 6e 66 37 be
       -0.12874804 0.24374747 -0.21183975 -0.17910168
000380 f6 62 fe 3c b6 6d 3c bd 9e a3 c1 3d d2 9d 76 3e
       0.031053048 -0.046003066 0.094550356 0.24083641
000390 fd 63 36 be 7e b9 62 3e dc 4f 27 be 96 e7 8d be
       -0.1781158 0.22141072 -0.16339058 -0.2771575
0003a0 24 ef 52 be 7d 8a a3 3d 4c f8 5f be 8a 75 cc bc
       -0.20599037 0.07985399 -0.21872061 -0.02495839
0003b0 61 86 ec 3b 2d d4 ce bd 7b 75 8c 3d f7 8a cb 3e
       0.0072181677 -0.10099063 0.06858345 0.3975446
0003c0 98 1a 12 bd ed d4 6f 3e dc df ba 3e a5 1f 3b 3e
       -0.035669893 0.23421068 0.36498916 0.1827379
0003d0 37 d5 be 3c a8 e3 1a be f3 9a cc 3e 48 f7 50 3e
       0.023295028 -0.15125906 0.39961967 0.2040683
0003e0 73 32 63 be 25 0e d8 3e 0f 1c 93 3e ad 3b 6a 3e
       -0.22187214 0.4219829 0.28732345 0.22874327
0003f0 88 61 06 3e ff c3 bd bd 98 52 b5 3e cc 55 dd 3d
       0.13123143 -0.09265899 0.35414577 0.1080738

network.6.bias f4 [16]
000000 3e a3 81 3e f1 4d 27 3e 42 51 8c 3d d8 8e 2a 3e
       0.25319856 0.16338326 0.06851436 0.16656053
000010 d9 8e fb 3b 18 fe d3 3d 78 2c a2 3d ef 88 8c 3d
       0.007676941 0.10351199 0.07918638 0.068620555
000020 a6 1e 0f 3e 12 e4 96 3d 46 c8 bf 3c 9d 00 9c 3d
       0.13976535 0.0736772 0.023410928 0.076173045
000030 6e cb 5c 3e 23 48 6b 3e 56 7c 90 bc 07 5c 7a 3d
       0.21561977 0.22976737 -0.017637413 0.06112292

network.8.weight f4 [1, 16]
000000 6f 91 ec be 14 37 ec be 91 07 09 bf 6e af 1d bf
       -0.46204707 -0.4613577 -0.5352717 -0.6159581
000010 54 e0 2e 3e a4 35 1c bf a1 07 c9 3e 21 df 8e be
       0.17077762 -0.6101935 0.39263633 -0.2790461
000020 3e 77 69 3e c6 d3 e8 be 96 72 7f 3e c5 21 76 be
       0.22799394 -0.4547407 0.24946055 -0.2403632
000030 ba da 90 be 94 36 ee be 23 80 31 3e 4f 1a 98 3e
       -0.28291875 -0.46526015 0.17334037 0.29707572
