第六次作业10245501405杨云天/model/Materials Science.pth (torch, 15449 bytes, 7 tensors)

network.0.weight f4 [64, 3]
0.47248268 1.782327 0.7224445 -0.16899768 0.07262785 -0.5528731 0.1956018 1.7235358
0.62910813 -1.0903469 -1.898441 -1.0811701 -0.1959576 -0.35166278 0.37494275 0.27483222
0.77949506 0.89596146 -0.45357013 0.38300008 0.24389091 1.0457711 1.7096978 0.80130893
-1.0312549 -0.5468496 -0.79453975 -0.061369233 -0.38155776 -0.21761169 1.0147904 1.4424262
0.6398446 -0.1258143 1.9570466 0.08813642 -0.68180037 -1.4971131 -0.34118572 -0.23806866
0.6516759 0.22522283 -0.18448012 0.3897039 -0.4399334 -0.24346915 -0.5545048 -0.198185
0.5160214 0.0016683249 0.5462176 -0.2815181 0.43665674 0.3722426 -0.5961562 -2.1136837
-0.23196693 -0.12899087 1.2069209 0.33326632 0.46041584 -0.26432493 -0.266314 -0.6345862
-0.23801985 -0.23054807 -0.19625038 0.48308036 0.12631574 0.57008564 -0.020672638 -0.42615533
-0.06488422 -0.40655664 -0.049748044 0.41493812 1.7359397 0.6702555 0.7562336 2.1381624
0.285505 0.19253215 -0.5362082 0.17151064 -0.08178715 0.43383682 -0.06499186 -0.40395656
-0.34400347 -0.39302486 -0.3522459 0.42561588 0.22846389 0.11415909 -0.2688268 0.24193159
0.0019470049 0.50458264 0.4211959 0.36445925 -0.47454062 0.04277781 -0.2139706 0.13913907
-0.55832845 0.2642044 2.4566123 0.20416848 -0.033494856 -0.19832951 0.750582 0.28358603
-0.018550334 -0.19682184 -0.9826542 -1.705246 -1.1041896 -0.24641345 0.7027526 -0.16666403
0.99441916 1.175202 0.87795436 -0.4440441 -0.2957241 0.3953784 0.3214642 2.134459
0.6370219 -0.962655 -1.7143496 -1.2245677 0.78589904 1.5306877 0.9782038 0.34176782
1.684206 0.7137868 -0.31805262 -0.49275082 0.3174511 0.49571034 -0.53398263 0.26630726
-0.44732413 -0.16636063 0.008168212 0.58845174 0.60718876 -0.0031282196 0.04524051 -1.9829845
-0.3273704 0.13008463 -0.4332641 -0.50111115 -0.16302685 -0.07000491 -0.5561852 -0.98284876
-1.0984042 -0.061687086 -0.25398654 -0.5477701 -0.65403867 -0.4296954 -2.3885498 0.048550487
-0.9256267 -1.9960643 -0.28054893 0.47449446 0.03953076 -0.087159395 -0.6130024 -0.9393972
0.20904964 -0.21890678 -0.39003494 0.48425007 0.027955066 -0.30639324 0.15086697 0.020781245
-0.05366573 0.085387684 -0.34389675 0.34742066 0.54517287 0.18846749 0.7555023 0.7014919
00000000: 40e9 f13e 4b23 e43f 1ff2 383f ba0d 2dbe
00000010: e9bd 943d 1789 0dbf d74b 483e d29c dc3f
00000020: 3b0d 213f 7d90 8bbf 1d00 f3bf c863 8abf
00000030: 1ca9 48be 250d b4be 7ff8 bf3e cfb6 8c3e
00000040: fd8c 473f bb5d 653f 583a e8be 9618 c43e
00000050: 8abe 793e d4db 853f 61d7 da3f 9522 4d3f
00000060: 2900 84bf 56fe 0bbf f566 4bbf 4e5e 7bbd
00000070: 8a5b c3be 99d5 5ebe a7e4 813f 6ca1 b83f
00000080: dbcc 233f 77d5 00be 8180 fa3f de80 b43d
00000090: 788a 2ebf 67a1 bfbf e5af aebe 45c8 73be
000000a0: 3bd4 263f d0a0 663e 5be8 3cbe 4587 c73e
000000b0: f33e e1be fa4f 79be 07f4 0dbf 02f1 4abe
000000c0: fa19 043f b2ab da3a ebd4 0b3f 2423 90be
000000d0: 7991 df3e 9596 be3e b19d 18bf 9846 07c0
000000e0: bd88 6dbe 2f16 04be 627c 9a3f e2a1 aa3e
000000f0: a0bb eb3e 9955 87be 4f5a 88be 3e74 22bf
00000100: 7abb 73be cb14 6cbe dcf5 48be 4f56 f73e
00000110: ea58 013e 22f1 113f aa59 a9bc 0831 dabe
00000120: 05e2 84bd 3128 d0be 9bc4 4bbd c572 d43e
00000130: 4633 de3f dd95 2b3f 8698 413f a7d7 0840
00000140: b62d 923e 2627 453e f144 09bf 7ca0 2f3e
00000150: 0580 a7bd dc1f de3e 741a 85bd 65d3 cebe
00000160: 3921 b0be 8e3a c9be 9359 b4be 53ea d93e
00000170: 70f2 693e 3ecc e93d aba3 89be eabc 773e
00000180: a532 ff3a 542c 013f fda6 d73e 679a ba3e
00000190: fdf6 f2be c937 2f3d 1c1b 5bbe 797a 0e3e
000001a0: 9dee 0ebf cd45 873e 2339 1d40 8b11 513e
000001b0: e731 09bd e416 4bbe 2426 403f 3032 913e
000001c0: dff6 97bc aa8b 49be 3a8f 7bbf 8045 dabf
000001d0: 1656 8dbf cf53 7cbe 98e7 333f faa9 2abe
000001e0: 4192 7e3f 056d 963f 9ec1 603f c059 e3be
000001f0: 2669 97be 0a6f ca3e f596 a43e fa9a 0840
00000200: de13 233f 8f70 76bf cf6f dbbf a2be 9cbf
00000210: ae30 493f 93ed c33f 906b 7a3f 31fc ae3e
00000220: 1094 d73f bbba 363f cbd7 a2be d649 fcbe
00000230: f388 a23e bfcd fd3e 16b3 08bf 6d59 883e
00000240: ab07 e5be 715a 2abe f7d3 053c c6a4 163f
00000250: b970 1b3f d102 4dbb 1d4e 393d 70d2 fdbf
00000260: 189d a7be e834 053e cbd4 ddbe d248 00bf
00000270: 83f0 26be bc5e 8fbd 2762 0ebf fa9b 7bbf
00000280: 8298 8cbf 99ab 7cbd 860a 82be a93a 0cbf
00000290: 146f 27bf 0901 dcbe 00de 18c0 e0dc 463d
000002a0: dff5 6cbf 097f ffbf 1ca4 8fbe f0f0 f23e
000002b0: 02eb 213d a080 b2bd baed 1cbf 567c 70bf
000002c0: 1c11 563e 1929 60be a9b2 c7be a0ef f73e
000002d0: 0602 e53c 93df 9cbe df7c 1a3e 6e3d aa3c
000002e0: 99d0 5bbd bddf ae3d 3c13 b0be 1fe1 b13e
000002f0: 7390 0b3f 9ffd 403e 9968 413f f994 333f

network.0.bias f4 [64]
-0.0075776735 -0.18794817 -0.0036336894 0.012065475 -0.113396645 0.14927275 -0.23164025 -0.0042173387
0.096679226 -0.3921772 -0.017543131 -0.0004952495 0.042975206 0.058027856 -0.30830094 -0.4642577
-0.15480608 -0.3323097 0.009187722 0.008668873 -0.39383626 0.10335958 -0.42258433 -0.27552044
-0.037643496 -0.011894909 -0.0044804076 -0.40224046 -0.2919778 -0.4850209 -0.27240816 -0.34402427
-0.37038147 -0.27835956 0.012669177 -0.0037244451 0.07574764 -0.3990487 0.011959041 0.113362044
-0.014756946 -0.4415476 -0.0039094896 0.012000438 -0.016091125 -0.007375639 -0.39937958 -0.47188273
-0.023439424 0.0087752305 0.0134686 -0.46557438 -0.19354609 0.038165644 0.03627524 0.008706672
0.01054108 -0.2677905 0.030289264 -0.126307 -0.28993264 -0.23675206 -0.17689535 0.032553364
00000000: 224e f8bb 7c75 40be 3123 6ebb 45ae 453c
00000010: 803c e8bd f5da 183e 1a33 6dbe 9a31 8abb
00000020: c2ff c53d 73cb c8be 9db6 8fbc a2d3 01ba
00000030: c506 303d 9eae 6d3d 9fd9 9dbe 2fb3 edbe
00000040: 7c85 1ebe 7f24 aabe 1988 163c e407 0e3c
00000050: e8a4 c9be 30ae d33d f95c d8be 0411 8dbe
00000060: 1130 1abd dde2 42bc 62d0 92bb 76f2 cdbe
00000070: 1d7e 95be a954 f8be 1579 8bbe f323 b0be
00000080: a4a2 bdbe 2585 8ebe 6192 4f3c d215 74bb
00000090: 9421 9b3d 1c50 ccbe daef 433c 5c2a e83d
000000a0: 1ec7 71bc 8712 e2be 2d1b 80bb 7c9d 443c
000000b0: 89d1 83bc 58af f1bb 7b7b ccbe 9d9a f1be
000000c0: 0904 c0bc fcc5 0f3c 67ab 5c3c c45f eebe
000000d0: f230 46be 9453 1c3d 5995 143d 6ea6 0e3c
000000e0: 7eb4 2c3c d61b 89be 3121 f83c 9f56 01be
000000f0: 0d72 94be 226f 72be 0e24 35be ad56 053d

network.3.weight f4 [32, 64]
0.34632525 0.061194018 0.26477697 -0.41619343 -0.03668675 -0.010383809 0.012415126 0.090304404
-0.013571871 0.09558573 0.24432649 0.5681769 -0.016219445 0.01909578 0.09375641 0.12472305
0.08565569 0.07817736 -0.079510696 0.033275604 0.014929026 -0.01098086 -0.08161734 -0.028399304
-0.042600557 0.21067041 0.18498316 0.08628158 0.09916486 0.101202026 -0.052948087 0.119799286
-0.10522312 0.08421922 0.0023084076 0.26170555 0.0027894771 -0.084865704 -0.36229515 -0.0048528095
0.058551412 0.03962885 0.25007355 -0.4792368 0.24870108 0.5418697 0.08108093 0.05608888
0.02943407 0.002638701 -0.017269779 0.0022557527 -0.05443819 0.009392738 -0.02101595 -0.3659045
-0.25071564 -0.08835569 -0.00048011355 -0.06612763 -0.06681356 0.06823608 -0.03759746 0.007497074
-0.4606733 0.096906155 -0.5968516 0.5168137 -0.11742446 0.072415195 -0.0022830814 -0.10064426
0.10660451 -0.0030017197 -0.37825638 -1.0145363 0.115729265 0.101297505 0.05321969 -0.056491002
-0.09974062 0.017622292 0.42244315 -0.04754085 0.08128627 -0.03556933 0.00670594 -0.0653491
0.064101696 -0.44925877 -0.42662132 -0.08230603 -0.035641044 -0.11530532 0.07555121 -0.06990178
0.059314758 -0.035359368 -0.0021604123 -0.43843293 -0.01998633 -0.056648448 0.5052583 0.05724792
-0.052088633 0.019117996 -0.6113799 0.5580351 -0.38480967 -0.7706666 -0.028574243 0.0057717115
0.057330832 0.020069797 0.108716145 0.106882334 0.05250053 -0.023178626 0.12693983 0.75022405
0.3261394 0.055111244 0.03275996 0.06324573 -0.09115353 -0.0049767345 -0.0832632 -0.01274508
0.35171136 -0.019604027 0.26082015 -0.27934813 -0.020958513 0.027755847 0.042134345 0.19200252
0.020968705 -0.067531735 0.24522187 0.57177496 -0.022709515 0.014199283 -0.09844348 -0.06624554
0.07637392 -0.057509065 -0.16302443 0.04194647 -0.10088824 0.020004174 -0.08499314 0.039041013
0.029359907 0.43672886 0.31514755 -0.09086108 -0.11881371 0.07212868 0.10054098 0.0126056075
0.08464609 -0.0055867434 0.003453889 0.4339706 0.049109135 -0.011771932 -0.1730587 0.051562935
0.27377966 0.10487062 0.32696447 -0.2942396 0.42152542 0.40340537 -0.0240715 -0.011161104
0.091045186 -0.055876534 -0.06470591 0.059365705 0.12278551 0.04607991 0.056985315 -0.61180294
-0.2771117 -0.08721706 -0.06710608 0.08981444 0.06542097 -0.02315411 0.040485386 -0.05684306
-0.4126228 -0.10195494 -0.5697147 0.5741502 -0.053409323 -0.013581861 -0.115058735 -0.010924284
-0.0132035045 0.05158651 -0.31115845 -0.89746666 -0.05115664 -0.02474422 0.08705194 0.023764685
-0.14897382 -0.03146352 0.22850926 0.003534407 0.030379608 -0.01610366 -0.09417316 -0.107920006
-0.02856867 -0.6116121 -0.33769846 -0.02642031 -0.04174809 0.03073752 0.02948694 -0.06433235
0.0024844408 -0.054851547 -0.039569676 -0.43198338 -0.034821577 0.11190134 0.5303192 -0.035122957
-0.1155024 0.089150205 -0.5845719 0.58533716 -0.2658728 -0.6614902 0.019546002 0.049204558
-0.09531419 -0.0027010308 0.14843178 -0.003168285 -0.10766055 -0.062272806 0.046855364 0.6181233
0.40496397 0.09979826 -0.03791723 0.06035319 0.017137036 -0.08589539 0.11257467 -0.064814635
00000000: 8b51 b13e 94a6 7a3d d990 873e 4e17 d5be
00000010: d844 16bd da20 2abc d068 4b3c 84f1 b83d
00000020: 8e5c 5ebc 74c2 c33d b930 7a3e 0b74 113f
00000030: a4de 84bc c16e 9c3c 5c03 c03d cc6e ff3d
00000040: 406c af3d 741b a03d 81d6 a2bd 004c 083d
00000050: e098 743c 11e9 33bc fe26 a7bd a8a5 e8bc
00000060: ec7d 2ebd fcb9 573e 3a6c 3d3e 66b4 b03d
00000070: f216 cb3d 0243 cf3d 18e0 58bd 5459 f53d
00000080: 387f d7bd 207b ac3d a748 173b 45fe 853e
00000090: a9cf 363b 12ce adbd c07e b9be 5104 9fbb
000000a0: 9bd3 6f3d dc51 223d a409 803e 875e f5be
000000b0: 7fab 7e3e f9b7 0a3f c20d a63d 74bd 653d
000000c0: b81f f13c 0eee 2c3b 5a79 8dbc 40d5 133b
000000d0: 94fa 5ebd 00e4 193c a429 acbc d657 bbbe
000000e0: cd5d 80be d4f3 b4bd c0b7 fbb9 ec6d 87bd
000000f0: 8cd5 88bd 5cbf 8b3d cbff 19bd 04aa f53b
00000100: 5fdd ebbe bc76 c63d 44cb 18bf e74d 043f
00000110: 3c7c f0bd 6b4e 943d c09f 15bb 941e cebd
00000120: 7753 da3d 80b8 44bb d2aa c1be 53dc 81bf
00000130: 7703 ed3d 1175 cf3d e4fc 593d 1c63 67bd
00000140: cf44 ccbd a05c 903c 784a d83e 32ba 42bd
00000150: 6a79 a63d 25b1 11bd 80bd db3b c0d5 85bd
00000160: c047 833d 3f05 e6be 1c6e dabe 1090 a8bd
00000170: 58fc 11bd 3225 ecbd 98ba 9a3d aa28 8fbd
00000180: 08f4 723d fcd4 10bd b495 0dbb 487a e0be
00000190: 5fba a3bc 3408 68bd 9c58 013f cc7c 6a3d
000001a0: e45a 55bd 589d 9c3c 6583 1cbf 63db 0e3f
000001b0: c605 c5be 684a 45bf 8814 eabc a020 bd3b
000001c0: bcd3 6a3d 6a69 a43c 92a6 de3d 20e5 da3d
000001d0: cc0a 573d 1ae1 bdbc 84fc 013e af0e 403f
000001e0: befb a63e 54bc 613d 4f2f 063d fa86 813d
000001f0: b4ae babd e013 a3bb e685 aabd bdd0 50bc
00000200: 8313 b43e a098 a0bc 388a 853e b806 8fbe
00000210: 30b1 abbc 3b60 e33c 1095 2c3d 4f9c 443e
00000220: 90c6 ab3c 144e 8abd 711b 7b3e d85f 123f
00000230: 4e09 babc 1ca4 683c bc9c c9bd beab 87bd
00000240: ee69 9c3d a08e 6bbd e0ef 26be 10d0 2b3d
00000250: 7e9e cebd cbdf a33c e210 aebd 78e9 1f3d
00000260: 3084 f03c ed9a df3e 055b a13e 6015 babd
00000270: 9a54 f3bd 34b8 933d 6ee8 cd3d c087 4e3c
00000280: ee5a ad3d 0011 b7bb a45a 623b 6531 de3e
00000290: a926 493d 10df 40bc 4d36 31be a833 533d
000002a0: d92c 8c3e 68c6 d63d e367 a73e 93a6 96be
000002b0: 2ed2 d73e 268b ce3e 9831 c5bc 10dd 36bc
000002c0: e675 ba3d cbde 64bd 8884 84bd 7429 733d
000002d0: f876 fb3d 4abe 3c3d 6f69 693d 1e9f 1cbf
000002e0: 96e1 8dbe dc9e b2bd ea6e 89bd a2f0 b73d
000002f0: 6efb 853d b0ad bdbc 01d4 253d 45d4 68bd
00000300: 4c43 d3be c0cd d0bd d3d8 11bf 82fb 123f
00000310: bcc3 5abd 7486 5ebc eaa3 ebbd c5fb 32bc
00000320: 8353 58bc 604c 533d 2950 9fbe 60c0 65bf
00000330: a089 51bd 64b4 cabc 4a48 b23d 28ae c23c
00000340: 988c 18be e4df 00bd 55fe 693e 82a1 673b
00000350: a8de f83c d3eb 83bc dcdd c0bd 2a05 ddbd
00000360: d808 eabc 9c92 1cbf d0e6 acbe 686f d8bc
00000370: 0c00 2bbd 40cd fb3c 988e f13c aec0 83bd
00000380: 00d2 223b 04ac 60bd d013 22bd ed2c ddbe
00000390: 12a1 0ebd 882c e53d 00c3 073f 17dd 0fbd
000003a0: 868c ecbd 6294 b63d 81a6 15bf a8d8 153f
000003b0: 7b20 88be 6c57 29bf f01e a03c b88a 493d
000003c0: 1634 c3bd c703 31bb 80fe 173e 00a3 4fbb
000003d0: 227d dcbd c511 7fbd 69eb 3f3d 543d 1e3f
000003e0: 7057 cf3e 0863 cc3d 194f 1bbd e834 773d
000003f0: f862 8c3c ece9 afbd 8c8d e63d 89bd 84bd

network.3.bias f4 [32]
0.01231105 0.020030107 -0.0069941888 0.036463518 -0.0018110389 0.047027797 0.0008193878 0.022158083
0.034236323 -0.0062277615 -0.095820375 0.01825061 0.01895198 0.02194496 -0.020485422 -0.006433958
-0.06947432 -0.015929883 0.01128556 -0.0007294498 0.044007186 0.027365424 0.050011028 0.009615053
0.04516315 0.0016863141 0.027119843 0.021464435 0.050629824 0.012063724 0.063469596 -0.0011795333
00000000: 49b4 493c 2e16 a43c 822f e5bb c55a 153d
00000010: 6260 edba 38a0 403d 2fcc 563a de84 b53c
00000020: 633b 0c3d 4012 ccbb 793d c4bd 4e82 953c
00000030: 2f41 9b3c ebc5 b33c 0bd1 a7bc f4d3 d2bb
00000040: 8d48 8ebd 637f 82bc 12e7 383c 8c38 3fba
00000050: e140 343d 742d e03c 5dd8 4c3d 7588 1d3c
00000060: fffc 383d 5007 dd3a 6f2a de3c 2fd6 af3c
00000070: 3861 4f3d eda6 453c 59fc 813d 929a 9aba

network.6.weight f4 [16, 32]
-0.6354789 0.10716979 -0.30740398 0.40470162 -0.0298258 0.41713667 -0.64493525 0.7518888
0.4916671 0.33597618 0.08737559 0.52899766 -0.38698986 0.7093862 -0.46575174 0.44279313
-0.11802546 -0.5181185 -0.580512 -0.61185724 -0.51299167 -0.27736306 0.3922233 -0.6065974
0.40379077 -0.4532121 -0.3298769 -0.23253375 0.5918837 -0.6136623 0.10788128 0.45263046
-0.33350208 0.28059667 -0.16911042 0.5648702 -0.100891344 0.38615394 -0.2830516 0.55660534
0.49307328 0.53497314 0.047197055 0.33679822 -0.12790716 0.5576189 -0.40178323 0.36555305
0.14152604 -0.3407259 -0.08666017 -0.12773103 -0.30028617 -0.2202775 0.44666913 -0.28321993
0.4224719 -0.20564787 -0.18546247 0.014421328 0.3900546 -0.34152412 0.14601943 0.42969328
0.056772754 -0.038077027 0.12511653 -0.28094262 0.08742321 -0.13658717 0.117603615 -0.37753186
-0.09820825 -0.074262075 -0.094737016 -0.12779155 -0.04668934 -0.17480217 0.20712176 -0.26267445
-0.0051884474 0.08703811 0.17359236 0.06140031 0.14581537 0.013457171 -0.20352781 0.2542066
-0.136516 0.2270764 0.018703269 0.2612833 -0.088793755 0.30229872 0.10096931 -0.2836489
0.15879153 0.08212381 0.19582216 -0.26096702 -0.04189993 0.031130621 0.2548853 -0.22482593
-0.19404414 -0.24689391 -0.15357152 -0.20550098 0.08207437 -0.13133357 0.19730918 -0.08716091
0.04531465 0.22102128 0.17836094 0.23228234 0.09968499 0.30213553 -0.06939406 0.1782655
-0.295268 0.2383382 0.10026952 0.29626942 0.016141497 0.23579046 0.12119789 -0.07082659
0.22322135 0.13376918 0.097367875 -0.10670897 -0.0428462 -0.0878226 0.22700764 -0.18622763
-0.19417837 -0.026653107 -0.04925607 -0.14631 0.20754918 -0.02188148 0.065711886 -0.22667833
0.02715622 0.13229525 0.16233252 0.10647321 0.04464542 0.13772894 -0.13779595 0.13278346
-0.25097743 -0.021946602 0.112400375 0.25191182 -0.11028403 0.16891193 0.18523724 -0.2907475
0.08743722 -0.09218007 0.2408877 -0.26161653 -0.12272894 -0.06710706 0.023527186 -0.3099833
-0.2714061 -0.3030267 -0.1330773 -0.15418808 0.15894087 -0.18152247 0.00084992556 -0.14468169
0.14766815 0.25112033 0.17164066 0.20072523 0.10019866 0.08645529 -0.26020697 0.21643737
-0.3663041 0.20794944 0.22489332 0.18269056 -0.18441431 0.25322282 0.029895289 -0.32148114
-0.22713259 0.14611906 -0.18512541 0.6169569 0.01763616 0.44797394 -0.48618382 0.4493832
0.55657804 0.43683147 -0.013391337 0.6023792 -0.027070604 0.56967854 -0.49033156 0.62916905
0.01957774 -0.33097577 -0.34755218 -0.20017913 -0.14512795 -0.06564942 0.5441082 -0.3905215
0.66841364 -0.1706556 -0.364451 -0.208055 0.4923599 -0.37451524 0.15072326 0.36925727
0.07857796 0.041402392 0.0021148324 -0.22416298 0.036792144 -0.059173904 0.08564732 -0.24750318
-0.26212898 -0.17961402 -0.031912886 -0.30515048 -0.039606236 -0.31792533 0.08546388 -0.30934277
0.053945575 0.008694931 0.11025585 0.1626733 0.20564102 0.2152637 -0.34951252 0.059329025
-0.23013003 0.16355728 -0.024905575 0.026479151 -0.3340232 0.14408992 0.074655406 -0.26413816
00000000: bfae 22bf d67b db3d 0e64 9dbe 0d35 cf3e
00000010: 3c55 f4bc f092 d53e 7a1a 25bf c97b 403f
00000020: cabb fb3e 1205 ac3e f9f1 b23d 646c 073f
00000030: 8923 c6be 569a 353f 0377 eebe c8b5 e23e
00000040: 55b7 f1bd 6aa3 04bf 6f9c 14bf ada2 1cbf
00000050: 6c53 03bf 8802 8ebe 7ed1 c83e f849 1bbf
00000060: aabd ce3e 6b0b e8be a0e5 a8be 541d 6ebe
00000070: b185 173f f918 1dbf dcf0 dc3d 2ebf e73e
00000080: c9c0 aabe 5eaa 8f3e 482b 2dbe 559b 103f
00000090: 1fa0 cebd f8b5 c53e 24ec 90be b07d 0e3f
000000a0: 1a74 fc3e 00f4 083f b351 413d d170 ac3e
000000b0: 18fa 02be 1dc0 0e3f 88b6 cdbe c529 bb3e
000000c0: 34ec 103e a073 aebe e37a b1bd eccb 02be
000000d0: 1cbf 99be 6d90 61be d1b1 e43e 3402 91be
000000e0: 3d4e d83e 5b95 52be e0e9 3dbe 6f47 6c3c
000000f0: 3db5 c73e 40dc aebe 1e86 153e c200 dc3e
00000100: 8c8a 683d a8f6 1bbd 8c1e 003e b6d7 8fbe
00000110: f10a b33d 82dd 0bbe 2ada f03d db4b c1be
00000120: 6821 c9bd b716 98bd 7b05 c2bd cadb 02be
00000130: 523d 3fbd 57ff 32be ba17 543e 447d 86be
00000140: da03 aabb 0941 b23d 32c2 313e e47e 7b3d
00000150: a050 153e 777b 5c3c 9869 50be 5e27 823e
00000160: daca 0bbe b786 683e 9937 993c edc6 853e
00000170: 80d9 b5bd e6c6 9a3e ffc8 ce3d 6e3a 91be
00000180: 3f9a 223e 8730 a83d 9b85 483e 789d 85be
00000190: 439f 2bbd a505 ff3c 5380 823e c538 66be
000001a0: 82b3 46be c2d1 7cbe da41 1dbe d96e 52be
000001b0: 9b16 a83d 4f7c 06be 6b0b 4a3e 6b81 b2bd
000001c0: db9b 393d 6753 623e 40a4 363e 6cdb 6d3e
000001d0: a527 cc3d 82b1 9a3e 791e 8ebd 3b8b 363e
000001e0: 5e2d 97be ee0e 743e 1b5a cd3d a0b0 973e
000001f0: 2c3b 843c 0e73 713e 9936 f83d 880d 91bd
00000200: 2394 643e cafa 083e cf68 c73d 3c8a dabd
00000210: 7f7f 2fbd 56dc b3bd b174 683e 75b2 3ebe
00000220: b2d6 46be 9e57 dabc bcc0 49bd 4ad2 15be
00000230: c687 543e ca40 b3bc f493 863d 5d1e 68be
00000240: b976 de3c 6878 073e 7f3a 263e a00e da3d
00000250: 1ede 363d d108 0d3e 621a 0dbe 63f8 073e
00000260: 1d80 80be 5cc9 b3bc 2b32 e63d 96fa 803e
00000270: 98dc e1bd 40f7 2c3e d5ae 3d3e dbdc 94be
00000280: 4912 b33d e8c8 bcbd 44ab 763e 9af2 85be
00000290: 4f59 fbbd 6d6f 89bd 16bc c03c 22b6 9ebe
000002a0: bef5 8abe 5126 9bbe 6a45 08be 7be3 1dbe
000002b0: 65c1 223e 07e1 39be 8acd 5e3a 7027 14be
000002c0: 5236 173e d892 803e 92c2 2f3e ea8a 4d3e
000002d0: f434 cd3d 790f b13d d939 85be c2a1 5d3e
000002e0: 368c bbbe b3f0 543e 6f4a 663e 3c13 3b3e
000002f0: 1bd7 3cbe 6ca6 813e f7e6 f43c 2d99 a4be
00000300: 7295 68be 3ca0 153e 8491 3dbe e3f0 1d3f
00000310: b579 903c d75c e53e 16ed f8be 8e15 e63e
00000320: e67b 0e3f 60a8 df3e 5767 5bbc 8635 1a3f
00000330: 2cc3 ddbc 74d6 113f bd0c fbbe 3911 213f
00000340: 7f61 a03c a875 a9be 5cf2 b1be c2fb 4cbe
00000350: 6c9c 14be 3473 86bd ad4a 0b3f 6ff2 c7be
00000360: 281d 2b3f 57c0 2ebe 5299 babe 5f0c 55be
00000370: 9916 fc3e 76c0 bfbe 3357 1a3e 4a0f bd3e
00000380: 7bed a03d 8e95 293d 0099 0a3b fb8a 65be
00000390: 5cb3 163d 5660 72bd dd67 af3d 7971 7dbe
000003a0: c535 86be bdec 37be 16b7 02bd af3c 9cbe
000003b0: 263a 22bd 1cc7 a2be b007 af3d 2d62 9ebe
000003c0: 09f6 5c3d 2f75 0e3c d2cd e13d d493 263e
000003d0: 8f93 523e 166e 5c3e 4ef3 b2be fe02 733d
000003e0: 35a7 6bbe 8f7b 273e c706 ccbc ceea d83c
000003f0: 1705 abbe 4f8c 133e efe4 983d 1e3d 87be

network.6.bias f4 [16]
0.18968607 0.28783295 0.11398926 0.07484188 0.06747714 0.16867192 0.14905293 0.16314812
-0.1075955 0.09124627 0.06817446 0.2877429 0.09062672 0.30601755 -0.33363265 0.31421754
00000000: 113d 423e d75e 933e 3373 e93d b346 993d
00000010: 7431 8a3d 55b8 2c3e 55a1 183e 4d10 273e
00000020: 085b dcbd 53df ba3d 0d9f 8b3d 0a53 933e
00000030: 809a b93d 55ae 9c3e e6d1 aabe 1fe1 a03e

network.8.weight f4 [1, 16]
-0.96631277 -0.5653743 0.28098863 0.34416124 0.39339533 0.48929852 -0.57927066 0.27994585
-0.10118051 0.46061346 0.4228427 -0.53361547 0.32098323 -0.5859282 -0.72354203 -0.521389
00000000: 4660 77bf 5fbc 10bf bedd 8f3e e735 b03e
00000010: 1d6b c93e 5685 fa3e 154b 14bf 1055 8f3e
00000020: ba37 cfbd 87d5 eb3e d77e d83e 069b 08bf
00000030: ea57 a43e 64ff 15bf 0d3a 39bf c079 05bf
