第六次作业10245501405杨云天/model/Mathematics.pth (torch, 15365 bytes, 7 tensors)

network.0.weight f4 [64, 3]
0	0xbe623930	-0.22092128
1	0xbea04270	-0.31300688
2	0x3ee06e89	0.43834332
3	0x3d6e34db	0.058155876
4	0xbea59bbd	-0.3234538
5	0xbf29cc64	-0.663275
6	0xbec2e184	-0.3806268
7	0xbccb49d2	-0.024815474
8	0x3f1f36f9	0.62193257
9	0x3c9f6002	0.01945496
10	0x3f23432c	0.6377437
11	0x3d313791	0.043265883
12	0x3f1bab2a	0.6080805
13	0x3ec608e2	0.38678652
14	0x3e79d5fe	0.24398038
15	0x3e2f1449	0.17097582
16	0x3f7d6647	0.9898419
17	0x3d65bba1	0.05608714
18	0xbd81b187	-0.06332689
19	0xbf2a6fa4	-0.665766
20	0xbe882bca	-0.26595908
21	0x3ed3d63c	0.41374385
22	0x3e63aa44	0.2223292
23	0xbdfca696	-0.12336461
24	0xbe30d701	-0.17269517
25	0x3f573d75	0.8407815
26	0x3ec76e02	0.38951117
27	0xbf40f351	-0.7537127
28	0xbf15f4df	-0.5857677
29	0x3eb6b4bf	0.35684773
30	0x3f2f993c	0.6859319
31	0x3f6ed95e	0.93300426
32	0x3e36a45d	0.17836137
33	0x3e469031	0.19390942
34	0x3e924752	0.28570038
35	0x3ef07f9e	0.46972364
36	0x3b4ca14c	0.003122407
37	0xbdd6bb81	-0.10484982
38	0xbec59205	-0.38587967
39	0xbdacb528	-0.0843299
40	0xbefd4087	-0.49463293
41	0xbed445a4	-0.41459382
42	0x3e2943fa	0.16529837
43	0xbf0a8c09	-0.54119927
44	0xbd8799cc	-0.06621131
45	0x3f032fae	0.5124463
46	0x3e51a132	0.20471647
47	0xbd1ae7e1	-0.037818793
48	0xbeb4dfab	-0.35326895
49	0x3f114918	0.5675216
50	0x3f1e3bcd	0.6181
51	0x3f0e30c3	0.55543154
52	0xbf0c62f2	-0.5483848
53	0xbda83611	-0.08213437
54	0xbea37e57	-0.31932327
55	0xbf491f13	-0.7856304
56	0xbf142e01	-0.57882696
57	0xbf3d5545	-0.73958236
58	0xbf745810	-0.9544687
59	0xbdc9ee0f	-0.09859859
60	0x3e9c7c17	0.30563423
61	0x3f86f830	1.0544491
62	0x3df09ba8	0.11748439
63	0xbf5d698a	-0.86489165
64	0xbd838403	-0.064216636
65	0xbeaefc9a	-0.34177095
66	0x3f112e7a	0.5671154
67	0xbe962d47	-0.2933142
68	0xbc638f38	-0.0138891265
69	0xbefd55b8	-0.4947946
70	0xbea41415	-0.3204657
71	0xbee918fe	-0.4552688
72	0x3f2b6dbb	0.6696431
73	0x3ce4aa63	0.027913278
74	0x3edd26fc	0.43193805
75	0xbe696832	-0.22793654
76	0x3e8a7cc2	0.27048308
77	0x3e0b45ce	0.13600847
78	0x3f3a15c7	0.7268948
79	0x3f8902d4	1.0703988
80	0xbe21b968	-0.15793383
81	0x3f14dcfd	0.581497
82	0x3f917137	1.1362675
83	0x3e912a92	0.2835279
84	0xbedf5449	-0.43618992
85	0xbf2f283d	-0.68420774
86	0x3eae4f78	0.34045005
87	0xbe8ede9e	-0.27904218
88	0x3e83eb0a	0.25765258
89	0xbed5e422	-0.41775614
90	0xbe8af298	-0.2713821
91	0xbe72714c	-0.23676032
92	0xbe71b051	-0.23602416
93	0x3d985196	0.07437436
94	0xbdba4dc0	-0.09096861
95	0xbeb29af2	-0.3488384
96	0x3ed635f2	0.41838032
97	0x3f44d6fb	0.76890534
98	0xbef23297	-0.47304222
99	0x3ed27044	0.41101277
100	0xbec83905	-0.39106002
101	0xbf0d715b	-0.5525109
102	0x3e477483	0.1947804
103	0x3f2cf213	0.67556876
104	0xbc8c8d4c	-0.01715722
105	0x3dc4da61	0.09611965
106	0x3e494220	0.19654131
107	0xbef6ae34	-0.4817978
108	0xbe57a418	-0.2105869
109	0xbf2f652a	-0.6851374
110	0xbe191f59	-0.14953364
111	0x3e2cae8e	0.16863462
112	0x3f4caa64	0.79947495
113	0x3dc67e6f	0.09692084
114	0x3f071058	0.52759314
115	0xbe2ba1cb	-0.16760938
116	0x3ea0da4a	0.3141654
117	0xbda9e77a	-0.08296104
118	0xbe83b621	-0.2572489
119	0xbdc12c40	-0.09432268
120	0x3e9db829	0.30804566
121	0x3d6d715e	0.057969444
122	0x3f26b7ea	0.6512438
123	0x3e12f55f	0.14351414
124	0xbea5586f	-0.32294032
125	0xbef288d3	-0.47370014
126	0x3f43ec56	0.76532495
127	0x3eea42cc	0.45754087
128	0x3eb413aa	0.35171252
129	0xbc604165	-0.013687466
130	0x3f90d504	1.1315007
131	0xbdab365b	-0.08359977
132	0x3efa0b59	0.48836783
133	0xbeab1fd0	-0.3342271
134	0xbeee2c1f	-0.46518037
135	0x3f0341f0	0.5127249
136	0x3f72388c	0.94617534
137	0xbdd237cb	-0.10264548
138	0xbd8cb731	-0.068708785
139	0xbe1e7c4c	-0.15477103
140	0xbe8f5302	-0.27993017
141	0xbe1c26d0	-0.15249181
142	0xbece4358	-0.40285754
143	0xbbc9369d	-0.0061405436
144	0xbe91a879	-0.28448847
145	0xbe457ceb	-0.19285934
146	0xbf412fe2	-0.7546369
147	0x3f0aa6cc	0.5416076
148	0x3f71e4e5	0.9448989
149	0x3e77e23b	0.24207394
150	0x3de786d0	0.1130501
151	0xbea8af90	-0.32946444
152	0x3ecf0ca2	0.40439326
153	0xbf06b115	-0.52613956
154	0xbe4ac2a6	-0.19800815
155	0xbd6449ed	-0.055734564
156	0xbdf24aa7	-0.11830645
157	0x3e5020c5	0.20325
158	0xbe968d5c	-0.29404724
159	0xbe861384	-0.26186764
160	0xbf4ca857	-0.79944366
161	0xbe41ef87	-0.18939029
162	0xbe8dc511	-0.27689412
163	0xbe3e294b	-0.1857044
164	0xbe332f9c	-0.1749863
165	0x3f05a421	0.52203566
166	0x3f5716b1	0.84019
167	0x3ed02ca3	0.40659055
168	0x3df5ee55	0.12008349
169	0xbf082173	-0.5317604
170	0x3d5fbfd9	0.05462632
171	0xbc84debc	-0.01621949
172	0xbefafd56	-0.49021405
173	0x3d68382b	0.05669419
174	0xbb3e2d14	-0.0029018568
175	0xbf6205f6	-0.88290346
176	0xbee2766d	-0.44230977
177	0x3ca9d1c1	0.020729901
178	0xbecb20eb	-0.39673552
179	0xbe777e0a	-0.24169174
180	0xbf30a5ee	-0.6900319
181	0xbf577111	-0.841569
182	0xbf0d3d2d	-0.5517147
183	0x3f2b6b06	0.6696018
184	0x3f0f8e92	0.5607692
185	0x3e600655	0.21877415
186	0xbe97277f	-0.2952232
187	0xbf2a96fa	-0.6663662
188	0xbf376047	-0.7163128
189	0xbee6d05a	-0.45080835
190	0xbd6a3085	-0.057175178
191	0xbf3af2d2	-0.73026764

network.0.bias f4 [64]
0	0x3ea39716	0.31951207
1	0x3e97ebd1	0.296721
2	0x3e7a33d8	0.2443384
3	0x3ed7f82b	0.42181525
4	0x3eb850ef	0.35999247
5	0xbc51fd6f	-0.012816771
6	0x3d2efb25	0.04271998
7	0x3e5e8e89	0.2173406
8	0x3e15af98	0.14617765
9	0x3e2d9ee9	0.1695515
10	0xbd30accd	-0.043133546
11	0x3dc17ca3	0.09447601
12	0xbe26cdf2	-0.162895
13	0xbe5b8505	-0.21437462
14	0xbd26c822	-0.040718205
15	0xbf06d5c6	-0.5266994
16	0x3ecfec91	0.40610173
17	0xbee4024b	-0.44533
18	0x3e7c1583	0.24617581
19	0x3ed3aebd	0.41344252
20	0xbcb89d62	-0.022535983
21	0x3d8c420f	0.06848537
22	0xbe67cacc	-0.22635955
23	0xbefe303d	-0.49646178
24	0x3e1e493d	0.15457626
25	0x3db1a6f8	0.08674425
26	0xbcd56062	-0.026046935
27	0xbd473ee5	-0.048643965
28	0x3ee64e69	0.44981697
29	0xbeaa3b03	-0.33248147
30	0xbcb0e7a5	-0.021594832
31	0xbef81588	-0.48453927
32	0x3e112766	0.14175186
33	0xbf03e00a	-0.5151373
34	0x3ebdef11	0.37096456
35	0xbe0366b3	-0.12832145
36	0x3e227132	0.15863493
37	0xbc496e94	-0.01229443
38	0x3e0aeaa6	0.13566074
39	0xbe457e34	-0.19286424
40	0xbecad078	-0.39612174
41	0xbe97c4c0	-0.29642296
42	0x3df185b1	0.11793078
43	0x3adde850	0.0016930196
44	0xbe55ac2f	-0.20866464
45	0xbc906757	-0.017627401
46	0xbeef7e04	-0.4677583
47	0xbeeae4c5	-0.45877662
48	0x3e31661a	0.17324105
49	0xbd13b67e	-0.03606271
50	0xbeeca777	-0.46221516
51	0x3e3272a1	0.1742654
52	0xbd730383	-0.05932952
53	0x3e2e4d99	0.17021789
54	0x3e845214	0.2584387
55	0xbd3da7be	-0.04630255
56	0x3e9e7e48	0.3095572
57	0xbe5b19b4	-0.21396524
58	0x3dc44b90	0.09584725
59	0xbd47fb05	-0.048823375
60	0x3e43f478	0.19136226
61	0xbd38b732	-0.045096584
62	0x3eccc920	0.39997196
63	0x3ea79f45	0.327387

network.3.weight f4 [32, 64]
0	0xbd739397	-0.059466925
1	0x3d8b61c1	0.068057545
2	0xbd220995	-0.03955992
3	0xbe12b18c	-0.14325541
4	0x3d45a1dc	0.048250064
5	0x3eb5ecf2	0.35532337
6	0xbdc60c6e	-0.096703395
7	0xbd15287d	-0.036415566
8	0xbd7bd9c4	-0.061486974
9	0xbd8c8290	-0.0686084
10	0x3e896036	0.26831216
11	0x3dbd2f5e	0.0923755
12	0x3ddd5428	0.10807067
13	0x3cc8fb38	0.024533853
14	0xbdec4a08	-0.11537558
15	0xbddb25f8	-0.10700601
16	0xbdc3378c	-0.09532079
17	0xbd2c3788	-0.042045146
18	0x3c9a2105	0.018814573
19	0x3b8d6da6	0.0043160496
20	0x3ea9cde0	0.33164883
21	0xbda42fdc	-0.08016941
22	0xbdafe90c	-0.08589372
23	0xbda8d9f4	-0.08244696
24	0xbd891b11	-0.06694616
25	0xbd87f856	-0.06639163
26	0x3ed4f41e	0.41592497
27	0x3de54e42	0.11196567
28	0xbcf23cc3	-0.02956999
29	0xbdd51936	-0.10405199
30	0x3c689690	0.014196053
31	0xbc61e250	-0.013786867
32	0xbc121ba1	-0.00891772
33	0xbdad7d84	-0.08471206
34	0x3d065d51	0.032803837
35	0xbdfc3292	-0.12314333
36	0x3d594b4a	0.053050317
37	0x3e5e2e27	0.21697293
38	0xbca65b26	-0.020307135
39	0x3def3b88	0.116812766
40	0x3d41bf73	0.04730172
41	0x3d558958	0.052132934
42	0xbaef760c	-0.0018269434
43	0x3ec16193	0.37769756
44	0x3dd31068	0.103058636
45	0x3ec631f7	0.38709995
46	0x3d8cbc70	0.06871879
47	0x3d3080c8	0.043091565
48	0xbd69c1a1	-0.057069425
49	0x3e8b1156	0.27161664
50	0xbddb9398	-0.10721511
51	0xbd59d90d	-0.05318551
52	0xbc60c900	-0.013719797
53	0x3c2ce948	0.010553665
54	0x3c3a3beb	0.011366825
55	0x3e077bb1	0.13230778
56	0x3d9c655b	0.076365195
57	0xbbd1f9e0	-0.0064079612
58	0xbd87f380	-0.06638241
59	0x3cadb5a8	0.021204785
60	0x3c65c179	0.014023178
61	0x3e07ade9	0.13249935
62	0x3dcf7df4	0.101314455
63	0x3de5420f	0.1119424
64	0xbd5cd2b2	-0.053911872
65	0x3de6e033	0.11273231
66	0xbbb72a1c	-0.0055897366
67	0xbd39a58f	-0.045323905
68	0x3d53f6d2	0.051749058
69	0xbf053137	-0.5202822
70	0x3e8c4f0d	0.2740406
71	0x3cc83595	0.024439612
72	0xbd806a86	-0.06270318
73	0x3e0dbcfd	0.13841625
74	0xbe6b5b9c	-0.22984165
75	0xbca03f47	-0.019561423
76	0x3da19eac	0.078915924
77	0xbd8c55e2	-0.06852318
78	0x3d09ddfc	0.033658966
79	0xbd410f0c	-0.04713349
80	0xbd221407	-0.03956988
81	0xbda415d2	-0.080119744
82	0x3c34cda2	0.011035355
83	0x3b5426e2	0.0032371809
84	0xbeed2c61	-0.4632292
85	0x3e0befed	0.13665743
86	0x3dd4cef6	0.10391037
87	0x3c9fcb78	0.019506201
88	0xbcae602e	-0.021286096
89	0xbba612cf	-0.00506816
90	0xbebf45b1	-0.37357858
91	0xbe961d6a	-0.29319316
92	0x3df20820	0.11817956
93	0xbddb3e90	-0.10705292
94	0x3cdfbd78	0.027312025
95	0xbcca2048	-0.024673596
96	0xbc24e361	-0.010063977
97	0x3ccbb010	0.024864227
98	0x3c7cc56c	0.015427928
99	0x3de9eb08	0.11421782
100	0x3d95f932	0.07322921
101	0xbec517ef	-0.38494822
102	0xbdb061c0	-0.08612394
103	0x3d8b6f9e	0.06808399
104	0xbd4d4b38	-0.050120562
105	0xbddf6602	-0.10908128
106	0xbd973e31	-0.07384909
107	0xbebc862d	-0.36821118
108	0xbd609690	-0.054831088
109	0xbf049378	-0.5178752
110	0xbdfcf380	-0.123511314
111	0x3d641758	0.055686325
112	0x3db07126	0.08615331
113	0xbebcaddc	-0.36851394
114	0xbc7c7640	-0.015409052
115	0x3e02e812	0.1278384
116	0x3dc3d8d8	0.09562844
117	0x3dbcf033	0.09225502
118	0x3d328c8e	0.043591075
119	0xbe64cc5f	-0.22343586
120	0x3d81663a	0.06318326
121	0x3d2447f4	0.040107682
122	0x3df23fbb	0.11828562
123	0x3cc80bf0	0.024419755
124	0x3e3fa330	0.18714595
125	0xbe722215	-0.23645814
126	0xbbdd58d7	-0.0067549753
127	0x3d4ae220	0.049532056
128	0xbbe46cc9	-0.006970976
129	0x3b0bcf07	0.0021333115
130	0x3d95e2ea	0.07318671
131	0x3d2dc393	0.042422842
132	0xbc2f0b18	-0.010683797
133	0x3ee5329c	0.44765174
134	0xbe8e748f	-0.27823302
135	0xbd206861	-0.039162043
136	0x3e0aad17	0.13542591
137	0xbb450cc8	-0.0030067433
138	0x3e14c9ef	0.14530157
139	0x3dad2336	0.084539816
140	0xbd968a0a	-0.073505476
141	0xbdcf2068	-0.10113603
142	0xbd367098	-0.04454097
143	0xbc4b5a60	-0.012411684
144	0x3dd098b6	0.10185377
145	0x3de29b04	0.11064723
146	0xbdbe6adc	-0.092977256
147	0x3daf2053	0.08551087
148	0x3e98c45e	0.29837316
149	0xbde8cd0c	-0.113672346
150	0x3cdf1328	0.027230814
151	0x3d36c1c8	0.044618398
152	0x3d420fca	0.04737834
153	0xbd8a4197	-0.067507915
154	0x3eef87cc	0.46783292
155	0x3e19ff93	0.150389
156	0xbbf939dd	-0.007605775
157	0x3d8898da	0.06669779
158	0xbd370cd8	-0.044689983
159	0xbdadbcce	-0.08483277
160	0x3d1d43f6	0.03839489
161	0x3df425ca	0.1192127
162	0x3d937ae4	0.07201174
163	0x3c91a658	0.017779514
164	0x3c2aad8c	0.010417353
165	0x3e64d4bc	0.22346777
166	0x3bfb3321	0.007666007
167	0x3d49b45c	0.04924427
168	0xbb2f2e01	-0.0026730301
169	0xbcc28320	-0.023744166
170	0x3d31defb	0.04342554
171	0x3eb67e47	0.35643217
172	0xbd034aa0	-0.03205359
173	0x3ef532eb	0.4789041
174	0x3cef9a70	0.029248446
175	0xbde1d11e	-0.11026214
176	0xbd1e9367	-0.038714793
177	0x3e9fdba5	0.31222263
178	0x3ddf2198	0.108950794
179	0xbc8ee912	-0.017445121
180	0x3dfae7e8	0.12251264
181	0xbd3831b4	-0.044969276
182	0x3abe974b	0.0014540938
183	0x3e568bf7	0.2095183
184	0x3c712114	0.014717359
185	0xbdbd21f8	-0.09234995
186	0xbe5b9dc5	-0.21446903
187	0x3ddb15e0	0.10697532
188	0xbe1d9e18	-0.15392339
189	0x3eb851c9	0.35999897
190	0xbd599548	-0.05312088
191	0x3db52e18	0.08846682
192	0x3d72bdcc	0.059263036
193	0x3d1495fd	0.036275852
194	0x3c9562bd	0.018235559
195	0x3db24b34	0.0870575
196	0xbcdd6086	-0.027023565
197	0xbed99df3	-0.42503318
198	0x3e8d69c4	0.27619755
199	0xbd227cbe	-0.039669745
200	0xbcaa1ddd	-0.020766193
201	0xbd16342f	-0.03667086
202	0xbe5401f3	-0.20703869
203	0x3d838e00	0.06423569
204	0xbd2e90cc	-0.042618558
205	0xbcf208a0	-0.029545128
206	0xbdb82cb4	-0.089929014
207	0x3cf23af8	0.029569134
208	0xba38bd6a	-0.0007047268
209	0x3d79cba4	0.060985222
210	0xbd055d98	-0.03255996
211	0xbdaaf41d	-0.08347342
212	0xbefc5b15	-0.4928824
213	0x3d3b1d0b	0.045681994
214	0xbb8885e0	-0.00416635
215	0x3db73022	0.089447275
216	0x3ca596b6	0.020213466
217	0xbd49d42e	-0.049274616
218	0xbeb2a1ab	-0.34888968
219	0xbef15010	-0.47131395
220	0x3ccf0cfb	0.025274744
221	0x3dcd8140	0.10034418
222	0xbcf2b030	-0.029625028
223	0x3da71672	0.08158578
224	0x3cfe4d1a	0.031042624
225	0x3cb7f8b0	0.02245745
226	0x3c6b1063	0.014347169
227	0xbc828ce0	-0.015936315
228	0xbd0633dc	-0.0327643
229	0xbee1f431	-0.44131616
230	0xbd785398	-0.060626596
231	0x3c7d5710	0.015462652
232	0xbd0b733b	-0.03404544
233	0xbdfb24a0	-0.12262845
234	0x3dac1d15	0.084039845
235	0xbf0065da	-0.50155413
236	0x3d18b65c	0.037283286
237	0xbf09514b	-0.5363967
238	0x3dfd5f06	0.1237164
239	0x3d40c3d8	0.04706177
240	0xbb885d11	-0.004161485
241	0xbec3f7c8	-0.3827498
242	0x3d1dc05c	0.038513526
243	0xbd926584	-0.07148269
244	0xbdadd0c8	-0.084870875
245	0x3d1a0142	0.037598856
246	0xbdb79d39	-0.08965535
247	0xbe915e77	-0.28392383
248	0x3d665557	0.05623373
249	0x3cb9e5f0	0.02269265
250	0x3cb08db2	0.02155194
251	0xbd2f98a8	-0.042870194
252	0xbd68b8b6	-0.05681678
253	0xbecbd905	-0.3981401
254	0x3d1beeb4	0.038069442
255	0x3d00cc04	0.031444564

network.3.bias f4 [32]
0	0x3daf049e	0.085458025
1	0xbd46bf30	-0.048522174
2	0xbe13b326	-0.14423808
3	0x3dc3fa7e	0.09569262
4	0x3d1cafe3	0.038253676
5	0x3cc95f84	0.024581678
6	0x3e047cd6	0.12938246
7	0xbcc5b64c	-0.024134777
8	0x3d506590	0.050878108
9	0xb8984da7	-7.262389e-05
10	0xbc8ce93e	-0.017201062
11	0x3d5112a4	0.051043168
12	0x3e598539	0.21242227
13	0xbddbb8aa	-0.10728581
14	0x3e08c606	0.1335679
15	0x3d8de4d7	0.06928413
16	0x3ce1b22d	0.027550781
17	0xbd92c391	-0.071662076
18	0x3dead682	0.11466695
19	0x3d9e6206	0.0773354
20	0xbd1d8431	-0.038456146
21	0x3e0ec453	0.13942079
22	0xbd37c4a7	-0.044865277
23	0xbc86346c	-0.016382419
24	0xbd12c5bf	-0.035833117
25	0x3d92dc6f	0.071709506
26	0x3ccda7fa	0.025104512
27	0x3d38048e	0.04492622
28	0xbd458504	-0.048222557
29	0x3d2128bf	0.0393455
30	0xbdb37644	-0.08762792
31	0xbc0ededd	-0.008720127

network.6.weight f4 [16, 32]
0	0x3d7e6f7c	0.06211804
1	0x3e545b68	0.20737994
2	0xbd90a334	-0.070623785
3	0x3e0ad8e3	0.13559298
4	0xbdb04d17	-0.08608454
5	0xbde34913	-0.11097922
6	0x3ddd7fb3	0.10815372
7	0x3c009b02	0.007849457
8	0xbe218b57	-0.1577581
9	0x3e2dc193	0.16968374
10	0xbe1ac0bc	-0.15112585
11	0xbdcf20df	-0.101136915
12	0x3d15d3b6	0.036578856
13	0xbe0546dd	-0.13015313
14	0x3b6463b1	0.003484946
15	0x3e032d4c	0.12810248
16	0xbe1b2d2a	-0.15153947
17	0xbd269bb1	-0.040675823
18	0xbe122724	-0.14272743
19	0xbceed720	-0.029155314
20	0x3defa856	0.117020294
21	0x3e088c61	0.133348
22	0xbe0e1213	-0.13874082
23	0x3da69a69	0.0813492
24	0x3ce5fc82	0.028074507
25	0x3c2430b5	0.010021378
26	0x3cd559da	0.026043821
27	0xbe05310d	-0.13006993
28	0x3d8c0c1a	0.06838246
29	0xbcaf869a	-0.021426488
30	0x3d36e33e	0.04465031
31	0x3d005f81	0.03134108
32	0x3d3c1424	0.045917645
33	0xbdc7e4e1	-0.09760452
34	0x3e8fd155	0.28089395
35	0xbe8bb12a	-0.27283603
36	0xbd9c4fe6	-0.07632427
37	0xbd785273	-0.060625505
38	0xbe3ad12c	-0.18243855
39	0x3e3a9e81	0.18224527
40	0x3e0b4bb5	0.13603099
41	0x3e28f762	0.16500619
42	0x3e542703	0.20718007
43	0x3cc84ed0	0.024451643
44	0x3dc3aa5e	0.09553979
45	0x3de86fb9	0.113494344
46	0x3db8971d	0.090131976
47	0x3e738d8f	0.23784469
48	0xbe25f565	-0.16206892
49	0x3ea9eec2	0.3318997
50	0x3de7cbe8	0.11318189
51	0xbe754122	-0.23950627
52	0x3d8278d1	0.063707
53	0xbe9d3786	-0.30706424
54	0x3e296a62	0.16544488
55	0xbe5db1f8	-0.21649921
56	0xbe66ac79	-0.2252673
57	0xbe6cfd38	-0.2314347
58	0x3e879dd1	0.26487592
59	0x3c893de9	0.016753154
60	0x3e7edca4	0.24888855
61	0x3cb62b6a	0.022237498
62	0xbe1fbae5	-0.15598638
63	0xbe47a765	-0.1949745
64	0xbc0865ed	-0.008325082
65	0x3ea73d7d	0.326641
66	0xbda78df9	-0.08181376
67	0x3ec4d948	0.38447022
68	0x3e69258b	0.22768228
69	0x3d919be9	0.071098156
70	0x3ea58794	0.3233
71	0xbe8273bd	-0.25478926
72	0xbe024a5b	-0.12723677
73	0xbbf335b8	-0.0074221753
74	0xbe39795b	-0.181127
75	0x3e40238b	0.18763559
76	0x3ddbbd45	0.1072946
77	0xbde587d7	-0.1120755
78	0x3e7d330f	0.24726509
79	0xbe28345f	-0.16426228
80	0x3ee79af6	0.45235413
81	0xbd5aef92	-0.05345113
82	0x3cc28d73	0.023749089
83	0x3ec0ea1b	0.37678608
84	0xbddbf07e	-0.107392296
85	0x3e6ecd36	0.2332047
86	0x3caee5c1	0.02134979
87	0x3ec6dd36	0.38840646
88	0x3e6f3f2c	0.23363942
89	0x3ebbe0c4	0.3669492
90	0x3d702683	0.058630478
91	0xbe0621d8	-0.13098848
92	0xbd6961e4	-0.05697812
93	0xbde963b4	-0.1139597
94	0xbd375713	-0.044760775
95	0x3eb1497a	0.3462637
96	0xbe353839	-0.17697228
97	0x3e81558c	0.2526058
98	0xbe7df7a7	-0.24801503
99	0x3e888c4d	0.2666954
100	0x3e99a788	0.3001063
101	0x3dc4f69e	0.09617351
102	0x3e780e43	0.2422419
103	0xbde3a12b	-0.11114725
104	0xbddaf972	-0.10692109
105	0xbe1eab0b	-0.15494935
106	0xbe45939b	-0.19294588
107	0x3ddf9e8b	0.109189115
108	0x3df83112	0.121187344
109	0xbdc648a9	-0.096818276
110	0xbdbfccfd	-0.0936527
111	0xbdd35e30	-0.10320699
112	0x3e9060d5	0.28198877
113	0x3c6fc968	0.014635421
114	0xbb8b0711	-0.0042427857
115	0x3e2bedd6	0.16789946
116	0xbe283a87	-0.16428576
117	0x3eb70e5c	0.35753143
118	0xbb49fbdb	-0.0030820284
119	0x3e3d4da2	0.18486646
120	0x3eb76092	0.35815865
121	0x3c533062	0.012889953
122	0xbe35240a	-0.17689529
123	0xbdabf704	-0.08396724
124	0xbcf400aa	-0.029785473
125	0xbe197ef9	-0.14989842
126	0xbda90448	-0.0825277
127	0x3e950e25	0.29112354
128	0x3e798f82	0.2437115
129	0xbe83d82b	-0.2575086
130	0xbd0a491a	-0.03376112
131	0x3bbe9332	0.005815887
132	0xbe0c326b	-0.13691108
133	0x3d7de878	0.061989278
134	0xbca9ec38	-0.02074252
135	0x3da76cb0	0.08175027
136	0x3de2b01f	0.11068749
137	0xbd050d6e	-0.03248351
138	0x3e3b9bf3	0.18321209
139	0xba806e07	-0.0009798416
140	0x3da75fdd	0.08172581
141	0xbd1b88f2	-0.037972398
142	0x3b9c0a02	0.004761935
143	0x3df27297	0.118382625
144	0xbe508d70	-0.20366454
145	0x3e0b207d	0.13586612
146	0x3da5632b	0.080755554
147	0xbdf2ee64	-0.11861876
148	0x3d9b6173	0.07586946
149	0xbe15ee0f	-0.14641593
150	0xbe136d87	-0.1439725
151	0xbe622e52	-0.22087982
152	0x3c991638	0.018687353
153	0x3d03661a	0.032079794
154	0x3e101c47	0.14073287
155	0x3ea760d9	0.32691076
156	0x3c91c664	0.017794795
157	0xbd601b58	-0.054713577
158	0x3dda07b5	0.10646001
159	0xbd0497c5	-0.0323713
160	0x3e38a860	0.1803298
161	0xbe5d1ab5	-0.21592219
162	0x3e962570	0.29325438
163	0xbd7331d9	-0.05937371
164	0xbda7f50e	-0.08201037
165	0xbcf0eddb	-0.029410293
166	0xbdb3166a	-0.087445095
167	0x3de3c58a	0.11121662
168	0x3e99f6d3	0.30071124
169	0xbd4fb44b	-0.05070905
170	0x3e2ab0b2	0.16668966
171	0x3e177697	0.14791332
172	0x3e10058b	0.14064614
173	0xbd2eb1e0	-0.042650104
174	0xbd743a19	-0.05962572
175	0x3d518e48	0.05116108
176	0xbe23946c	-0.15974587
177	0x3df99f13	0.12188544
178	0x3e259d30	0.16173244
179	0x3d1492a1	0.03627265
180	0x3e68664c	0.22695273
181	0xbc582dbe	-0.0131945
182	0xbe0cdfb9	-0.13757218
183	0xbe46aac6	-0.19401082
184	0xbdfa94ee	-0.12235437
185	0x3d893ab8	0.06700653
186	0x3e299a61	0.16562797
187	0x3e4ccc9c	0.19999927
188	0x3e15791c	0.14596981
189	0xbe23c921	-0.15994693
190	0x3e1e9f0a	0.15490356
191	0xbe741b3a	-0.23838511
192	0x3d2c842a	0.04211823
193	0xbe364372	-0.17799166
194	0x3e138f1b	0.14410059
195	0xbd34818f	-0.04406887
196	0xbd95fb1e	-0.073232874
197	0xbd18039f	-0.03711283
198	0xbe25d66a	-0.16195074
199	0x3e594109	0.21216215
200	0x3dc9ec14	0.098594815
201	0xbdffe081	-0.124939926
202	0x3e60483b	0.21902554
203	0x3e7a5863	0.2444778
204	0xbca922e0	-0.020646513
205	0xbde12279	-0.10992903
206	0xbcd7f234	-0.026360609
207	0x3e0ba645	0.13637646
208	0xbe1f75fc	-0.15572351
209	0x3d937eef	0.07201945
210	0x3e5c6e86	0.21526536
211	0xbc05bb26	-0.008162295
212	0x3e0bdcf7	0.1365851
213	0xbd8c3c2f	-0.068474166
214	0x3e0d43e7	0.13795434
215	0x3cd626b6	0.026141506
216	0xbd55a419	-0.05215845
217	0xbdef6eb1	-0.116910346
218	0x3e97fb34	0.2968384
219	0x3ce254f0	0.027628392
220	0xbd331dd3	-0.043729614
221	0xbde6b191	-0.11264337
222	0x3e1f78e6	0.15573463
223	0xbe360f83	-0.17779355
224	0x3caf38be	0.021389361
225	0x3e742bf4	0.23844892
226	0xbe0bcf30	-0.13653255
227	0x3e4f53a1	0.20246746
228	0x3e4ef9cb	0.20212476
229	0x3df2de80	0.11858845
230	0x3df14986	0.117816016
231	0xbe2914ad	-0.16511793
232	0x3de1416d	0.10998807
233	0xbdf4bd59	-0.11950178
234	0x3c8cb248	0.017174855
235	0x3d330498	0.043705553
236	0xbbdfb7a8	-0.0068273135
237	0xbc74eba1	-0.014948756
238	0x3df022b1	0.11725367
239	0xbe222832	-0.15835646
240	0x3e95926d	0.29213277
241	0x3de35452	0.11100067
242	0x3e64f66a	0.22359625
243	0x3e3590f5	0.17731078
244	0xbe018dff	-0.12651823
245	0x3e8c3103	0.27381143
246	0xbdb59ce9	-0.08867819
247	0x3ed150f3	0.40882072
248	0x3e9b7f30	0.30370474
249	0x3e8c3248	0.27382112
250	0x3e000f92	0.1250594
251	0x3bc0ab48	0.0058797933
252	0xbe32406e	-0.1740739
253	0x3e240e45	0.16021068
254	0xbdccdecb	-0.10003432
255	0x3e94bac6	0.29048747

network.6.bias f4 [16]
0	0xbe307b63	-0.17234568
1	0x3e4f368a	0.20235649
2	0x3e6b1ac5	0.2295943
3	0x3d306ad3	0.043070626
4	0x3d204fdf	0.03913867
5	0xbd2919f5	-0.04128452
6	0x3c78b5f5	0.015180101
7	0x3e222915	0.15835984
8	0xbc026b62	-0.007960172
9	0x3e5a4aaa	0.21317545
10	0x3d4dc9bc	0.050241217
11	0x3dcfc6a9	0.10145313
12	0x3e13ee67	0.14446412
13	0x3e316a2e	0.1732566
14	0x3e7d2066	0.2471939
15	0x3dcef1eb	0.10104736

network.8.weight f4 [1, 16]
0	0xbddecd5d	-0.10879014
1	0x3eb1305a	0.34607202
2	0xbe868964	-0.26276696
3	0xbe9d4267	-0.30714723
4	0x3e3519a9	0.1768557
5	0x3ea29ed6	0.31761807
6	0x3ea3e105	0.32007614
7	0xbe94e6f7	-0.29082462
8	0xbeaf8912	-0.34284264
9	0xbebba84f	-0.36651847
10	0x3de6e734	0.11274567
11	0x3ee4cf8c	0.44689596
12	0xbe9c540e	-0.3053288
13	0x3dd3f787	0.103499465
14	0xbea906e4	-0.3301307
15	0xbe80ad48	-0.25132203
