第六次作业10245501405杨云天/model/Microbiology.pth (torch, 15379 bytes, 7 tensors)

network.0.weight f4 [64, 3]
0	0x3eb6196f	0.3556628
1	0xbe64fbb0	-0.22361636
2	0xbefda4ef	-0.49539897
3	0xbea6b1d6	-0.32557553
4	0xbe2804fe	-0.16408154
5	0x3e36f47a	0.17866698
6	0xbedf974f	-0.43670127
7	0xbe42726b	-0.1898896
8	0x3e83e6fb	0.25762162
9	0x3f2bb00e	0.67065513
10	0x3f33f06f	0.7028875
11	0x3da311dd	0.079623915
12	0x3e87f044	0.26550496
13	0x3f81a71b	1.0129122
14	0xbdc613b4	-0.09671727
15	0xbe5e6aac	-0.2172038
16	0xbcda3046	-0.026634347
17	0x3f17b3d8	0.59258795
18	0x3eed0d4f	0.46299216
19	0x3f4cbf81	0.7997971
20	0xbe9ef5d3	-0.31046924
21	0xbe9e8802	-0.3096314
22	0xbe3a4942	-0.18192008
23	0x3e9df322	0.30849558
24	0xbea055de	-0.3131551
25	0xbf610681	-0.8790055
26	0xbe407339	-0.18793954
27	0xbf1b3bd9	-0.60638195
28	0xbeea200d	-0.45727578
29	0xbf5a3c27	-0.85248035
30	0xbed41761	-0.41424087
31	0xbeb2e57b	-0.34940705
32	0xbe355450	-0.17707944
33	0x3e6c1a8a	0.23056999
34	0x3f5be810	0.85900974
35	0xbc991cec	-0.018690549
36	0x3df4ce69	0.11953432
37	0x3f9c9506	1.2232978
38	0x3f154386	0.5830616
39	0xbe063179	-0.1310481
40	0xbf0d960d	-0.55307084
41	0x3e2f452b	0.17116229
42	0xbe6834a3	-0.2267633
43	0x3f6cbb3d	0.924732
44	0x3ec49ebf	0.38402364
45	0x3e1ff058	0.15619028
46	0xbec58ede	-0.38585562
47	0x3f2532c8	0.6453061
48	0x3da867af	0.08222901
49	0xbcbcd00d	-0.023048425
50	0x3eec45fc	0.46147144
51	0x3f0e8a11	0.5567942
52	0x3e2de53c	0.16981977
53	0x3cb85780	0.02250266
54	0x3eefdc20	0.4684763
55	0xbdbe7895	-0.09300343
56	0x3d31c423	0.04339994
57	0xbdad7ae6	-0.08470707
58	0xbf58dd43	-0.8471262
59	0xbf274f63	-0.6535551
60	0x3e930f8e	0.28722805
61	0x3c29b6d3	0.01035853
62	0x3f2f480e	0.6846932
63	0x3ebf7938	0.3739717
64	0x3f436080	0.7631912
65	0x3e9e09ba	0.30866796
66	0xbd780c0b	-0.06055836
67	0xbe921bc2	-0.28536803
68	0xbdfecfdf	-0.12441992
69	0x3efc8fe6	0.49328536
70	0x3f9a5db6	1.2059848
71	0xbe0b1bd7	-0.13584839
72	0xbe8db969	-0.2768052
73	0xbf11ca12	-0.5694896
74	0x3ee47d9a	0.44627076
75	0x3d5d6628	0.054052502
76	0x3eaae3fa	0.33377057
77	0xbe5a16b3	-0.21297722
78	0x3f0ae166	0.5425018
79	0x3f129246	0.57254446
80	0x3ea57b91	0.32320836
81	0xbe934a38	-0.28767562
82	0x3ece9f2d	0.40355816
83	0x3eb660eb	0.35620818
84	0xbe1f6408	-0.15565503
85	0xbda1a4a3	-0.0789273
86	0xbef820d8	-0.48462558
87	0xbe4ccb36	-0.19999394
88	0xbedd4aef	-0.43221232
89	0xbf13a418	-0.5767226
90	0xbdc7f9c9	-0.097644396
91	0xbf4419be	-0.7660178
92	0xbf0a02dc	-0.53910613
93	0x3ec82e84	0.3909799
94	0x3f7ec78f	0.9952325
95	0x3e740b3b	0.23832409
96	0x3f014c3e	0.5050696
97	0x3f749b0e	0.95549095
98	0x3f09dfc7	0.5385708
99	0x3e419e3f	0.18908022
100	0xbeea0ac1	-0.4571133
101	0x3ecf1c5d	0.40451327
102	0xbdf420c4	-0.11920312
103	0x3fa74a2c	1.306951
104	0x3e48b83e	0.19601533
105	0xbe8c7ebd	-0.27440444
106	0xbe8964c4	-0.2683469
107	0x3e36ddf1	0.17858101
108	0xbf11b58d	-0.5691765
109	0x3e2ba465	0.1676193
110	0x3e9bd98c	0.30439413
111	0x3ef50a18	0.47859263
112	0x3f43e46c	0.7652042
113	0x3ed103b2	0.40823132
114	0xbf3b8124	-0.7324393
115	0xbee06ffa	-0.4383543
116	0xbf31b158	-0.6941123
117	0x3eabac98	0.33530116
118	0x3f2502a6	0.64457166
119	0xbe7ea9cd	-0.24869461
120	0xbded1a05	-0.115772285
121	0xbedf421f	-0.43605134
122	0xbf250c77	-0.64472145
123	0x3f0079cd	0.50185853
124	0xbeaefecf	-0.3417878
125	0x3e9d00a3	0.30664548
126	0xbd1dc86f	-0.038521226
127	0x3df82d80	0.121180534
128	0xbf0863c8	-0.53277254
129	0x3e6ef087	0.23333941
130	0xbea09db0	-0.31370306
131	0x3b8e86ce	0.004349566
132	0xbe535003	-0.20635991
133	0xbe83321e	-0.25624174
134	0xbe21f890	-0.15817475
135	0xbe77f65f	-0.24215077
136	0x3f330c61	0.69940764
137	0x3ee0073e	0.43755525
138	0x3ec798b3	0.38983688
139	0x3eea5032	0.4576431
140	0x3f3480bf	0.7050895
141	0x3d3387bd	0.043830622
142	0x3f8e9573	1.1139358
143	0x3eb85ae7	0.36006853
144	0x3e849045	0.2589132
145	0x3f392022	0.72314656
146	0x3f04b353	0.5183613
147	0x3ef15b35	0.47139898
148	0x3f1fd4b3	0.6243393
149	0x3f1fcb40	0.6241951
150	0xbea1820e	-0.31544536
151	0x3f0ef2bc	0.55839133
152	0xbcbdd348	-0.023172036
153	0xbf0a27b8	-0.53966856
154	0xbf15198a	-0.58242095
155	0xbf50cb09	-0.8155981
156	0x3edb6b51	0.42855313
157	0x3f88c4b8	1.0685034
158	0x3d0a1902	0.033715256
159	0x3eb9a996	0.36262196
160	0xbec2184c	-0.37909162
161	0x3dff4b13	0.12465491
162	0xbe2af81c	-0.16696209
163	0xbec87214	-0.39149535
164	0x3dc0ee1d	0.094204165
165	0xbf0db900	-0.5536041
166	0x3d112c10	0.035442412
167	0xbee126a1	-0.43974784
168	0x3ec82a4d	0.39094773
169	0x3f721c41	0.9457436
170	0x3f002b3f	0.5006599
171	0x3f0de7e8	0.55431986
172	0xbefde51e	-0.49588865
173	0xbedee1b9	-0.43531588
174	0x3ec93d35	0.3930451
175	0x3f82b420	1.021122
176	0x3f383b02	0.7196504
177	0xbeb7c3ef	-0.35891673
178	0x3d32abb5	0.043620784
179	0x3ef5950f	0.47965285
180	0xbdcb4245	-0.09924749
181	0x3faac2ea	1.3340733
182	0x3eefc3c9	0.4682906
183	0x3d9eb4ad	0.07749305
184	0xbf9bf905	-1.218537
185	0xbe8b0d43	-0.27158555
186	0xbe066730	-0.131253
187	0xbe4b47af	-0.19851564
188	0x3eb37f00	0.3505783
189	0x3dc85e6e	0.09783636
190	0x3dfe811c	0.124269694
191	0xbc198bbd	-0.009371695

network.0.bias f4 [64]
0	0xbf0a1d05	-0.5395053
1	0x3ea76e97	0.3270156
2	0xbf0580ef	-0.5214986
3	0x3e37c081	0.17944528
4	0xbbeefe69	-0.0072935116
5	0x3ed4c32e	0.4155516
6	0x3e200fee	0.15631077
7	0xbe851f23	-0.26000318
8	0x3d23c743	0.039984953
9	0x3dcd10f2	0.10012998
10	0xbecb3402	-0.39688116
11	0x3e1f03f2	0.15528849
12	0xbc79b167	-0.01524005
13	0xbc0fd67f	-0.008779167
14	0x3db3b2cc	0.08774337
15	0x3e460622	0.19338277
16	0xbedf34e5	-0.43595043
17	0xbf045586	-0.51693
18	0xbec0c5ee	-0.37651008
19	0x3e739799	0.23788299
20	0x3e1042e8	0.14088023
21	0xbcabf2dc	-0.020989828
22	0x3ea1f9aa	0.3163579
23	0xbc93d6d7	-0.01804678
24	0xbe274e02	-0.16338351
25	0xbe4878ac	-0.19577283
26	0x3cf7b5fa	0.03023814
27	0x3ca46a4d	0.02007022
28	0x3e22e7e2	0.15908769
29	0xbccce21b	-0.02501016
30	0x3e59e7b7	0.21279798
31	0xbcb74b88	-0.022374883
32	0x3d917d3d	0.071039654
33	0x3ead1bcf	0.3381028
34	0xbb3b4a3e	-0.0028578187
35	0xbef1d336	-0.47231454
36	0xbe7a0740	-0.24416828
37	0x3e35f8de	0.17770717
38	0x3d4f3950	0.050591767
39	0x3e96b679	0.2943609
40	0x3e5ac933	0.21365814
41	0xbf12bb7f	-0.57317346
42	0xbe715e9b	-0.23571245
43	0xbec97546	-0.39347285
44	0x3e93a22a	0.2883466
45	0x3c442b72	0.011973249
46	0xbccc0885	-0.024906406
47	0xbc31057e	-0.010804532
48	0xbcb1a5ed	-0.021685565
49	0xbd687689	-0.05675367
50	0xbed7a506	-0.4211809
51	0x3ed9fcd6	0.4257571
52	0xbc9fdc9d	-0.019514376
53	0xbeead224	-0.4586345
54	0xbea31748	-0.318537
55	0x3ec83c6c	0.39108598
56	0xbcc3de6e	-0.023909774
57	0xbe86201a	-0.26196367
58	0xbd0bb145	-0.034104604
59	0xbe3d2c0d	-0.18473835
60	0xbbe12a76	-0.006871517
61	0x3d56c5c5	0.0524347
62	0xbf0ae7b5	-0.54259807
63	0xbedc0ff9	-0.42980936

network.3.weight f4 [32, 64]
0	0x3b97df40	0.004634768
1	0xbc43d845	-0.011953418
2	0xbdc7814e	-0.0974146
3	0x3d816bb0	0.06319368
4	0x3ea6d0d9	0.32581213
5	0x3d71332c	0.058886692
6	0x3d21287d	0.039345253
7	0xbceb9868	-0.028759196
8	0xbe47d09b	-0.1951317
9	0xbe3cf681	-0.18453409
10	0xbd02c044	-0.03192164
11	0x3d887209	0.066623755
12	0x3ea2d3e4	0.31802285
13	0x3de596a6	0.112103745
14	0xbd91d9f5	-0.0712165
15	0x3d5d251c	0.05399047
16	0xbdd909a8	-0.10597545
17	0xbd714927	-0.058907654
18	0x3dc927ef	0.0982207
19	0xbda98e14	-0.082790524
20	0xbbad5147	-0.00528923
21	0x3e93c1ae	0.28858703
22	0xbd03cdf4	-0.032178834
23	0x3e628afc	0.22123331
24	0xbd759090	-0.05995232
25	0xbcdf74c5	-0.02727736
26	0x3d67c09c	0.05658017
27	0xbc912348	-0.017717019
28	0x3d78b7be	0.060722105
29	0xbc917e10	-0.017760307
30	0xbe10c6b5	-0.141383
31	0x3de087fb	0.10963436
32	0x3de66d03	0.11251261
33	0xbda9bfe4	-0.08288553
34	0x3eb1a41a	0.34695512
35	0x3d743d98	0.059629053
36	0xbdd28688	-0.10279566
37	0x3c0f64c0	0.008752048
38	0xbe366774	-0.17812902
39	0x3c4da61d	0.0125518115
40	0x3bd47aff	0.006484389
41	0x3dbfd4c4	0.09366754
42	0xbdb12aee	-0.08650766
43	0xbd4d37b4	-0.05010195
44	0xbcfc926f	-0.030831544
45	0x3e4f1ab1	0.20225026
46	0x3ddd4836	0.10804789
47	0x3e7354cb	0.23762815
48	0x3ead44d1	0.33841565
49	0x3e8489dd	0.2588643
50	0x3da33d42	0.079706684
51	0x3cb40bea	0.021978337
52	0x3ea0b99c	0.3139161
53	0xbd9f2710	-0.077711225
54	0xbce54db8	-0.02799116
55	0xbde98a4b	-0.114033304
56	0x3e52528c	0.20539302
57	0xbd5c6ef8	-0.053816766
58	0x3e86abfa	0.26303083
59	0xbdb529a0	-0.0884583
60	0x3e592b59	0.21207942
61	0xbd21f2f0	-0.039538324
62	0xbd7d49fc	-0.061838135
63	0xbd295bcc	-0.04134731
64	0xbdeb634c	-0.11493549
65	0x3c2e137b	0.010624762
66	0xbdd67dee	-0.10473238
67	0x3e045c58	0.12925851
68	0x3e4328ba	0.19058505
69	0x3d5c8b1e	0.05384361
70	0x3d79c87a	0.060982205
71	0x3dd943ce	0.10608636
72	0xbd97f73f	-0.07420205
73	0xbdb51751	-0.08842338
74	0x3da58e98	0.08083838
75	0x3cc152fd	0.023599142
76	0x3e1ccbac	0.1531207
77	0x3dbd1e5f	0.092343085
78	0xbd6f7830	-0.05846423
79	0x3d42de5a	0.047575332
80	0x3d3dd834	0.046348765
81	0x3aeab46a	0.0017906551
82	0xbcaa1e96	-0.020766538
83	0xbde55eb1	-0.111997016
84	0x3dcebd52	0.10094704
85	0x3ddb33be	0.107032284
86	0xbcc4ccbf	-0.024023412
87	0x3e940dca	0.2891677
88	0xbdda0f94	-0.106475025
89	0xbdb5ff6f	-0.08886611
90	0xbd43d412	-0.047809668
91	0x3caf29be	0.021382209
92	0x3da67e42	0.081295505
93	0x3d9c4a4a	0.07631357
94	0xbcc35d62	-0.02384824
95	0x3e1fbf74	0.15600377
96	0x3ad18c93	0.0015987329
97	0xbd48a6cd	-0.0489872
98	0x3e72986f	0.23690961
99	0xbdcc823e	-0.09985779
100	0xbdf1fe7e	-0.11816119
101	0x3d7dc08f	0.061951216
102	0xbdcabdfd	-0.09899519
103	0xbdbd2280	-0.09235096
104	0x3da009c2	0.07814361
105	0x3db15c9e	0.086602435
106	0xbdc29398	-0.095008075
107	0xbdc7c5b0	-0.09754503
108	0x3db5bea2	0.08874251
109	0x3e282549	0.16420473
110	0x3e635f1a	0.22204247
111	0x3eb471dc	0.35243118
112	0x3e55c753	0.20876817
113	0x3e6955ef	0.22786687
114	0x3dee3e62	0.11632992
115	0x3bbec97d	0.005822359
116	0x3e84b28d	0.25917473
117	0xbd938548	-0.07203156
118	0x3ccf97b0	0.025340885
119	0xbd63114d	-0.05543642
120	0x3df889be	0.12135647
121	0x3d196cf8	0.037457436
122	0x3e85e373	0.26150092
123	0xbd4d3390	-0.050098002
124	0x3e725343	0.23664574
125	0xbd34bd6c	-0.04412596
126	0x3cd277e0	0.025691926
127	0xbc4c3710	-0.0124643
128	0xbdd7ed8c	-0.10543355
129	0x3d382d65	0.044965167
130	0x3d16689c	0.036720857
131	0xbb81f33c	-0.0039657634
132	0xbecc313a	-0.39881307
133	0xbaf75c18	-0.001887205
134	0x3baa1f7e	0.0051917424
135	0x3d58af50	0.052901566
136	0x3ebff79c	0.37493598
137	0x3e106685	0.14101608
138	0xbd290a18	-0.04126939
139	0x3d4d3286	0.05009701
140	0xbe988fd9	-0.29797247
141	0x3dfdf2ad	0.12399802
142	0x3d9d6e7a	0.07687087
143	0x3c68fad6	0.01421996
144	0x3c9b1d10	0.018934757
145	0xbd38104b	-0.044937413
146	0x3d326618	0.043554395
147	0xbd25102e	-0.040298633
148	0xbd812fac	-0.06307921
149	0xbeb15465	-0.346347
150	0x3cb741bd	0.022370214
151	0xbe7a61e0	-0.24451399
152	0xbdca4c76	-0.09877865
153	0x3dace112	0.08441366
154	0xbd084af5	-0.03327461
155	0x3ce5a80d	0.028034234
156	0xbdccda67	-0.100025944
157	0xbdd0d5d8	-0.101970375
158	0x3d699281	0.057024483
159	0xbe8472c7	-0.25868818
160	0x3b692fcc	0.0035581468
161	0x3d691526	0.056904934
162	0xbf1da2f4	-0.6157677
163	0x3c096e00	0.008388042
164	0xbdfbe698	-0.12299842
165	0xbd3ff844	-0.046867624
166	0x3e4afc6a	0.19822851
167	0xbdbe47be	-0.092910275
168	0x3db749e4	0.089496404
169	0xbdf862c2	-0.121282116
170	0xbd14f3a8	-0.03636518
171	0xbd304e50	-0.043043435
172	0x3db4f69c	0.088360995
173	0xbe115cb3	-0.14195518
174	0xbe44dc0b	-0.19224565
175	0xbedc5459	-0.43033102
176	0xbeef7a9d	-0.46773234
177	0xbe958272	-0.29201084
178	0xbd336e28	-0.043806225
179	0x3d0fa9ff	0.03507423
180	0xbeab190f	-0.33417556
181	0xbd02c13c	-0.031922564
182	0xbc000550	-0.007813767
183	0xbcf45a35	-0.02982817
184	0xbe5f3dfb	-0.21800987
185	0xbda68ee0	-0.0813272
186	0xbe473d3e	-0.19456956
187	0xbcd05130	-0.025429338
188	0xbea0cb1a	-0.31404954
189	0x3e16953e	0.14705369
190	0x3dd3e9e6	0.10347347
191	0xbdeeabc4	-0.116538554
192	0x3b58dd40	0.003309086
193	0xbd279db4	-0.04092188
194	0x3d8dce20	0.06924081
195	0xbe140ad2	-0.14457253
196	0x3e627306	0.2211419
197	0x3d0e41d5	0.03473075
198	0x3d4c0464	0.049808875
199	0xbd8cb446	-0.06870322
200	0xbd2507c2	-0.0402906
201	0x3d3c47b4	0.04596682
202	0x3ce5e4e0	0.028063238
203	0x3d3e64a1	0.046482686
204	0x3e51d608	0.20491803
205	0x3d2a4ec0	0.041579008
206	0x3d6d8dc9	0.057996545
207	0xbd9ae52d	-0.07563243
208	0xbdf043e0	-0.11731696
209	0x3d38bb9c	0.045100793
210	0x3de01d0c	0.1094304
211	0xbc169d78	-0.009192817
212	0x3d42c0e2	0.04754723
213	0x3e7cf90c	0.24704379
214	0x3d46f788	0.048575908
215	0x3ea7babd	0.32759658
216	0xbdf647ca	-0.120254114
217	0x3d98ce54	0.07461229
218	0x3d6b8e78	0.057508916
219	0x3d8d43d1	0.068977006
220	0x3d8d658c	0.06904134
221	0x3d3821f0	0.04495424
222	0x3cfe7a1f	0.031064091
223	0x3e5d66cc	0.21621245
224	0xbdfa55a1	-0.12223364
225	0xbc09a4f3	-0.008401143
226	0x3eb3a8f2	0.35089833
227	0xbd1b65c8	-0.037938863
228	0x3d83e5ce	0.06440316
229	0xbcc0f56e	-0.02355453
230	0xbe4346fe	-0.1907005
231	0xbdb60322	-0.08887316
232	0xbce8bb89	-0.028409736
233	0x3bbda5a0	0.0057875663
234	0xbdf7d0f6	-0.12100403
235	0xbdae4306	-0.085088775
236	0x3d89238c	0.06696233
237	0x3e3f2c7b	0.18669312
238	0x3bce4049	0.0062942845
239	0x3e3d3c48	0.18480027
240	0x3df66b54	0.1203219
241	0x3e3fb3c0	0.18720913
242	0xbddc9108	-0.1076985
243	0x3d272653	0.040808033
244	0x3e89b2da	0.26894265
245	0xbdbf5fae	-0.09344421
246	0xbdd178dc	-0.1022813
247	0x3d1a9858	0.037742943
248	0x3dcf385c	0.101181716
249	0xbd067d78	-0.0328345
250	0x3e196fe2	0.14984086
251	0xbd3aa3a4	-0.045566216
252	0x3eb9c680	0.36284256
253	0xbd810687	-0.06300073
254	0xbdf0eda4	-0.11764076
255	0x3db6801a	0.08911152

network.3.bias f4 [32]
0	0xbc2cfece	-0.010558797
1	0xbdce8c17	-0.10085314
2	0x3d5dd3e9	0.05415717
3	0xbd341153	-0.043961834
4	0xbd1881cb	-0.037233155
5	0xbdf37499	-0.118874736
6	0x3d26160c	0.04054837
7	0xbc260b89	-0.010134586
8	0x3d24d936	0.04024621
9	0xbdad346f	-0.084572665
10	0x3c010117	0.007873795
11	0xbd867e55	-0.06567065
12	0xbde7cc49	-0.11318261
13	0xbc8aece0	-0.016958654
14	0x3db900d1	0.09033359
15	0xbd82b393	-0.06381907
16	0xbe1aa55e	-0.15102145
17	0xbdc0ac9f	-0.09407925
18	0x3c276f96	0.010219475
19	0x3e0eb9f4	0.13938123
20	0xbde12073	-0.10992517
21	0xbccb94fc	-0.024851315
22	0x3e00cff1	0.12579323
23	0xbc0a6a6b	-0.008448224
24	0xbdd19f54	-0.102354676
25	0xbdbd95d6	-0.092570946
26	0x3cefc3f2	0.029268239
27	0x3d06a541	0.032872442
28	0x3e169651	0.14705779
29	0x3d1cefb4	0.038314536
30	0x3e0519c7	0.12998115
31	0x3d283098	0.041061968

network.6.weight f4 [16, 32]
0	0xbd0f5091	-0.034988943
1	0x3d89781e	0.06712364
2	0x3e6c5c88	0.23082173
3	0xbe6cd7bc	-0.23129171
4	0x3ebdf95d	0.37104312
5	0xbe6e1bdc	-0.23252815
6	0x3ec07ef2	0.37596852
7	0xbe994037	-0.29931805
8	0x3d88cf6f	0.0668019
9	0x3d1bf4cf	0.038075265
10	0xbdce4c8c	-0.10073194
11	0xbe9b738a	-0.30361587
12	0xbe020043	-0.12695412
13	0x3b39e2cb	0.002836394
14	0xba0bf0d3	-0.0005338315
15	0x3e204e7c	0.1565494
16	0xbe54a69c	-0.20766681
17	0xbe86ba0a	-0.26313812
18	0xbece0d26	-0.40244406
19	0xbcf731ee	-0.030175176
20	0xbe46d4f1	-0.19417168
21	0xbd522379	-0.05130336
22	0x3e9d9d63	0.3078414
23	0xbd2d09b4	-0.04224558
24	0xbe68449c	-0.22682422
25	0xbd4ee4b0	-0.050511062
26	0x3dac6530	0.084177375
27	0xbe4b953b	-0.19881146
28	0x3cfc6d2f	0.030813782
29	0xbe4ba7df	-0.19888256
30	0x3d53da79	0.051722024
31	0x3e9e3b11	0.3090444
32	0x3d128753	0.035773586
33	0x3d8f53cf	0.06998407
34	0x3d36fd60	0.04467523
35	0xbe18a3eb	-0.1490628
36	0xbc56285e	-0.013071148
37	0xbd3f902b	-0.04676835
38	0x3d72713d	0.059190024
39	0xbdba3417	-0.090919666
40	0x3de6ddfb	0.11272808
41	0xbe18025d	-0.14844652
42	0x3d6d45c5	0.057927866
43	0xbd10844c	-0.035282418
44	0xbe1a1a5d	-0.1504912
45	0xbd267172	-0.040635534
46	0x3e970670	0.294971
47	0x3e037fa9	0.12841667
48	0xbe44961f	-0.19197892
49	0xbd2461c6	-0.040132307
50	0x3d5fabd1	0.054607216
51	0x3e8dff71	0.2773395
52	0xbde3eee6	-0.11129551
53	0x3cde23f3	0.027116751
54	0x3db27500	0.08713722
55	0xbdebc302	-0.11511804
56	0xbdbed136	-0.093172476
57	0x3e4b01db	0.19824927
58	0x3e148ad6	0.14506087
59	0xbd9e63d3	-0.07733884
60	0x3e030630	0.12795329
61	0xbb0db521	-0.0021622854
62	0x3e71db4c	0.23618811
63	0x3e8532ff	0.2601547
64	0xbde8431b	-0.11340924
65	0xbe118125	-0.14209421
66	0x3e269924	0.16269356
67	0xbe0e8939	-0.13919534
68	0x3e1e1fad	0.15441771
69	0xbdedbb89	-0.11608035
70	0x3ea3f288	0.32020974
71	0xbd4807f8	-0.048835725
72	0x3dfdf6d9	0.12400598
73	0xbd62aedf	-0.05534255
74	0xbe0a2282	-0.13489726
75	0xbde7dcd1	-0.11321414
76	0xbdc46517	-0.09589594
77	0xbe6262bb	-0.22107975
78	0x3e5f3b6b	0.2180001
79	0xbe2a5609	-0.16634382
80	0xbdadced7	-0.08486717
81	0x3d383ed0	0.044981778
82	0xbde474fb	-0.11155125
83	0x3dee6c54	0.11641756
84	0xbd2d6a56	-0.042337738
85	0x3e3a0f05	0.18169792
86	0x3e77c6b8	0.24196899
87	0xbd811ffc	-0.06304929
88	0xbe4f100a	-0.20220962
89	0x3e1c89fb	0.1528701
90	0x3e1f3a14	0.15549499
91	0xbddafdcf	-0.106929414
92	0x3d64aa7d	0.055826653
93	0x3d872c17	0.06600206
94	0x3e621465	0.22078092
95	0x3e60d84b	0.21957509
96	0x3e46469d	0.19362874
97	0x3e988865	0.2979156
98	0xbe18fef0	-0.14941001
99	0x3e597b31	0.212384
100	0xbe186e3a	-0.14885798
101	0x3e29f992	0.1659911
102	0xbd4446ed	-0.047919203
103	0x3e66108f	0.22467254
104	0xbe1cf7fe	-0.15328977
105	0xbca516f5	-0.020152548
106	0xbdda75d1	-0.10667003
107	0x3dcd8cf7	0.100366525
108	0x3d8a8815	0.06764237
109	0x3e7dcbf3	0.24784832
110	0xbe0b2aa4	-0.13590485
111	0x3cfbfe01	0.030760767
112	0x3e60008b	0.21875207
113	0x3e343abb	0.17600529
114	0x3e701f17	0.2344936
115	0xbca5bdac	-0.020232044
116	0x3e0dfbb0	0.13865542
117	0x3e8e7e50	0.27830744
118	0xbe5806ce	-0.21096346
119	0x3e0e889a	0.13919297
120	0x3dea2ee3	0.11434724
121	0x3e4c6dee	0.1996381
122	0x3e5dc1b2	0.2165592
123	0x3e81399c	0.25239265
124	0xbc5d179d	-0.013494399
125	0x3e88597b	0.26630768
126	0x3a321cbf	0.00067944446
127	0xbd178412	-0.036991186
128	0xbcb5a659	-0.022174047
129	0xbcd1cfc3	-0.025611764
130	0x3e9c37cd	0.30511323
131	0xbd2f1011	-0.04273993
132	0x3e3a95fd	0.18221278
133	0xbe620c45	-0.22074993
134	0x3e464fd4	0.1936639
135	0xbe662755	-0.22475941
136	0xbd01acaa	-0.031658806
137	0x3d843914	0.06456199
138	0xbddf6128	-0.10907203
139	0x3d45f764	0.048331633
140	0xbe6e5e4d	-0.2327816
141	0xbe2ca8d7	-0.16861282
142	0x3e65913a	0.22418681
143	0x3dbac60a	0.09119804
144	0xbe194f15	-0.14971574
145	0xbe0e7687	-0.13912402
146	0xbe697f71	-0.22802521
147	0x3c4b5564	0.012410495
148	0x3d5dca25	0.05414786
149	0x3d8e9504	0.06962016
150	0x3e844205	0.2583162
151	0xbab970fe	-0.0014148054
152	0xbe874c4a	-0.2642539
153	0x3d31400e	0.043273978
154	0x3dd5b4f4	0.10434905
155	0xbda1d369	-0.079016514
156	0xbd0ef632	-0.03490276
157	0xbe0b8ddb	-0.13628332
158	0x3e89c42d	0.26907483
159	0x3e87d057	0.26526138
160	0xbe1e4651	-0.15456511
161	0x3d6d43e6	0.05792608
162	0x3e86246e	0.2619967
163	0xbe53de90	-0.2069037
164	0x3e7ee2e7	0.24891244
165	0xbe2f359a	-0.17110291
166	0x3e921302	0.28530127
167	0xbe730a55	-0.2373441
168	0x3df43897	0.11924856
169	0x3e03f6cc	0.12887114
170	0x3db3b420	0.087745905
171	0xbe001471	-0.12507798
172	0xbde0651f	-0.10956787
173	0xbe79c422	-0.24391225
174	0x3e8f14aa	0.27945453
175	0x3dbdecc0	0.09273672
176	0xbda1e77f	-0.079054825
177	0xbe32ae0a	-0.17449203
178	0xbe8fce4c	-0.2808708
179	0xbd99fffa	-0.07519527
180	0xbdb18689	-0.08668239
181	0x3d9a4dd3	0.07534375
182	0x3e934047	0.28759977
183	0xbde13d71	-0.10998047
184	0x3a9fde5e	0.0012197008
185	0x3c9973f5	0.01873205
186	0xbc412679	-0.011788958
187	0xbea2e8df	-0.31818292
188	0x3e824e6f	0.25450465
189	0xbeb9c81d	-0.36285487
190	0x3d8ec87d	0.06971834
191	0x3e755adc	0.23960441
192	0xbc7febd6	-0.0156201925
193	0xbe3c0592	-0.183615
194	0xbce18420	-0.027528822
195	0xbe17fe85	-0.14843185
196	0x3e4ddeee	0.20104572
197	0xbd8e4292	-0.06946291
198	0x3e3c41f8	0.1838454
199	0x3beaff82	0.007171572
200	0x3d48a628	0.048986584
201	0x3e08ba29	0.13352264
202	0xbc852e17	-0.016257329
203	0xbe104a6b	-0.14090888
204	0xbcb81de7	-0.022475196
205	0xbc0936ba	-0.008374864
206	0x3e6c1c2f	0.23057626
207	0xbda7e1e1	-0.0819738
208	0xbd33f1cf	-0.04393178
209	0xbe1ea434	-0.15492326
210	0x3ca5a70c	0.020221256
211	0x3e88ccb7	0.26718685
212	0xbe03306a	-0.12811437
213	0x3daf9b6c	0.08574566
214	0x3e85db43	0.26143846
215	0xbdfa4b97	-0.12221449
216	0xbcd45afc	-0.025922291
217	0xbd8fc219	-0.07019443
218	0x3dffac98	0.124840915
219	0xbd18a879	-0.037270043
220	0x3e19b0a7	0.15008794
221	0xbc53aaf4	-0.012919176
222	0x3de24754	0.11048761
223	0x3e9ee1a0	0.31031513
224	0xbe11de5e	-0.14244983
225	0x3bd425da	0.006474239
226	0x3ea2d30b	0.31801638
227	0x3dbe78ff	0.09300422
228	0x3e542ab3	0.20719413
229	0x3c383850	0.011243895
230	0x3ea9d051	0.33166745
231	0xbb53f381	-0.0032341185
232	0xbdb4e317	-0.088323765
233	0xbdb6842d	-0.08911929
234	0x3e22904f	0.15875362
235	0xbe0a1aff	-0.1348686
236	0xbe649038	-0.2232064
237	0xbd461ef5	-0.048369367
238	0x3d0c22d0	0.034212887
239	0xbd075bc5	-0.033046503
240	0xbe6dc5fa	-0.23220053
241	0xbd2e0ef0	-0.042494714
242	0x3c381bdc	0.011237111
243	0x3e602731	0.2188995
244	0xbe02b9d0	-0.12766194
245	0xbbdf26d3	-0.006810048
246	0x3e11c4cd	0.1423523
247	0xbd6df042	-0.058090456
248	0x3b915a12	0.004435786
249	0x3e4a1a3f	0.19736575
250	0x3d634923	0.05548967
251	0xbda99e86	-0.08282189
252	0x3ddc5865	0.107590474
253	0xbdc3a0ed	-0.095521785
254	0x3e60f844	0.21969706
255	0x3e189f2c	0.14904469

network.6.bias f4 [16]
0	0x3e0aa858	0.1354078
1	0x3e661185	0.2246762
2	0x3e56f93e	0.20993516
3	0x3bedcfed	0.0072574527
4	0x3e8bcbc4	0.27303898
5	0x3e2d4ef2	0.16924646
6	0x3e533f3a	0.20629588
7	0x3e57031e	0.20997283
8	0x3e3da219	0.18518867
9	0x3dfa7165	0.122286595
10	0x3e8b7a58	0.27241778
11	0x3e7d9e80	0.24767494
12	0x3d8f4884	0.06996253
13	0xbca62a6f	-0.020283906
14	0x3e796b11	0.24357249
15	0x3e5a32cd	0.21308441

network.8.weight f4 [1, 16]
0	0xbe9652b3	-0.2935997
1	0xbea3ec40	-0.32016182
2	0xbecad13b	-0.39612755
3	0x3ee55694	0.44792616
4	0xbea7d469	-0.32779244
5	0xbebc4da7	-0.36777994
6	0xbec56b21	-0.38558295
7	0xbe8ba7b6	-0.2727639
8	0xbee49a17	-0.4464881
9	0xbe68963e	-0.22713563
10	0xbed7dffd	-0.42163077
11	0xbee1bd61	-0.44089797
12	0x3ebf0179	0.3730581
13	0x3e36f30f	0.17866157
14	0xbf0a23b9	-0.5396076
15	0xbedf6630	-0.4363265
