第六次作业10245501405杨云天/model/Molecular Biology & Genetics.pth (torch, 15667 bytes, 7 tensors)

network.0.weight f4 [64, 3]
-0.630007 -0.89643884 -1.0613936 0.22553049 0.46842176 -0.4165966 0.42650628 1.6064
0.8646518 0.060671136 -0.4342762 0.30682063 -0.051346995 0.6028287 0.2855483 -0.7873849
-0.44470358 -0.2710996 0.66564363 0.98005223 0.60296434 0.37367225 0.08469817 -0.006228382
-0.13744396 1.323375 0.6396154 -0.4533479 0.15646964 0.06351686 0.35226172 -0.07189619
-0.14108805 0.38336954 0.99795645 0.70650685 -0.33430988 -0.37499437 -0.87951976 -0.024557907
-0.017239965 -0.43130982 0.01518988 -1.4855163 -0.95731187 -0.035135623 -0.19349508 0.37588686
-0.76407707 0.26299593 -0.6709225 0.20406555 0.6517553 0.8377433 0.108054265 0.36317676
-0.35508603 -0.5186973 -0.3801467 -0.46418977 0.24165307 0.07778376 0.25364926 -0.034425285
-0.1967508 -0.48349717 -0.45854658 -1.3801588 -0.22595355 0.5454134 0.56465226 -0.09903333
0.6995897 0.34630683 0.6852414 -0.4755421 -1.2866107 -0.2515875 0.41929194 1.3759506
0.8002739 -0.50843644 -0.15978129 -0.30798078 -0.41631067 -0.11378826 -0.2076684 0.24372216
-0.12421684 -0.5054033 -0.4161612 -1.4916173 0.2105034 -0.36689216 -0.5567719 -0.29378635
-0.67533016 -0.8779614 -0.7811322 0.6357409 0.8892034 0.20697744 -0.6831462 -1.0803359
-0.025817666 0.43946344 1.0326483 0.9230304 0.6370232 0.03487363 0.8094813 0.43289697
1.1697743 0.81135535 -0.00817529 -1.6393034 -0.41555017 -0.4588199 -1.3448842 -1.0359886
0.18200666 0.3360948 -0.22940844 0.48532665 0.713515 0.59131414 0.4839776 1.4667773
0.5577997 -0.10367215 -0.44878274 0.38346872 0.08323916 -0.24149132 -0.573752 0.04544313
1.7486987 0.1367397 -0.42859617 -1.3327246 -0.38726032 0.3946186 1.3569926 0.7703132
0.13954353 1.4339912 0.41405642 0.49536872 -0.15611756 -0.48934132 -0.40671584 0.036688402
-0.13059035 0.47981957 -0.047577087 0.5255979 -0.27385074 0.10992818 -0.33693248 0.13294105
0.4741225 0.41411677 0.30083895 -0.25710955 -0.27881986 -0.36267838 0.016631547 -0.25438055
-0.8652374 -0.24039023 -0.8544426 -0.5678104 -1.2238472 -0.9058209 0.04179732 0.23341237
-0.28424856 -0.4614049 0.5989728 -0.4911699 0.09256178 0.32607257 -0.17846394 0.34109795
-0.060506918 0.19230613 -0.5699867 -0.03590159 0.49759635 -0.26927766 -0.663781 -0.973765
00000000: 2448 21bf 047d 65bf bfdb 87bf 77f1 663e
00000010: fad4 ef3e 264c d5be 085f da3e 849e cd3f
00000020: d259 5d3f 4c82 783d 7359 debe 9817 9d3e
00000030: 3a51 52bd fb52 1a3f 6333 923e 0f92 49bf
00000040: 30b0 e3be 91cd 8abe 9f67 2a3f b4e4 7a3f
00000050: df5b 1a3f f851 bf3e 3c76 ad3d 7417 ccbb
00000060: 1cbe 0cbe 5a64 a93f d6bd 233f 371d e8be
00000070: 9439 203e 2115 823d a65b b43e 4f3e 93bd
00000080: 6379 10be 0349 c43e 137a 7f3f a2dd 343f
00000090: aa2a abbe 43ff bfbe 3528 61bf aa2d c9bc
000000a0: d43a 8dbc a4d4 dcbe f9de 783c 6625 bebf
000000b0: 6412 75bf 5fea 0fbd 9323 46be 3e74 c03e
000000c0: 8e9a 43bf 67a7 863e 94c1 2bbf 8ff6 503e
000000d0: 6fd9 263f 5876 563f 8e4b dd3d 4ef2 b93e
000000e0: d6cd b5be 59c9 04bf 97a2 c2be 48aa edbe
000000f0: e773 773e 184d 9f3d 51de 813e 8701 0dbd
00000100: 0b79 49be f18c f7be 9ec6 eabe 0ba9 b0bf
00000110: 5e60 67be 36a0 0b3f 0d8d 103f fdd1 cabd
00000120: 5018 333f 214f b13e fb6b 2f3f 417a f3be
00000130: a9af a4bf 14d0 80be 6fad d63e 261f b03f
00000140: c0de 4c3f e428 02bf b59d 23be a8af 9dbe
00000150: ac26 d5be d209 e9bd 06a7 54be 4d92 793e
00000160: 6665 febd 1c62 01bf 1513 d5be 51ed bebf
00000170: 348e 573e 4ad9 bbbe 9a88 0ebf 2a6b 96be
00000180: 70e2 2cbf 14c2 60bf 48f8 47bf eabf 223f
00000190: d6a2 633f e5f1 533e abe2 2ebf 7248 8abf
000001a0: 927f d3bc 5a01 e13e d22d 843f b84b 6c3f
000001b0: f413 233f a7d7 0e3d 2b3a 4f3f aca4 dd3e
000001c0: 2abb 953f fcb4 4f3f a7f1 05bc b2d4 d1bf
000001d0: fec2 d4be 71ea eabe 2a25 acbf 469b 84bf
000001e0: f45f 3a3e 9e14 ac3e 0cea 6abe bc7c f83e
000001f0: eba8 363f 5d60 173f e9cb f73e 5cbf bb3f
00000200: f6cb 0e3f 1052 d4bd dac6 e5be 0356 c43e
00000210: 4b79 aa3d 8049 77be 69e1 12bf 9322 3a3d
00000220: 5cd5 df3f 7e05 0c3e f570 dbbe b896 aabf
00000230: fc46 c6be 730b ca3e efb1 ad3f 3f33 453f
00000240: 80e4 0e3e 068d b73f 34ff d33e f8a0 fd3e
00000250: 48dd 1fbe f28a fabe 0f3d d0be 9446 163d
00000260: 7ab9 05be e9aa f53e 31e0 42bd 958d 063f
00000270: 2a36 8cbe 0722 e13d 6a82 acbe b321 083e
00000280: 2fc0 f23e 1d07 d43e 9007 9a3e dda3 83be
00000290: 7ac1 8ebe fbb0 b9be e23e 883c 2b3e 82be
000002a0: 3380 5dbf db28 76be c0bc 5abf 065c 11bf
000002b0: 06a7 9cbf e1e3 67bf ab33 2b3d a703 6f3e
000002c0: 0789 91be 433d ecbe 4856 193f 9f7a fbbe
000002d0: 0891 bd3d fcf2 a63e 40bf 36be 64a4 ae3e
000002e0: 1ad6 77bd e6eb 443e a6ea 11bf 8c0d 13bd
000002f0: f3c4 fe3e c3de 89be 8ded 29bf aa48 79bf

network.0.bias f4 [64]
0.08402683 -0.18648627 -0.013823815 -0.34060356 0.00046467312 0.14541788 -0.012522882 0.20194319
-0.0107296975 -0.29458752 0.17306773 -0.034278408 0.18037753 -0.020844702 0.024908122 0.14908913
0.16233318 -0.0026787885 -0.5387533 -0.14556362 0.254907 -0.5268786 0.049085665 0.11919323
0.016760422 0.056275472 -0.010023213 0.12635557 -0.17745137 -0.050196238 0.026155671 0.19721742
0.24885207 0.042654008 0.06412324 -0.034442347 0.005485681 -0.013801553 0.021867072 0.027083082
-0.45397735 0.010487492 -0.018762749 -0.23369332 -0.3174171 -0.0005505381 0.07344681 -0.014158389
-0.0026898715 -0.16836165 -0.24002299 0.033892103 -0.50976413 -0.52751833 -0.093017064 -0.48750323
0.22412857 0.030024307 -0.5322969 0.079496026 -0.41546273 -0.53512055 -0.13055395 0.104460366
00000000: 4216 ac3d 42f6 3ebe 487d 62bc 9763 aebe
00000010: 5f9f f339 6de8 143e c62c 4dbc 32ca 4e3e
00000020: 9dcb 2fbc 2dd4 96be ab38 313e 8467 0cbd
00000030: e3b4 383e 82c2 aabc 1e0c cc3c d2aa 183e
00000040: ab3a 263e 9d8e 2fbb bceb 09bf a10e 15be
00000050: 2c83 823e 84e1 06bf 0d0e 493d 951b f43d
00000060: 274d 893c 1c81 663d 6738 24bc 5b63 013e
00000070: d0b5 35be 929a 4dbd 6b44 d63c 5df3 493e
00000080: 14d3 7e3e f8b5 2e3d 0c53 833d 6b13 0dbd
00000090: 3ac1 b33b e91f 62bc 9322 b33c 57dd dd3c
000000a0: b86f e8be bbd3 2b3c 56b4 99bc 4d4d 6fbe
000000b0: 7e84 a2be fd51 10ba 486b 963d 96f8 67bc
000000c0: 8e48 30bb ff66 2cbe 96c8 75be 72d2 0a3d
000000d0: e77f 02bf 710b 07bf bb7f bebd 069a f9be
000000e0: f681 653e 89f5 f53c 9c44 08bf d0ce a23d
000000f0: 88b7 d4be a9fd 08bf efaf 05be 51ef d53d

network.3.weight f4 [32, 64]
0.13480581 -0.083503164 -0.2692017 -0.05975172 -0.06238038 -0.051175646 -0.1777832 0.065865174
-0.40861845 -0.09643397 0.0075577796 -0.3789688 0.020108642 0.082604215 0.2856422 0.08246343
0.099981435 -0.0513601 -0.073573545 0.08617106 0.025022212 0.07025647 0.06728678 0.10032256
0.048843686 0.0662644 -0.24945937 -0.008818646 0.056196153 0.03909622 0.27703965 0.1169761
0.017702153 0.039242286 0.108023755 -0.37059546 -0.005944606 -0.31524745 0.5717382 0.26413137
-0.021791995 0.10817278 0.012735703 -0.007078558 0.076544344 -0.12258649 0.025706775 -0.4119327
-0.045259804 -0.010756303 0.014957085 0.11929336 -0.08683981 0.10162722 0.08250129 -0.015947118
0.066897415 0.3157307 -0.11694454 0.00861372 0.054774493 -0.08887452 0.03795743 0.11855307
0.035602853 -0.039783567 -0.5141203 0.005086258 0.0055790073 0.042703707 -0.07394851 0.072261706
-0.48962596 0.07914586 0.023571016 -0.24499567 0.038346842 -0.08387801 0.36138335 0.020523319
0.049519178 -0.13654198 -0.12250683 0.08203076 0.03183104 0.08875671 0.18941362 -0.06913786
-0.07877269 0.09992937 -0.54097813 -0.05564048 0.11819963 -0.026886523 0.200935 0.014100282
-0.032863192 -0.07337574 -0.04993755 -0.55135125 0.021894915 -0.42381206 0.4830852 0.3523435
0.069753885 -0.053816214 -0.16442701 -0.068129346 -0.003667295 -0.023202443 0.09747357 -0.3593187
-0.048589367 0.024780676 -0.07253304 -0.06843118 -0.06672889 -0.02997669 0.08717412 -0.06178148
0.017731085 0.36243993 -0.068414226 0.03398355 0.0013395101 0.022000462 -0.07012074 0.0056780195
-0.09321628 0.12425347 -0.027600678 -0.081128225 0.24860151 0.023479933 0.1377641 0.002171863
0.1781038 -0.042962387 -0.021217942 0.37705106 -0.056840964 0.10059132 -0.46468163 -0.05250042
0.027229287 0.20881031 0.103635326 -0.043094322 -0.0065764217 0.10059135 -0.43206173 -0.024643734
0.14105168 -0.19186382 -0.1302927 -0.072480686 0.06908217 -0.09641084 -0.36351824 -0.03918529
0.020276891 0.0065019755 -0.05107307 0.17232591 0.13271244 0.13604835 -0.38135767 -0.08200961
-0.075396195 0.09684671 0.31036243 -0.10982096 -0.07441597 0.497556 -0.23153824 -0.020282228
0.3975087 0.08477919 0.12319067 0.02360541 -0.073015794 -0.03791069 -0.08849655 0.0693406
-0.039500967 -0.12553334 0.04816188 -0.027293386 0.037951052 -0.0977823 -0.10055563 -0.10357775
-0.0809845 0.13806564 0.23983188 0.027078435 -0.04870331 0.0143259475 0.08453444 -0.037584204
0.39597103 0.025520593 -0.062279362 0.48123387 0.051352 -0.10983455 -0.3355896 0.03474471
-0.11762978 0.020271627 -0.107219994 0.05769357 0.04917163 0.010203719 -0.13242671 -0.11722653
0.104233675 -0.042552542 0.29940656 0.08236968 0.081735104 0.08482933 -0.16855368 -0.07764029
0.053712573 0.10710726 -0.029057395 0.3092822 0.02472644 0.11179852 -0.2720491 -0.34990278
0.029169783 0.069515236 0.19920865 0.09201753 0.027505755 0.19269878 -0.08568404 0.24970117
0.103239715 -0.10584354 0.06290297 0.051402815 0.1215093 0.117502816 0.08122192 0.025155887
-0.04512046 -0.25222743 0.112174585 -0.009498792 0.08641443 -0.09633732 -0.004950568 -0.012459891
00000000: 890a 0a3e b503 abbd ced4 89be 38be 74bd
00000010: 9282 7fbd 8e9d 51bd cd0c 36be 52e4 863d
00000020: 7036 d1be 2c7f c5bd 40a7 f73b 3308 c2be
00000030: e1ba a43c 662c a93d b23f 923e 96e2 a83d
00000040: 11c3 cc3d f85e 52bd baad 96bd 747a b03d
00000050: 62fb cc3c a0e2 8f3d a7cd 893d ea75 cd3d
00000060: 5110 483d a1b5 873d 4772 7fbe 157c 10bc
00000070: f02d 663d 5c23 203d 24d8 8d3e 2a91 ef3d
00000080: 1b04 913c 85bc 203d 8f3b dd3d b0be bdbe
00000090: f8ca c2bb 1d68 a1be 6f5d 123f 3a3c 873e
000000a0: 2085 b2bc b189 dd3d 69a9 503c 40f3 e7bb
000000b0: 48c3 9c3d a00e fbbd 0497 d23c d8e8 d2be
000000c0: 5862 39bd 343b 30bc 900e 753c 1450 f43d
000000d0: 12d9 b1bd ef21 d03d 70f6 a83d 88a3 82bc
000000e0: 8301 893d 74a7 a13e 9e80 efbd 8f20 0d3c
000000f0: 385b 603d d803 b6bd 4079 1b3d f4cb f23d
00000100: 4cd4 113d 18f4 22bd 639d 03bf a0aa a63b
00000110: 1bd0 b63b 15ea 2e3d 5172 97bd f2fd 933d
00000120: 41b0 fabe 3a17 a23d 0118 c13c 25e0 7abe
00000130: 9411 1d3d 3cc8 abbd 3d07 b93e 8520 a83c
00000140: 9fd4 4a3d a9d1 0bbe dce4 fabd beff a73d
00000150: 4461 023d 14c6 b53d a5f5 413e 2698 8dbd
00000160: 9353 a1bd c5a7 cc3d 8b7d 0abf 46e7 63bd
00000170: a612 f23d 2041 dcbc e8c1 4d3e df04 673c
00000180: 8e9b 06bd 0546 96bd 518b 4cbd 5b25 0dbf
00000190: f75c b33c e5fd d8be f156 f73e 5e66 b43e
000001a0: 20db 8e3d 646e 5cbd 8e5f 28be 6687 8bbd
000001b0: 0057 70bb 0d13 bebc 39a0 c73d 9ff8 b7be
000001c0: a505 47bd d800 cb3c 348c 94bd a625 8cbd
000001d0: 28a9 88bd ad91 f5bc 5888 b23d 940e 7dbd
000001e0: c840 913c ba91 b93e c21c 8cbd 5632 0b3d
000001f0: 8092 af3a 503a b43c 769b 8fbd ae0e ba3b
00000200: 2de8 bebd 9a78 fe3d d11a e2bc 8e26 a6bd
00000210: 6591 7e3e fd58 c03c 0812 0d3e d155 0e3b
00000220: d860 363e 54f9 2fbd 40d1 adbc d60c c13e
00000230: 12d2 68bd d202 ce3d c0ea edbe ae0a 57bd
00000240: f40f df3c 5fd2 553e c23e d43d ac83 30bd
00000250: 067f d7bb d602 ce3d 3237 ddbe a8e1 c9bc
00000260: da6f 103e f377 44be 736b 05be c170 94bd
00000270: f47a 8d3d 0c73 c5bd 101f babe c180 20bd
00000280: b91b a63c 860e d53b ff31 51bd 3476 303e
00000290: c5e5 073e 4250 0b3e 5041 c3be a8f4 a7bd
000002a0: 5269 9abd 9157 c63d d3e7 9e3e d0e9 e0bd
000002b0: 6667 98bd a9bf fe3e 5c18 6dbe ea26 a6bc
000002c0: 4386 cb3e b6a0 ad3d 644b fc3d 2260 c13c
000002d0: 4e89 95bd 3d48 1bbd ae3d b5bd 7202 8e3d
000002e0: c4cb 21bd d08b 00be 6445 453d 6196 dfbc
000002f0: 9072 1b3d 1642 c8bd 1cf0 cdbd 9220 d4bd
00000300: 34db a5bd 1461 0d3e 7d96 753e 98d3 dd3c
00000310: 1f7d 47bd 61b7 6a3c 6420 ad3d e5f1 19bd
00000320: b7bc ca3e 9010 d13c a518 7fbd 4964 f63e
00000330: 7a56 523d f0f0 e0bd 66d2 abbe 7850 0e3d
00000340: e2e7 f0bd af10 a63c 2896 dbbd 1850 6c3d
00000350: 3168 493d 802d 273c de9a 07be 7714 f0bd
00000360: 7778 d53d 934b 2ebd d14b 993e 6fb1 a83d
00000370: bc64 a73d 00bb ad3d 5699 2cbe df01 9fbd
00000380: b701 5c3d 0d5b db3d c609 eebc 3d5a 9e3e
00000390: 1a8f ca3c 9ff6 e43d 054a 8bbe 7526 b3be
000003a0: 78f5 ee3c 015e 8e3d 5afd 4b3e b073 bc3d
000003b0: c053 e13c d452 453e 1d7b afbd aab1 7f3e
000003c0: 586f d33d 7fc4 d8bd 46d3 803d c28b 523d
000003d0: ded9 f83d 51a5 f03d ae57 a63d b813 ce3c
000003e0: 3bd0 38bd f423 81be cabb e53d d2a0 1bbc
000003f0: 0cfa b03d 804c c5bd 6038 a2bb 9224 4cbc

network.3.bias f4 [32]
-0.057887476 -0.0015249428 0.033795998 -0.0030755196 -0.012235776 -0.01672547 -0.09658494 0.049751453
0.083385654 -0.039274342 0.056313906 -0.024257269 -0.021683393 -0.024843706 0.03190461 0.024547605
0.0043796753 -0.11192602 -0.0035709662 0.07427046 0.045189016 -0.0070735603 0.04518927 -0.012838273
0.01376686 0.041392833 0.0644608 -0.07577027 -0.0077374303 -0.0026563525 -0.02645073 -0.015793687
00000000: 6b1b 6dbd 97e0 c7ba ac6d 0a3d a88e 49bb
00000010: 9078 48bc da03 89bc 53ce c5bd 2ec8 4b3d
00000020: 19c6 aa3d 22de 20bd 69a9 663d 2eb7 c6bc
00000030: 5fa1 b1bc 0785 cbbc 69ae 023d 0f18 c93c
00000040: 6183 8f3b 7839 e5bd df06 6abb 1c1b 983d
00000050: 1e18 393d 53c9 e7bb 6218 393d 9f57 52bc
00000060: 658e 613c 888b 293d 0604 843d 712d 9bbd
00000070: 458a fdbb 3316 2ebb 34af d8bc c361 81bc

network.6.weight f4 [16, 32]
0.017042577 -0.22601946 0.35895917 0.29547495 0.016970025 0.038977686 0.17612898 -0.13529797
-0.10985006 -0.09518934 -0.19804622 -0.26641124 0.25674388 0.1778737 -0.16713285 0.04372436
0.28183505 0.032211274 0.16026442 0.2503437 -0.3096671 0.067298904 -0.015806941 -0.17610832
0.06553044 0.0867305 -0.033760842 0.10579642 -0.17047624 0.15174589 0.15753426 0.22300354
0.20728835 0.4058126 0.039101664 -0.076199256 -0.28615263 -0.21188897 -0.13309915 0.21269405
0.23042433 -0.17301524 0.2951335 0.40984806 -0.3729561 -0.039665483 0.43475965 -0.022220198
-0.20101722 -0.0028550685 -0.075637035 -0.21166527 0.51766396 -0.20365423 0.27517635 0.16521327
0.049745936 -0.11719219 0.32656574 -0.29952452 0.26117128 -0.14682901 -0.1867644 -0.21550739
-0.02196086 -0.1284128 0.24727261 0.01029353 0.08469428 0.15930063 -0.05704334 -0.051822025
-0.22593144 0.04731924 -0.1114085 -0.13298942 -0.0070613525 0.229976 -0.16510417 0.10940516
-0.03148926 0.09714831 -0.122832686 0.087476894 -0.26716387 0.020492174 -0.15712763 0.026085187
0.07476724 0.04089966 -0.14512567 0.02995444 -0.047148883 0.20522746 0.047934506 0.1493741
0.16437362 0.37553436 -0.22620013 -0.029219456 -0.16673143 0.016311822 0.0673724 0.26430374
0.36057842 -0.081221305 0.36838236 0.3188916 -0.32537317 -0.1442754 0.4342716 -0.044230733
-0.28480595 0.0966548 -0.114471555 -0.16629292 0.29583758 -0.26434574 0.23339267 -0.08866306
-0.06728274 -0.31192252 0.42660215 0.014732468 0.38612407 -0.05339726 -0.10047851 -0.20080008
0.10249994 0.34914076 -0.29558936 -0.056100745 -0.009074767 -0.11704339 0.074054606 0.3005881
0.38509822 -0.043069083 0.10935891 0.24829699 -0.24065086 -0.1343285 0.19672152 -0.21138619
-0.034659557 -0.019804455 -0.16223541 -0.20925987 0.43751082 -0.049501494 0.2747278 -0.06501418
-0.05921317 -0.08813409 0.28233457 0.01609565 0.3817577 -0.043263532 -0.2409357 -0.13070111
0.14208633 0.2199556 -0.19220497 -0.178879 -0.044984885 -0.25400227 0.09291345 0.12613244
0.47022375 -0.031058725 0.15019467 0.3589053 -0.19425021 -0.17273499 0.29246885 -0.14713581
-0.063350044 -0.060028326 -0.11075479 -0.099578075 0.42783192 -0.06238 0.4064931 -0.07871808
0.10511832 -0.27255237 0.18058959 -0.1918619 0.4266158 -0.030292626 -0.12511043 -0.021778218
-0.110197514 -0.08439916 0.30855915 0.10333657 0.1787502 0.2809802 -0.118474856 0.02605327
-0.109599516 -0.11914725 -0.08197754 -0.17897381 0.26421624 0.26495063 -0.07700662 0.12351737
0.24598053 -0.1517914 0.06757447 -0.023859443 -0.23254955 0.15356511 -0.01764976 -0.13975272
0.07456307 0.2939046 -0.16043599 0.25338894 -0.20162643 0.16872278 0.25707802 0.24100922
-0.074459836 -0.05386423 0.3601553 0.037498638 0.07753511 0.17937112 -0.07771969 -0.065578625
-0.14623089 0.02324077 -0.027505076 -0.0068846005 0.08894205 0.07390837 -0.009125811 0.27148706
0.17295258 -0.03442675 0.25902203 0.14248043 -0.119550504 0.26923317 -0.13894422 0.17843819
0.028611077 0.24801916 -0.11529004 0.04848042 -0.12396684 0.16601689 0.16562034 0.23251109
00000000: e09c 8b3c a571 67be 7fc9 b73e 7e48 973e
00000010: b904 8b3c 11a7 1f3d 285b 343e 8d8b 0abe
00000020: 11f9 e0bd a1f2 c2bd a1cc 4abe 0e67 88be
00000030: ef73 833e 8624 363e e024 2bbe 5118 333d
00000040: af4c 903e f8ef 033d 5b1c 243e 0d2d 803e
00000050: b08c 9ebe 02d4 893d 8f7d 81bc bd55 34be
00000060: d334 863d c39f b13d cf48 0abd cbab d83d
00000070: 5391 2ebe 4663 1b3e a950 213e 0a5b 643e
00000080: 6643 543e abc6 cf3e 1129 203d 5b0e 9cbd
00000090: 9982 92be 6cf9 58be 254b 08be 78cc 593e
000000a0: 5bf4 6b3e e82a 31be bd1b 973e 9bd7 d13e
000000b0: 1af4 bebe 4678 22bd d198 de3e 2207 b6bc
000000c0: 75d7 4dbe 1a1c 3bbb 97e7 9abd c8be 58be
000000d0: a085 043f bc8a 50be eae3 8c3e ab2d 293e
000000e0: 65c2 4b3d 7502 f0bd a033 a73e 475b 99be
000000f0: 3eb8 853e 585a 16be 2b3f 3fbe f8ad 5cbe
00000100: 43e7 b3bc a57e 03be 0835 7d3e 32a6 283c
00000110: 3274 ad3d b41f 233e 47a6 69bd 5543 54bd
00000120: 925a 67be d2d1 413d 242a e4bd 612e 08be
00000130: eb62 e7bb d47e 6b3e 1111 29be d00f e03d
00000140: e2fa 00bd b1f5 c63d b48f fbbd 1627 b33d
00000150: b4c9 88be 34df a73c 11e6 20be 9ab0 d53c
00000160: 911f 993d 6786 273d d39b 14be 0463 f53c
00000170: 301f 41bd 2627 523e f956 443d 86f5 183e
00000180: 8f51 283e 0a46 c03e 02a1 67be a45d efbc
00000190: a5bb 2abe 5fa0 853c 8afa 893d d252 873e
000001a0: bc9d b83e 5b57 a6bd 9d9c bc3e c345 a33e
000001b0: 5097 a6be eebc 13be d958 de3e 492b 35bd
000001c0: 16d2 91be f4f2 c53d 1070 eabd b148 2abe
000001d0: 0678 973e 5358 87be 7dfe 6e3e fa94 b5bd
000001e0: 88cb 89bd 4fb4 9fbe 996b da3e 7360 713c
000001f0: 0eb2 c53e 16b7 5abd adc7 cdbd 899e 4dbe
00000200: 7deb d13d 94c2 b23e 7d57 97be e5c9 65bd
00000210: 55ae 14bc 72b4 efbd f1a9 973d afe6 993e
00000220: 982b c53e 3569 30bd 90f7 df3d 9141 7e3e
00000230: 2e6d 76be 698d 09be 5e71 493e 9f75 58be
00000240: 2ef7 0dbd f43c a2bc 0a21 26be 3848 56be
00000250: 6b01 e03e 14c2 4abd 1fa9 8c3e 2826 85bd
00000260: 8289 72bd a57f b4bd 288e 903e 06db 833c
00000270: bf75 c33e 1a35 31bd d9b7 76be 83d6 05be
00000280: 147f 113e 0a3c 613e 61d1 44be 0e2c 37be
00000290: 1242 38bd 960c 82be 6849 be3d dd28 013e
000002a0: 2bc1 f03e de6e febc a2cc 193e 6fc2 b73e
000002b0: 87e9 46be 71e1 30be 7abe 953e c5aa 16be
000002c0: abbd 81bd 43e0 75bd 68d3 e2bd 97ef cbbd
000002d0: c90c db3e 2c82 7fbd dd1f d03e f236 a1bd
000002e0: 4648 d73d fc8b 8bbe 7aec 383e 7277 44be
000002f0: 636d da3e 3e28 f8bc f31c 00be 3c68 b2bc
00000300: 3caf e1bd 78d9 acbd 77fb 9d3e 20a2 d33d
00000310: 4b0a 373e a3dc 8f3e f2a2 f2bd ab6d d53c
00000320: b675 e0bd 7903 f4bd d7e3 a7bd e944 37be
00000330: 5a47 873e 9ca7 873e a6b5 9dbd adf6 fc3d
00000340: 52e2 7b3e 346f 1bbe 7c64 8a3d e174 c3bc
00000350: 7821 6ebe 2c40 1d3e 3b96 90bc 561b 0fbe
00000360: 86b4 983d aa7a 963e 5549 24be 32bc 813e
00000370: 2977 4ebe aac5 2c3e bb9f 833e 1fcb 763e
00000380: 667e 98bd bda0 5cbd 4766 b83e 2c98 193d
00000390: baca 9e3d 10ad 373e 802b 9fbd 164e 86bd
000003a0: 8dbd 15be 6d63 be3c 5352 e1bc 3798 e1bb
000003b0: 4027 b63d 465d 973d 6d84 15bc 5a00 8b3e
000003c0: 7b1a 313e 1003 0dbd 899e 843e 64e6 113e
000003d0: e5d6 f4bd eed8 893e 6547 0ebe 80b8 363e
000003e0: c761 ea3c bcf8 7d3e 2f1d ecbd 6893 463d
000003f0: 54e2 fdbd 5500 2a3e 6198 293e 6317 6e3e

network.6.bias f4 [16]
0.16112837 0.08085504 0.13578701 0.08578896 0.20369816 0.26523608 0.112890586 0.08873827
0.13953166 0.13997188 0.13055222 0.1859241 0.047895726 0.11686434 0.21711536 0.25758585
00000000: d6fe 243e 5497 a53d c00b 0b3e 1fb2 af3d
00000010: 4096 503e 06cd 873e 2e33 e73d 69bc b53d
00000020: 63e1 0e3e ca54 0f3e 7baf 053e e362 3e3e
00000030: 4f2e 443d 9256 ef3d 7d53 5e3e 4be2 833e

network.8.weight f4 [1, 16]
0.27817014 -0.4886906 0.39034534 -0.52237576 -0.52908784 -0.4514325 0.3780683 0.16964246
-0.5301481 0.32161725 -0.59748226 -0.45684984 0.34568807 0.2041092 -0.61529076 -0.51055026
00000000: 516c 8e3e a835 fabe 58db c73e 6bba 05bf
00000010: 4d72 07bf 2922 e7be 2b92 c13e c1b6 2d3e
00000020: c9b7 07bf 04ab a43e 99f4 18bf 39e8 e9be
00000030: 07fe b03e 0102 513e b283 1dbf 6cb3 02bf
