第六次作业10245501405杨云天/model/Multidisciplinary.pth (torch, 15449 bytes, 7 tensors)

network.0.weight f4 [64, 3]
0	0xbe3a374e	-0.1818516
1	0x3dee8f48	0.116484225
2	0xbee94a18	-0.45564342
3	0x3e9c09db	0.3047627
4	0xbeb23a30	-0.3481002
5	0xbe4d1157	-0.20026146
6	0xb8ab9e0c	-8.183354e-05
7	0xbe743cde	-0.23851344
8	0xbde1d6cf	-0.110272996
9	0x3eba9d2c	0.36448038
10	0x3f3502c1	0.7070733
11	0x3e75c60b	0.24001329
12	0xbebdeef3	-0.37096366
13	0x3d485d50	0.048917115
14	0xbe8310e2	-0.25598818
15	0x3f404a61	0.75113493
16	0x3ef17234	0.47157443
17	0x3f3641e7	0.7119431
18	0x3e9a83bd	0.30178633
19	0x3f3ccfad	0.7375439
20	0x3f22073a	0.63292277
21	0xbe4b0be9	-0.19828762
22	0xbe5e5b82	-0.21714595
23	0x3ef81989	0.48456982
24	0xbf2d4b3c	-0.67692924
25	0xbf7176f4	-0.94322133
26	0xbde48b7a	-0.111594155
27	0x3d6f0ca3	0.05836166
28	0x3f10da26	0.5658287
29	0xbeb2984d	-0.3488182
30	0xbf3d45aa	-0.73934424
31	0xbf2a923d	-0.6662939
32	0xbf0beb9c	-0.54656386
33	0x3ee72200	0.45143127
34	0x3e7fb49a	0.24971238
35	0x3ed4293e	0.41437715
36	0xbd0dda3f	-0.034631964
37	0xbcc1264c	-0.023577832
38	0x3f28da61	0.6595822
39	0xbddf6e2a	-0.10909684
40	0x3e41cbba	0.18925372
41	0xbe815565	-0.25260463
42	0xbe81d0f0	-0.2535472
43	0xbf0d829a	-0.5527741
44	0x3c8491f2	0.016182873
45	0xbe3d8509	-0.1850778
46	0xbf043624	-0.5164511
47	0xbf088605	-0.533295
48	0x3bd08644	0.006363662
49	0x3f29c5be	0.66317356
50	0x3f05e812	0.52307236
51	0x3de1217c	0.10992715
52	0x3d14c287	0.03631833
53	0xbed2a046	-0.41137904
54	0xbf1752cd	-0.5911072
55	0xbea26b1a	-0.31722337
56	0xbefd2d07	-0.49448416
57	0x3ea57a30	0.32319784
58	0x3ec9d8cf	0.39423224
59	0x3f31c65f	0.69443315
60	0x3ea4eebd	0.32213393
61	0xbf5342d9	-0.82523876
62	0xbe28d98f	-0.16489242
63	0xbec76b95	-0.38949266
64	0x3d815b0b	0.06316193
65	0x3f1023cb	0.56304616
66	0xbe01f184	-0.12689787
67	0xbeb6e32c	-0.35720193
68	0x3e4d6ae0	0.20060301
69	0xbdd018a6	-0.10160951
70	0xbea54773	-0.32281074
71	0xbb9a12d6	-0.0047019524
72	0xbe6b18f1	-0.22958733
73	0xbf03fb09	-0.51554924
74	0xbcf95a96	-0.030438703
75	0x3eba9c2e	0.3644728
76	0xbf0a0d3e	-0.53926456
77	0xbea9ee98	-0.33189845
78	0xbeb595a3	-0.35465726
79	0xbef59b64	-0.47970116
80	0x3edd98a4	0.43280518
81	0x3dce8b3e	0.10085152
82	0xbed6107f	-0.4180946
83	0xbe8b9933	-0.2726532
84	0x3d318056	0.04333528
85	0xbf5632c8	-0.83671236
86	0xbf1c9523	-0.61165065
87	0x3ee00fda	0.43762094
88	0xbbb4fd3a	-0.005523351
89	0x3e9f2794	0.31084883
90	0x3f246643	0.6421854
91	0x3f6ad8c0	0.91736984
92	0x3f32eef5	0.6989587
93	0x3ea90117	0.33008644
94	0xbf3ffd31	-0.74995714
95	0xbc7b15b7	-0.015325001
96	0xbe89ebf0	-0.2693782
97	0x3de8efd7	0.11373871
98	0x3dc8cce3	0.09804704
99	0xbe847564	-0.25870812
100	0x3f0c4076	0.5478586
101	0x3f2abd5f	0.6669521
102	0xbe227e32	-0.15868452
103	0xbdfe66e1	-0.12421966
104	0xbe49e9cf	-0.19718097
105	0xbe9dd021	-0.30822852
106	0x3f2cb78f	0.6746759
107	0x3f250663	0.6446287
108	0xbee036f9	-0.4379194
109	0xbf023357	-0.5085959
110	0xbcb88ed7	-0.022529049
111	0xbd3ba5ed	-0.045812536
112	0x3f167946	0.587788
113	0x3ec99ed4	0.3937899
114	0xbda2f456	-0.0795676
115	0xbf05c773	-0.5225746
116	0xbdaa6454	-0.08319917
117	0xbee05097	-0.43811485
118	0xbf5172d4	-0.8181584
119	0x3e6e8690	0.23293519
120	0xbee35697	-0.44402
121	0x3e615584	0.22005278
122	0x3dc9acd6	0.09847419
123	0xbee59c94	-0.44846022
124	0xbf380639	-0.71884495
125	0x3ee01ae4	0.43770516
126	0xbebe820a	-0.37208587
127	0x3f0fbfed	0.5615223
128	0xbec54370	-0.38528013
129	0x3e276f06	0.16350946
130	0xbf139768	-0.576529
131	0xbd09a039	-0.033600066
132	0x3f02b70a	0.51060545
133	0x3dbdd346	0.09268813
134	0x3ed4a03d	0.41528502
135	0xbe3fef40	-0.1874361
136	0xbed3a074	-0.41333354
137	0xbf0c1580	-0.54720306
138	0xbec96517	-0.39334938
139	0xbdcfd78e	-0.10148536
140	0x3e59b58d	0.21260662
141	0xbdfb3cbe	-0.12267445
142	0x3e920f6a	0.28527385
143	0x3e635429	0.22200073
144	0xbf1b83da	-0.60748065
145	0xbf1da75d	-0.615835
146	0x3e8d935a	0.27651483
147	0xbefcbb67	-0.49361727
148	0x3e6c01c6	0.23047552
149	0xbcebafd8	-0.028770372
150	0x3edffc57	0.43747208
151	0x3f2fe8ea	0.68714774
152	0xbe7e72f7	-0.24848543
153	0x3f103b3a	0.5634037
154	0x3eebde54	0.4606806
155	0x3ebe2c41	0.37143138
156	0x3ede75ec	0.43449342
157	0x3f28cd5e	0.65938365
158	0x3e0aab06	0.13541803
159	0xbf118c4d	-0.56854707
160	0xbeafe1dd	-0.34352008
161	0x3d3a2125	0.045441765
162	0xbc628db8	-0.013827734
163	0x3ee70a40	0.45125008
164	0xbeb7e771	-0.35918763
165	0x3d9ee810	0.07759106
166	0x3dd3b40d	0.10337076
167	0x3e5b254e	0.2140095
168	0xbd9f0809	-0.077652045
169	0xbeccc23a	-0.39991933
170	0x3f0c6b33	0.54851073
171	0x3f16f6b5	0.58970195
172	0x3e970b81	0.29500964
173	0x3e4bfaaf	0.19919847
174	0xbe0d0b11	-0.13773753
175	0x3f5a378f	0.85241026
176	0x3f48dd78	0.78462934
177	0x3d95f63a	0.073223546
178	0x3e2620c7	0.16223441
179	0x3ef1b583	0.47208795
180	0x3eea581a	0.4577034
181	0x3f064059	0.52441937
182	0xbd9fc187	-0.07800584
183	0x3e3168f4	0.17325193
184	0xbdf7fb98	-0.121085346
185	0xbe87599d	-0.26435557
186	0x3f0e0af2	0.5548545
187	0xbdc4d242	-0.09610416
188	0xbeb80a27	-0.35945246
189	0x3e8ef6fd	0.27922812
190	0x3f4c105c	0.7971246
191	0x3f200f5a	0.62523425

network.0.bias f4 [64]
0	0xbeb939c2	-0.36176878
1	0xbd92f58d	-0.07175741
2	0xbddc43e3	-0.10755136
3	0xbc4affb8	-0.01239007
4	0xbd75c7a2	-0.060004838
5	0xbdab4c9b	-0.08364221
6	0xbd68a3d8	-0.05679688
7	0xbeb45ee3	-0.35228643
8	0x3ea10324	0.3144771
9	0xbe341d4c	-0.17589301
10	0x3ecd2ee0	0.40074825
11	0x3e58a3b9	0.21156205
12	0xbd3d2149	-0.04617432
13	0xbd7133e6	-0.058887385
14	0xbe460069	-0.19336094
15	0xbcc9e2aa	-0.024644215
16	0xbd0c0aac	-0.034189865
17	0xbe4cd146	-0.20001706
18	0x3e76a54d	0.24086495
19	0xbea31174	-0.31849253
20	0x3ebe98f1	0.3722606
21	0xbeb48388	-0.352566
22	0x3ed1b08d	0.4095501
23	0xbeda3204	-0.42616284
24	0xbebd1525	-0.36930194
25	0xbf132e3b	-0.5749242
26	0xbe258045	-0.16162212
27	0x3eee2c0f	0.4651799
28	0x3e67a140	0.22620106
29	0xbf02df58	-0.51122046
30	0xbd1264e0	-0.035740733
31	0x3d9d6ee9	0.0768717
32	0xbdda1413	-0.1064836
33	0xbebe06e1	-0.37114623
34	0xbed4b38e	-0.4154324
35	0xbe8a7fa3	-0.27050504
36	0x3e83b271	0.25722077
37	0x3ce890e3	0.0283894
38	0xbe19525d	-0.14972825
39	0x3e3f0ff8	0.18658435
40	0x3edf6d7f	0.43638226
41	0x3ee9b5f3	0.4564663
42	0xbeb5eedb	-0.35533795
43	0xbf11373a	-0.56724894
44	0xbd81fbc6	-0.0634685
45	0x3e016f2f	0.1264007
46	0xbece51b3	-0.40296707
47	0x3e16ddc3	0.14733033
48	0x3ed282dc	0.41115463
49	0xbcf42ede	-0.029807504
50	0x3ef6e768	0.48223424
51	0x3e2f8ed9	0.17144336
52	0xbe560521	-0.20900394
53	0x3e88abad	0.26693478
54	0xbeb54933	-0.3540741
55	0xbee3ee5d	-0.44517794
56	0xbe863482	-0.26211935
57	0x3e5560c0	0.20837688
58	0xbcfd4f9c	-0.03092175
59	0xbf063b76	-0.5243448
60	0x3ed5956c	0.41715562
61	0xbeee8dd9	-0.46592596
62	0xbef672ba	-0.48134404
63	0x3e9aa4d1	0.3020387

network.3.weight f4 [32, 64]
0	0xbdc1b800	-0.09458923
1	0x3d92917a	0.07156654
2	0x3d57d30c	0.052691504
3	0xbcf62b8c	-0.030050062
4	0x3daddad4	0.08489004
5	0xbddec77a	-0.10877891
6	0xbe4a2257	-0.19739662
7	0xbdb3648e	-0.08759414
8	0x3e4fc22b	0.20288913
9	0xbdd3bd68	-0.10338861
10	0x3dec07b2	0.11524905
11	0xbdf4fb30	-0.11961973
12	0xbdaf923d	-0.085728146
13	0xbd96b6c4	-0.073590785
14	0xbdbc764a	-0.09202249
15	0xbd8f9a5e	-0.07011865
16	0xbe5b19cb	-0.21396558
17	0xbd467e2c	-0.04846017
18	0x3e7019a3	0.2344728
19	0xbdf65de4	-0.12029627
20	0xbbf29d1b	-0.0074039823
21	0x3cddc4c8	0.027071372
22	0x3dec538b	0.11539372
23	0x3dbd79ee	0.09251772
24	0xbd23202c	-0.039825603
25	0x3d5b8fcc	0.053603932
26	0xbd399908	-0.045311958
27	0x3da1b4fd	0.07895849
28	0x3d43429b	0.04767094
29	0xbda4e020	-0.08050561
30	0xbdee6db3	-0.11642017
31	0x3e8b7b43	0.2724248
32	0x3dd5400a	0.10412605
33	0xbdd41086	-0.10354714
34	0xbc8d8470	-0.017275065
35	0xbe01c54a	-0.12672916
36	0x3adb0fc4	0.0016713073
37	0xbe5aee6b	-0.21380012
38	0xbdbaee9e	-0.09127544
39	0x3e534f4c	0.20635718
40	0x3e133106	0.1437417
41	0x3df9d508	0.121988356
42	0x3dc6dd82	0.09710218
43	0x3d8460da	0.064637855
44	0xbe3e9ff8	-0.1861571
45	0x3e7686e0	0.24074888
46	0x3def33ae	0.11679779
47	0x3ddb0a98	0.1069538
48	0xbcaca4dd	-0.021074707
49	0x3d2401ac	0.040040657
50	0xbdc79695	-0.09745518
51	0x3d1aa9ff	0.037759777
52	0xbbee3619	-0.0072696325
53	0x3e378917	0.1792339
54	0xbd83c992	-0.06434931
55	0xbdb2f8f2	-0.08738889
56	0xbd12fb88	-0.03588441
57	0xbd435998	-0.047692865
58	0xbea4bdaa	-0.32175952
59	0xbd86edee	-0.0658835
60	0xbda3d828	-0.08000213
61	0xbc98be90	-0.018645555
62	0xbd53f200	-0.05174446
63	0xbd8c9a66	-0.06865387
64	0xbdec84d4	-0.115487725
65	0x3d90ae08	0.07064444
66	0xbd79f0d8	-0.061020702
67	0x3e512c06	0.2042695
68	0x3dbc0904	0.09181407
69	0x3ea33d3d	0.3188266
70	0x3eab89de	0.33503622
71	0xbbfdd3c0	-0.00774619
72	0xbdb5d692	-0.08878817
73	0x3e01d336	0.12678227
74	0xbdd80b52	-0.10549034
75	0x3ca0d6da	0.0196337
76	0x3da2b2a8	0.07944232
77	0x3d06f6ac	0.03295009
78	0x3df13ac0	0.11778784
79	0xbd4b78a8	-0.049675614
80	0x3ea1b633	0.3158432
81	0xbd8067da	-0.06269808
82	0xbd7b8013	-0.061401438
83	0x3e01d267	0.12677918
84	0x3cb58942	0.022160176
85	0x3dafe1da	0.08588
86	0xbd224e2e	-0.03962534
87	0x3bfecb80	0.007775724
88	0x3cbb65f8	0.02287577
89	0x3d974b66	0.07387428
90	0x3d07cfc4	0.033157125
91	0x3d82e9b9	0.06392235
92	0xbe1e6841	-0.15469457
93	0x3d5a5a59	0.05330882
94	0x3d02a2b1	0.031893436
95	0xbdd1e653	-0.10249009
96	0xbd0b70bc	-0.03404306
97	0x3d21882b	0.0394365
98	0xbd3c5cd4	-0.045986965
99	0x3e3011e3	0.17194323
100	0xbde5c068	-0.11218339
101	0x3e1c784a	0.15280262
102	0x3b766f00	0.0037602782
103	0xbd789c91	-0.06069619
104	0x3cf13577	0.02944444
105	0x3ccd6b1d	0.02507549
106	0xbd97abb0	-0.07405794
107	0xbc1505f0	-0.009095654
108	0x3e616ca1	0.22014095
109	0xbe2eb941	-0.17062856
110	0x3c63f530	0.013913438
111	0x3de9467e	0.113903984
112	0xbd206ee8	-0.03916827
113	0x3d07670c	0.033057258
114	0xbd985b21	-0.074392565
115	0x3d1ce774	0.03830667
116	0x3e3dd7aa	0.185393
117	0xbcf03b76	-0.029325228
118	0xbc582950	-0.013193443
119	0x3da37b54	0.07982507
120	0xbdbb228e	-0.0913745
121	0x3dcb8fe6	0.09939556
122	0x3e73c717	0.23806415
123	0xbd78eef1	-0.060774747
124	0x3ddfd913	0.109300755
125	0x3dfe5f6c	0.12420544
126	0x3df1af8c	0.11801061
127	0x3e015814	0.12631255
128	0x3da68bba	0.081321195
129	0x3d7c2394	0.061557367
130	0xbdd9693e	-0.106157765
131	0x3d42afc3	0.0475309
132	0x3b05e340	0.002042964
133	0x3e71c16f	0.23608945
134	0x3e3163f5	0.17323287
135	0xbc563cf0	-0.013076052
136	0xbe327df6	-0.17430863
137	0x3df021a9	0.1172517
138	0xbd364a7d	-0.04450463
139	0x3d062f3a	0.032759883
140	0x3e04b8af	0.12961076
141	0x3bd1e880	0.00640589
142	0xbdc3a60e	-0.09553157
143	0xbca93e38	-0.020659551
144	0x3e220fd7	0.15826355
145	0x3ddff382	0.10935117
146	0xbd39e303	-0.04538251
147	0x3c478adb	0.012179102
148	0x3d828bb4	0.063743025
149	0x3cfad7f0	0.030620545
150	0x3c496884	0.012292985
151	0xbda70ae0	-0.08156371
152	0x3c24ce70	0.010058984
153	0xbc406590	-0.011742964
154	0xbd9c5dc2	-0.076350704
155	0xbcdb2876	-0.026752692
156	0xbe193b7a	-0.14964095
157	0x3d750c45	0.059826154
158	0x3e5d0420	0.21583605
159	0xbe770af8	-0.24125278
160	0xbd6b07c0	-0.057380438
161	0x3e31406f	0.17309736
162	0xbdf33bea	-0.11876662
163	0x3e18fcf6	0.14940247
164	0xbc44aa65	-0.012003516
165	0x3e8e32ca	0.27773124
166	0x3ce5b318	0.0280395
167	0xbd99f37a	-0.075171426
168	0x3d7173e2	0.058948405
169	0xbc89dc9d	-0.01682883
170	0x3dffbd74	0.12487307
171	0x3d82b9d8	0.06383103
172	0x3ddcf005	0.107879676
173	0xbe678ad7	-0.22611557
174	0xbd5f8980	-0.05457449
175	0x3e07bd99	0.1325592
176	0x3d1312ee	0.035906725
177	0x3d8d769c	0.069073886
178	0xbd75a52e	-0.05997198
179	0x3de90b47	0.11379104
180	0xbc2b671b	-0.010461594
181	0xbdfbd46a	-0.12296374
182	0x3c56ed60	0.013118118
183	0x3d15aad0	0.036539853
184	0xbdf406e2	-0.11915375
185	0x3dd11352	0.10208763
186	0x3e935b35	0.28780523
187	0xbd1e4648	-0.038641244
188	0x3cdd7372	0.027032588
189	0x3c8345e0	0.01602453
190	0xbb0b2100	-0.0021229386
191	0xbbb7a345	-0.00560418
192	0xbd33d980	-0.043908596
193	0xbd9d8c8a	-0.07692821
194	0xbcb844a8	-0.022493675
195	0xbd4d2d84	-0.050092235
196	0xbce853e0	-0.028360307
197	0xbea4649f	-0.32108018
198	0xbeabb05b	-0.33532986
199	0xbd893134	-0.06698838
200	0x3e46e84f	0.19424556
201	0xbdc6fe28	-0.09716445
202	0x3de6cfd7	0.11270111
203	0x3d98ce10	0.07461178
204	0xbe37372d	-0.17892142
205	0xbdbd92c4	-0.09256509
206	0xbd222744	-0.039588228
207	0xbdd4c742	-0.10389568
208	0xbea77359	-0.3270519
209	0x3dbcc686	0.09217553
210	0x3de30252	0.11084427
211	0xbd7e005a	-0.062012054
212	0x3db7cc1a	0.08974476
213	0x3b3cb740	0.002879575
214	0x3d17f483	0.03709842
215	0x3d80961c	0.06278631
216	0xbda18428	-0.07886535
217	0x3d417788	0.047233135
218	0xbdad6aa2	-0.08467604
219	0x3c866a5c	0.016408138
220	0x3e15a5ae	0.14613983
221	0xbd33ee67	-0.04392853
222	0xbe3ebc52	-0.18626526
223	0x3e08a6ce	0.13344881
224	0xbd35513c	-0.044266924
225	0xbdb5e2ce	-0.0888115
226	0xbc9006b8	-0.017581329
227	0xbdc350f8	-0.09536928
228	0x3dd94e9f	0.10610699
229	0xbe04e6cf	-0.12978671
230	0x3db8052a	0.0898536
231	0x3e41d771	0.1892984
232	0x3e06e2a4	0.13172394
233	0xbd457e10	-0.048215926
234	0x3cb64138	0.022247896
235	0x3dd4c9b8	0.10390037
236	0xbe42ac11	-0.1901095
237	0x3e219eb8	0.15783203
238	0xbdb6e202	-0.08929826
239	0xbd89327a	-0.06699081
240	0x3dd324ab	0.10309728
241	0x3d613c58	0.05498919
242	0xbd9cc0cd	-0.07653961
243	0xbda45df0	-0.0802573
244	0xbc2ed971	-0.010671959
245	0x3dc7bed0	0.097531915
246	0xbc9e7c70	-0.019346446
247	0xbafc3b80	-0.0019243807
248	0x3da6fc8c	0.08153638
249	0xbdc2c524	-0.09510258
250	0xbebc1ac5	-0.36739174
251	0xbd5556d7	-0.05208477
252	0x3d53daca	0.051722325
253	0x3d36c2c4	0.044619337
254	0x3d52840c	0.05139546
255	0x3dcd64e8	0.10029012

network.3.bias f4 [32]
0	0x3df6a904	0.12043956
1	0xbcffc217	-0.031220479
2	0x3d053044	0.032516733
3	0xbb5c2c23	-0.0033595643
4	0x3e0eb881	0.1393757
5	0x3d709ee7	0.05874529
6	0x3dc50eba	0.096219495
7	0x3cf110c9	0.02942695
8	0xbd8df787	-0.06931978
9	0x3bddce6e	0.006768993
10	0x3d95de49	0.07317788
11	0x3d03764d	0.032095242
12	0xbc70c18d	-0.014694584
13	0x3cbcf75d	0.02306717
14	0x3d764104	0.060120597
15	0xbdaac4b3	-0.08338299
16	0x3e2459e3	0.16049914
17	0x3da9fbd4	0.082999855
18	0xbdbc5031	-0.09194983
19	0x3dd244e6	0.102670476
20	0xbdc304c5	-0.09522394
21	0x3daf21a4	0.08551338
22	0x3d0f43c6	0.034976743
23	0xbd77b455	-0.060474712
24	0xbd3b5be7	-0.04574194
25	0x3dfcf28d	0.123509504
26	0x3e0b7f57	0.13622795
27	0x3d8971fb	0.06711193
28	0x3e284797	0.1643356
29	0x3dee9cb7	0.11650985
30	0xbbbddebe	-0.005794375
31	0x3d384221	0.04498494

network.6.weight f4 [16, 32]
0	0xbc8dbba4	-0.017301388
1	0x3db2e6fe	0.087354645
2	0x3e24e3f8	0.16102588
3	0xbdfd72f4	-0.12375441
4	0xbd5f2c87	-0.054485824
5	0x3e54325e	0.20722339
6	0xbc6a7b3c	-0.014311608
7	0xbddf2615	-0.108959354
8	0x3de03514	0.10947624
9	0x3da6981f	0.081344835
10	0x3e3eab20	0.18619967
11	0x3e0523e1	0.13001968
12	0x3e3bb6dc	0.18331474
13	0xbd40d5ae	-0.04707878
14	0xbc43fd20	-0.011962205
15	0x3e177bbf	0.14793299
16	0x3d1fffd2	0.03906233
17	0x3e20fdfc	0.15721887
18	0xbe23dd93	-0.16002493
19	0xbdb7ec52	-0.089806214
20	0xbd36a057	-0.044586506
21	0xbe2bf82b	-0.16793887
22	0x3e8de57a	0.2771414
23	0x3bde837f	0.006790578
24	0x3dcbd0ab	0.0995191
25	0xbbc6b72f	-0.0060643177
26	0xbd88b7ae	-0.06675659
27	0xbe033ff6	-0.12817368
28	0x3d9fefa6	0.07809381
29	0x3e2e7c04	0.17039496
30	0x3e82fa78	0.25581717
31	0xbe16db1b	-0.1473202
32	0x3e610428	0.21974242
33	0xbe5b9baa	-0.214461
34	0xbe834b33	-0.2564331
35	0x3d894c39	0.067039914
36	0x3e483589	0.19551672
37	0xbe2820c0	-0.16418743
38	0x3da43fcf	0.08019983
39	0xbe07f3c6	-0.13276586
40	0x3e0117d3	0.12606744
41	0xbd0a77fd	-0.033805836
42	0x3d51baf8	0.051203698
43	0x3da21da0	0.07915807
44	0xbe1b18be	-0.15146157
45	0x3e89f3df	0.2694387
46	0xbe53be39	-0.20678033
47	0xbdf6dc5b	-0.12053748
48	0x3db35754	0.08756891
49	0xbe48de00	-0.19615936
50	0xbd693110	-0.056931555
51	0x3e619d84	0.22032744
52	0x3d14520f	0.03621107
53	0x3b7ce5ee	0.0038589197
54	0x3d2e6474	0.04257627
55	0x3d2c5b84	0.042079464
56	0xbd03cb91	-0.032176558
57	0x3e6ada1c	0.22934765
58	0x3e6147d1	0.22000052
59	0x3e8c6010	0.2741704
60	0x3df3134c	0.11868915
61	0x3def94be	0.11698292
62	0xbd779cc4	-0.060452238
63	0x3e807c69	0.25094917
64	0xbe2cf3c1	-0.1688986
65	0x3e67e9e3	0.22647814
66	0x3dc0ee26	0.09420423
67	0x3dbf9c68	0.09356004
68	0xbd7a0fa4	-0.061050072
69	0x3e9439dc	0.28950393
70	0xbdedb64c	-0.11607036
71	0x3d24b3ee	0.040210657
72	0x3df59b34	0.11992493
73	0x3e06ae4b	0.13152425
74	0x3c11075b	0.008851851
75	0x3d53b7eb	0.05168907
76	0x3e9151d8	0.28382754
77	0x3cd42444	0.025896199
78	0x3d1de45d	0.038547862
79	0xbe2c744e	-0.16841242
80	0xbda92298	-0.08258551
81	0x3e844def	0.2584071
82	0x3c24a874	0.010049928
83	0xbe15fcdc	-0.1464724
84	0xbd8486fb	-0.06471058
85	0xbe307353	-0.17231493
86	0x3e084454	0.13307315
87	0xbd487e36	-0.04894849
88	0x3df8ffd2	0.12158169
89	0x3d627802	0.05529023
90	0xbe39d646	-0.18148145
91	0xbddce24a	-0.10785349
92	0x3e268461	0.16261436
93	0x3e9f5d65	0.31125942
94	0x3dd2cbe6	0.10292797
95	0xbc835b5c	-0.016034774
96	0x3bb081c6	0.005386564
97	0x3e49bd95	0.19701226
98	0xbbe97a45	-0.0071251714
99	0xbdcbdf38	-0.09954685
100	0xbcf43f25	-0.029815266
101	0x3c91a1f5	0.017777422
102	0xbe26ae38	-0.16277397
103	0x3c1e7d8f	0.00967349
104	0x3d869f44	0.06573346
105	0x3d654416	0.055973135
106	0x3dbe6aa3	0.09297683
107	0xbd7fa0e7	-0.062409308
108	0x3e880068	0.2656281
109	0x3e397b0a	0.18113342
110	0x3e303dc3	0.1721106
111	0x3dec34dd	0.1153352
112	0xbd8b98c4	-0.06816247
113	0x3e029330	0.1275146
114	0x3d9cea18	0.07661837
115	0xb943284b	-0.0001861166
116	0x3b807c39	0.0039210585
117	0xbdd94d45	-0.10610441
118	0x3cdc6fd6	0.026908796
119	0xbd087544	-0.03331496
120	0xbd060074	-0.032715276
121	0xbc32a60a	-0.010903845
122	0xbe2c409a	-0.16821519
123	0x3dc6648a	0.09687145
124	0x3d2d1966	0.04226055
125	0x3e4907f4	0.1963194
126	0x3dbb7d96	0.09154813
127	0xbd8632d0	-0.065526605
128	0x3db2bf85	0.08727936
129	0xbd60f118	-0.054917425
130	0xbdc8d207	-0.098056845
131	0x3e5ae6a8	0.21377051
132	0x3da3080c	0.07960519
133	0x3e03cdf4	0.12871534
134	0x3dacd6b4	0.08439389
135	0x3de77bd0	0.11302912
136	0xbd89f731	-0.06736601
137	0x3c7d5613	0.015462416
138	0x3d4364e9	0.047703657
139	0xbd487402	-0.04893876
140	0xbe24afa3	-0.16082625
141	0xbd0743f9	-0.03302381
142	0xbdfb1de1	-0.12261558
143	0xbde7f0ff	-0.11325263
144	0xbe3e0e99	-0.18560256
145	0xbd012e1f	-0.031538125
146	0xbdc4c0fc	-0.09607121
147	0xbd82d639	-0.06388516
148	0x3e036976	0.12833199
149	0xbc2a4df9	-0.010394567
150	0xbcf0d822	-0.029399935
151	0xbdfa7c88	-0.12230784
152	0x3d3fe58a	0.046849765
153	0x3e7e7259	0.24848308
154	0x3e1183f9	0.142105
155	0x3e08cd1f	0.13359497
156	0x3d91c9ff	0.07118606
157	0xbdb89e89	-0.09014613
158	0x3d62c279	0.055361245
159	0x3de80716	0.113294765
160	0x3e8f25ef	0.2795863
161	0xbdf16681	-0.11787129
162	0xbe6ece50	-0.2332089
163	0x3e00dec1	0.12584974
164	0x3e0695e5	0.13143118
165	0xbce72eac	-0.028220497
166	0x3e8973cf	0.26846167
167	0xbdb50f3c	-0.08840796
168	0x3e0f1429	0.13972534
169	0x3de9d293	0.11417117
170	0xbc280f69	-0.01025758
171	0x3e19aeb0	0.15008044
172	0x3d106c78	0.035259694
173	0x3e48251a	0.19545403
174	0xbe2c9618	-0.16854131
175	0xbda52436	-0.08063547
176	0x3e7854f7	0.24251162
177	0xbdbe811e	-0.09301971
178	0xbe33ae64	-0.17546993
179	0x3e57a03f	0.21057223
180	0xbe156ca2	-0.14592221
181	0x3e8a13f6	0.26968354
182	0x3d3a08ba	0.04541848
183	0xbd29bd83	-0.041440498
184	0xbe209ebd	-0.15685554
185	0xbcc0c556	-0.023531597
186	0x3e246c5a	0.16056958
187	0x3e30863a	0.17238703
188	0x3dd900a3	0.105958246
189	0xbdc904dc	-0.0981538
190	0xbc58560f	-0.013204112
191	0x3ea07ac5	0.31343666
192	0xbc1b0887	-0.009462482
193	0xbbb58959	-0.0055400548
194	0x3dfbe788	0.123000205
195	0xbda70952	-0.081560746
196	0xbd670c95	-0.056408484
197	0x3d20ca84	0.039255634
198	0xbd0a5c8c	-0.033779666
199	0xbd83c09f	-0.06433224
200	0xbdc2a858	-0.09504765
201	0xbd455dc0	-0.04818511
202	0xbd5583c5	-0.05212762
203	0xbd8d0c72	-0.068871394
204	0x3e59d5f5	0.21273024
205	0x3e123aa5	0.14280184
206	0x3e355550	0.17708325
207	0xbe3375c6	-0.17525396
208	0xbdf0a39b	-0.11749955
209	0x3c911be9	0.017713504
210	0xbe1c616b	-0.15271537
211	0xbdf2a18f	-0.11847221
212	0x3d3179d8	0.04332909
213	0xbe0b5826	-0.13607845
214	0x3da39fe7	0.07989483
215	0xbdc0ac8a	-0.09407909
216	0x3e62a2a4	0.22132355
217	0x3c16d502	0.009206058
218	0x3cf661bc	0.0300759
219	0x3cc4ec8d	0.024038577
220	0xbc2988d8	-0.0103475675
221	0x3e19099f	0.14945076
222	0x3ea3e19a	0.32008058
223	0xbd8887b9	-0.06666512
224	0xbe514b6e	-0.2043893
225	0x3da0e15e	0.078554854
226	0x3ea7a283	0.32741174
227	0xbda620f9	-0.08111758
228	0xbe2ac9d4	-0.16678554
229	0x3e9f5bc6	0.31124705
230	0xbe100b80	-0.14066887
231	0x3d76e70b	0.060278933
232	0xbe0488af	-0.12942766
233	0x3d7625c7	0.06009462
234	0xbcc049e2	-0.02347273
235	0xbdd8f891	-0.10594285
236	0x3ca56835	0.020191291
237	0xbe2fbcf5	-0.17161925
238	0x3e3f5522	0.1868482
239	0xbdc34cee	-0.095361575
240	0x3d0ef796	0.034904085
241	0x3e77eea0	0.24212122
242	0xbbb798cc	-0.0056029316
243	0x3d14c97c	0.036324963
244	0xbdd15088	-0.10220438
245	0x3ccda9a7	0.02510531
246	0x3e5750f0	0.21026969
247	0x3df10c77	0.117699556
248	0x3df42d46	0.11922698
249	0xbda53fe2	-0.08068825
250	0xbe278ed9	-0.16363086
251	0xbdcf20d0	-0.1011368
252	0xbcbbc881	-0.022922756
253	0xbcb3078c	-0.021854185
254	0x3e3027b2	0.17202643
255	0x3d27ae19	0.040937517

network.6.bias f4 [16]
0	0xbc169e35	-0.009192993
1	0x3e503443	0.20332436
2	0x3c2aae68	0.010417558
3	0x3d4e828c	0.050417468
4	0xbe03d4d0	-0.1287415
5	0x3db43fcb	0.0880123
6	0x3e11194b	0.14169805
7	0x3e2464d3	0.16054086
8	0x3e0f1ad7	0.13975082
9	0xbd88f386	-0.066870734
10	0x3e0e8f77	0.13921915
11	0x3e5800ca	0.21094051
12	0xbdb8e5e1	-0.09028221
13	0xbad55c36	-0.0016278091
14	0x3d87033b	0.06592413
15	0xbcc1b150	-0.02364412

network.8.weight f4 [1, 16]
0	0x3eb33246	0.34999293
1	0xbe943123	-0.28943738
2	0x3e65b4df	0.22432278
3	0x3e4ba72c	0.1988799
4	0xbd90bb2d	-0.07066951
5	0xbeaeec8a	-0.3416484
6	0x3e6e5c81	0.23277475
7	0x3dcc3b8e	0.09972297
8	0xbdf988de	-0.121843085
9	0xbeaa28f0	-0.33234358
10	0xbe420eb5	-0.18950923
11	0xbe14b8c6	-0.1452361
12	0x3e67c3a7	0.22633229
13	0x3e5352bc	0.2063703
14	0x3dad9b35	0.08476869
15	0x3eabc089	0.3354533
