第六次作业10245501405杨云天/model/Neuroscience & Behavior.pth (torch, 15597 bytes, 7 tensors)

network.0.weight f4 [64, 3]
00000000: 12c2 13bf 67de 04bf 2ed4 4dbf 273c bebe
00000010: 0d8b efbe e60e 3abf 67a0 de3e 29b8 da3e
00000020: 4333 ba3e ab5c 1b3f 009f 8c3d dcb8 ee3e
00000030: 1c67 813e 6615 b83f 6196 f23e 8e4b 393f
00000040: 2d44 2b3f 8e5a e33e f46d a03d 1711 b43f
00000050: cb33 9d3d afe9 b93e 4615 a83f c0a1 223f
00000060: e8c2 aa3e c719 be3e cdfe fb3d 01c8 153f
00000070: 00f5 663f eced 653f cb7e bd3e bf6e fe3e
00000080: 7b3a 813d 1ced 4a3e e742 343e 61f2 30be
00000090: babd f5be b626 bebc 80ec 4f3e 794d 34bf
000000a0: 6232 c4bf e925 82bf 8256 acbd 6485 20be
000000b0: c2bf 13bf ff76 273f 570e af3d 4ef6 073f
000000c0: 7311 603f a749 fe3e f0c5 5f3f 5919 d63e
000000d0: ff2c 98bd c159 00bf 75c1 4ebe 483b aebf
000000e0: 2e34 ca3d 5e3a e6be fc0c ddbd b6df a1be
000000f0: 0f97 efbd 4f60 7e3e af93 99be ab43 e6be
00000100: 5c5c 29be 5134 553d 110b 89be ba31 9abc
00000110: dc0c d3be 1029 a8be 6613 79bf 96f4 13bf
00000120: c477 b33d 0d4e f0be f133 7abe 18da 953e
00000130: b77e 6cbe c50a 2e3d 4391 303f b1f0 d03e
00000140: 1c62 983e 6b09 f1be f935 8bbe 7ddb 6c3d
00000150: 6c56 8abe faab ab3f 367a 4d3f 5222 c63e
00000160: 8574 353e 06cd bebd 4ef4 f8be 2428 053f
00000170: 58ac 36be 60d5 80be 15c7 d7bf 55da cc3d
00000180: 54a0 69be 62dc 30be ab88 c6be 108b b73d
00000190: 8a56 97bd c286 283f f0d3 6bbf 74c8 0abf
000001a0: 2465 7cbf b4a7 97bd 0adc b43f 031e ef3e
000001b0: ed85 373d 43e7 b2bf ff66 0b3d d0fb 0a3e
000001c0: 23fd ccbe 63b3 a73e adbd 01bf 6e91 bbbf
000001d0: 068e 3dbf 6a5f 103f 02db 3c3f c283 c53e
000001e0: 1825 fcbe 6332 b73e 91bd 62bd b14a b6bd
000001f0: aefd 093f 0569 033f 47d6 4fbe e0d5 02bf
00000200: 4cbd e0bc 4438 813e f94c d23d debd efbe
00000210: 0037 fb3a b902 b7bf 397b cbbe ec3f 8e3e
00000220: 4d6a 01be cd00 1fbf d40f 043e 9fc1 a73e
00000230: 6549 63be 0394 93be b084 b8bc d6b8 1f3c
00000240: b5e2 d9be 8899 273d 6e0e e03c 4dd6 05bf
00000250: ccda 2cbf 0db0 50bf 99d9 8b3d 44c9 b63d
00000260: 1fc9 c2be 15d6 903e ab42 b63f 0099 0e3f
00000270: 8131 7abc f234 153f ea12 8d3e 6b12 aebe
00000280: 16a5 e6be 293e 6abe 335a 153f bcb2 833f
00000290: dd37 083f 0fb3 3ebf 4519 13bf e30b 37bf
000002a0: f0b1 00be 5069 65bf 397d c1be 4d22 a8be
000002b0: a0ab 6cbf a005 b7be 761b 7c3d 120f b8bd
000002c0: f3fe c23e 268e 823d 6c29 c93f b653 143f
000002d0: 6187 583e 6018 d53f bdaa 0e3e 0570 e9be
000002e0: 7933 8bbe 810f 6e3e a026 433f 3b8d b03e
000002f0: ddd5 4b3f 0eda 56bf 8f5d 14bf 104e 7cbf
-0.57718 -0.5190186 -0.80401886 -0.37155268 -0.46785775 -0.72678983 0.43481752 0.42718628
0.36367235 0.60688275 0.06866264 0.46625412 0.2527398 1.438153 0.47380355 0.7238091
0.66900903 0.44405025 0.07833472 1.4067715 0.07675894 0.363111 1.3131492 0.6352806
0.33351827 0.37129042 0.12304459 0.58508307 0.9021759 0.89816165 0.37010798 0.49693868
0.063099824 0.19817013 0.17603646 -0.1727996 -0.47996312 -0.023211818 0.20305061 -0.70430714
-1.5327876 -1.0167819 -0.084149376 -0.15675884 -0.57714474 0.6541595 0.08547657 0.53110206
0.87526625 0.49665567 0.87411404 0.41816214 -0.07430457 -0.50136954 -0.20190986 -1.3611841
0.09873234 -0.44966406 -0.10793492 -0.3161599 -0.11698734 0.24841426 -0.29995486 -0.44973502
-0.16539139 0.052051846 -0.26766255 -0.01882254 -0.41220748 -0.32843828 -0.97295225 -0.57795084
0.08763078 -0.46934548 -0.24433877 0.29267955 -0.23095213 0.04249074 0.6897165 0.40808633
0.29762352 -0.47077498 -0.27189615 0.057826508 -0.2701906 1.3411858 0.80264604 0.3869806
0.1772023 -0.09316449 -0.4862389 0.52014375 -0.17839181 -0.25162792 -1.685763 0.10002581
-0.22815067 -0.1727157 -0.38776144 0.08962071 -0.07389553 0.65830624 -0.92120266 -0.5421212
-0.9859183 -0.07405034 1.412965 0.46702585 0.044805456 -1.3976825 0.03403377 0.13572621
-0.40036878 0.3275405 -0.5068005 -1.4653757 -0.74044836 0.5639559 0.7377168 0.38577086
-0.4924705 0.3578063 -0.055356566 -0.08900965 0.5390271 0.5133212 -0.20296584 -0.511076
-0.027434014 0.2523824 0.102685876 -0.46824545 0.0019166172 -1.4297706 -0.3974245 0.27783144
-0.12638207 -0.62110597 0.12896663 0.3276491 -0.22195967 -0.2882386 -0.022524208 0.009748658
-0.42555776 0.040917903 0.02735063 -0.5228012 -0.6752136 -0.8151863 0.06828613 0.08925107
-0.38044068 0.28288332 1.4239095 0.5570221 -0.015270592 0.58283913 0.27553493 -0.33998427
-0.45047826 -0.22875275 0.5834076 1.028892 0.5321024 -0.7449197 -0.57460433 -0.7150251
-0.12567878 -0.8961382 -0.3779085 -0.3283867 -0.9244938 -0.3574648 0.061549626 -0.089872494
0.38085136 0.06374769 1.5715766 0.5794023 0.21145393 1.6648064 0.13932319 -0.45593277
-0.27187708 0.23248102 0.7623081 0.3448275 0.79623204 -0.83926475 -0.5795526 -0.98556614

network.0.bias f4 [64]
00000000: 4bd2 b53d 1679 933d 9447 ffbe 952c 823e
00000010: 4d75 e2bb a9ca 573c 367a 3dbb 7afa 13bc
00000020: 2b45 0c3e 09f0 18bd 33f6 04bf 451c c9be
00000030: 8a92 8dbe 5f70 023d 383d 33be 1766 0f3e
00000040: e4d9 22bd 924e 95be 1a37 e63c 9d33 c2be
00000050: 5d6a ecbe 452e da3d a1b8 9dbd 8358 083e
00000060: 4d39 d7be 1867 12bf 53e7 0f3e ac96 03be
00000070: 8140 adbb 8283 efbe f601 2abe a220 c53c
00000080: 70b0 7fbd 8551 b13d d48d da3d 8c5f 53bb
00000090: 735f 183d ea93 f8bc 384c cf3c 8d87 cb3c
000000a0: 1746 11bf ce10 e5be f099 3d3e 8e13 f8bd
000000b0: b14c 053d 3217 033d 41f9 31be 1bac 1e3e
000000c0: b5ca 8a3d 8148 b33c d2b9 0ebf 3d95 0ebc
000000d0: 7a92 7e3e 368d cebe 7c8b c2bc 6f25 d13d
000000e0: 3e87 773d 6d2e 133e c398 0bbf 8980 c9bb
000000f0: 5b82 cebb 3ca0 02bf 2911 193e 2f43 bd3c
0.08878001 0.0720083 -0.49859297 0.25424638 -0.006910956 0.013170877 -0.0028911955 -0.009031886
0.1369826 -0.03733829 -0.5193817 -0.3927938 -0.27650863 0.031845447 -0.17503822 0.14003788
-0.039758578 -0.29161507 0.028102446 -0.37930003 -0.461749 0.106533565 -0.07701231 0.13315015
-0.42035905 -0.5718856 0.14053087 -0.12850446 -0.0052872305 -0.4678002 -0.1660231 0.024063412
-0.062424123 0.08658127 0.10671583 -0.0032252995 0.037200402 -0.030343968 0.025304899 0.02484491
-0.56747574 -0.44739383 0.18515754 -0.12113105 0.03254384 0.032004543 -0.17380239 0.1549534
0.067769445 0.021885158 -0.5575229 -0.008702573 0.24860564 -0.4034211 -0.023748152 0.10212218
0.06043171 0.14373179 -0.5452997 -0.006149356 -0.0063021607 -0.5102575 0.14947952 0.023103325

network.3.weight f4 [32, 64]
00000000: 8304 bd3d e1d2 5fbd 206e 52bd b887 b3bc
00000010: da31 3fbf 287b 9ebd be76 30bf d2b8 3dbe
00000020: f7c5 81bb 04ab 88be 5887 e6bc 0007 f5bb
00000030: 48d4 443d 94cd 8b3e e01c f5bd 4a80 0fbc
00000040: 7b37 f7be 2242 adbd b50d e7bc 6eac a73d
00000050: 2cdc c4bd ee4a 9cbc 4022 963c 7e60 39bc
00000060: e054 57bd e879 f73c 1000 13bb 160a adbd
00000070: a35b 36bf 9ca9 babd d21a f53d 2106 5b3e
00000080: d214 e53d 570f 953b 7481 0abd cabf 64bf
00000090: 01cf d8bc 505c 26bd 6588 cc3e acc3 aabd
000000a0: 4887 093d 2070 d0bc f8c6 383d 1e18 ec3d
000000b0: d780 1b3e 6add 87bd e865 97bd cd57 c8bc
000000c0: c217 403d 5527 6f3e 0021 9a3a ea1e 2ebf
000000d0: acce 29bc e2ae bdbd 48b9 cdbe 54ab 203d
000000e0: 337d aabd e185 71bd e8e0 5dbd 9b4a 3ebf
000000f0: 5e66 3ebf ca17 f1bd 9d43 d7bb 092b 003e
00000100: 7b32 37be a238 4dbe ea9e 853d a8fd a93c
00000110: 61f7 0c3e 78c6 a33d f369 213e 54af 8d3e
00000120: bf33 843d 3314 923e 55cf 8eba e0eb 24bc
00000130: 9aaf c4bd 2494 cf3c 5874 a53d 0221 09bd
00000140: ee5d 483e 4438 89bd bd6c 55be c0e0 96bb
00000150: c013 f7bd b314 63bd f890 53bd d584 39bd
00000160: 005d 1cbb d007 163c 89ae 203c fc40 24bd
00000170: 3715 0dbd 7031 5c3c f42c 173d f108 b3be
00000180: 1041 92bd 46ba 2d3d 494e edbd ba73 c3bd
00000190: 2970 e0be 1073 c23d ca0a 90bd 4b1e df3d
000001a0: b430 51bd 7801 dd3d 40c9 24bd 2cba 53bd
000001b0: 7ee6 aebe a8ed e4bd fe7a 84bd e776 8b3b
000001c0: b757 17bc e625 23be d03a 0fbc 0b6e 1b3e
000001d0: 25a8 393c c0af 11bd 16d0 903e 9eff 15be
000001e0: 61a1 96be 60b2 66bd 3c89 83bd 76dc 893d
000001f0: 7489 853e e8f1 a0bd 368d ad3d 6357 92bd
00000200: a84b e33d 8912 053d a77c a93d 8b4f b23b
00000210: 0e3e 20bf 541a 7d3d 99c5 46bf dcb7 80be
00000220: 0c75 873d f90a 81be 543d fa3d 42c0 e0bd
00000230: a817 febd f0b3 ba3e 38eb c53d 0cd6 94bb
00000240: 2815 02bf 1818 e23c 4772 243e 24e2 55bd
00000250: 307a 943d b522 c2bc d035 5d3d f8ae bcbb
00000260: 8840 c7bc 207d f3bd 6641 c8ba 367e 86bd
00000270: 58a4 44bf 98b4 d4bd b431 99bd 87f2 1f3e
00000280: aa65 de3d c036 44bd edaf 3dbc f44a 59bf
00000290: 20da f03d 4669 083d e906 c33e df49 073c
000002a0: d0d5 4dbc 98f2 36bd 7411 cabc 7cbe ea3d
000002b0: 0966 123e f3f6 a23d 68d2 a2bc feab 433d
000002c0: 4576 2a3c f1b1 a93e 90fa 813c d69f 33bf
000002d0: 914c d7bc 7e23 a23d 02c2 02bf 61e6 7cbb
000002e0: f5c3 f9bc abd2 453d 7caa 05bd dfc7 51bf
000002f0: 25fe 55bf 9aac 983d 3150 ce3b f687 813e
00000300: b309 1abd de7b ee3b 58f6 9ebd ff8c 0e3d
00000310: 8df1 813e 7d1e 9bbd 568c 733e 8582 0d3e
00000320: fcd2 933d 1032 863e ff1f 60bd d29e fdbd
00000330: 54fc 34bd 6bcc e5bd 00db 393a 20a2 373d
00000340: f9d5 833e 4879 aebc dc1a f1bd bc43 95bd
00000350: f069 60bc 70cf a4ba e26a e03d 2af8 58bd
00000360: 98f3 ca3c e056 93bb 7381 3abc 4015 533c
00000370: b687 b83e 687d 9ebd 00ad 01ba b9ec edbd
00000380: dc8c a2bd 2c9d 7e3d 8f9e c2bd 43f4 8f3e
00000390: edb9 acbd 68e4 cebd b464 46be 2bdd 21bd
000003a0: 90bb 573c af04 a7bb ffc8 593d a2a7 92bd
000003b0: 903b b5bd 4497 cc3d 00f8 2e39 da65 89bb
000003c0: 1df5 743c c26e 85be 40bf 22bc 6a87 b73d
000003d0: f465 debb 50a3 893d 1573 583e 866d e0bd
000003e0: 4b9e 243c 005b 03be 287a 3fbd fcdf 7e3e
000003f0: e50b 463e 0c44 f1bd bc79 9f3d 108a 60be
0.09229376 -0.05464447 -0.051374555 -0.021915302 -0.7468544 -0.07738334 -0.68931186 -0.18527535
-0.003960367 -0.26692975 -0.028140709 -0.007477641 0.04805401 0.2730528 -0.11968398 -0.008758614
-0.48284516 -0.084598795 -0.028204778 0.08187185 -0.09612307 -0.019078698 0.018326879 -0.011314509
-0.052571177 0.030209497 -0.0022430457 -0.08449189 -0.71233577 -0.09114382 0.11968006 0.21389057
0.11185612 0.004548948 -0.033814862 -0.89355147 -0.026465895 -0.04061538 0.3994781 -0.08338103
0.03357628 -0.02544409 0.045111626 0.115280375 0.15185867 -0.06634028 -0.07392484 -0.02445593
0.046897657 0.23354848 0.0011759102 -0.6801592 -0.010364216 -0.09261872 -0.4018042 0.03922589
-0.08324661 -0.058965567 -0.054169565 -0.7433259 -0.7437495 -0.117721155 -0.0065693394 0.12516417
-0.1789035 -0.20041135 0.06524451 0.020750836 0.13766243 0.07996839 0.15763073 0.27672827
0.06455182 0.28531036 -0.001089553 -0.010066003 -0.09603806 0.025339194 0.080788314 -0.033478744
0.19567081 -0.06700185 -0.20842262 -0.004604429 -0.12064314 -0.055439662 -0.051651925 -0.045292694
-0.0023859143 0.009157136 0.009807237 -0.040101036 -0.03444406 0.013439521 0.036908105 -0.3496776
-0.07141316 0.042413972 -0.11587197 -0.095435575 -0.4383557 0.09494603 -0.07033308 0.1089445
-0.051071838 0.10791296 -0.04023099 -0.05169122 -0.34160227 -0.11178142 -0.064687714 0.0042561176
-0.009237221 -0.15932426 -0.008742049 0.15178697 0.011331593 -0.035568 0.28283757 -0.14648291
-0.29419997 -0.056322455 -0.0642266 0.06731503 0.2608143 -0.0785864 0.084741995 -0.07145574
0.11098415 0.03248838 0.08275729 0.005441611 -0.6259469 0.061792687 -0.7764526 -0.25140274
0.06614122 -0.25203684 0.12218729 -0.1097417 -0.12406856 0.36465406 0.09664005 -0.004542118
-0.5081353 0.02759938 0.16059218 -0.052217618 0.07249868 -0.02369819 0.054006398 -0.0057581626
-0.024322763 -0.118891 -0.0015278279 -0.065670416 -0.7681327 -0.10386008 -0.07480183 0.1561986
0.10859235 -0.047903776 -0.0115775885 -0.84879994 0.11760354 0.03330352 0.3809121 0.008257358
-0.012563184 -0.04466495 -0.024666525 0.11462113 0.14296736 0.07957258 -0.01987572 0.047771446
0.010404174 0.3314357 0.015866548 -0.70165765 -0.026281627 0.07916926 -0.5107728 -0.0038589465
-0.030488947 0.04829661 -0.03263329 -0.81945604 -0.8359092 0.07454796 0.0062961807 0.25299042
-0.037606906 0.0072779497 -0.0776183 0.034802433 0.253796 -0.075741746 0.23784003 0.1381932
0.072179765 0.2621007 -0.054718014 -0.12383808 -0.04418595 -0.1122063 0.00070898235 0.04483235
0.25749186 -0.021298066 -0.11772701 -0.0728831 -0.0136971325 -0.0012574028 0.10957886 -0.052971043
0.024774358 -0.0044964403 -0.011383402 0.012883484 0.3604104 -0.07738763 -0.00049467385 -0.11617417
-0.07937023 0.06216161 -0.09502899 0.28116044 -0.084339 -0.10102159 -0.19374353 -0.039517563
0.013167277 -0.005096994 0.0531702 -0.0716088 -0.08849251 0.09989789 0.0001668632 -0.00419305
0.014951018 -0.26061064 -0.009933293 0.08961375 -0.006787056 0.067206025 0.2113765 -0.1095839
0.010047506 -0.12827682 -0.046747357 0.24890131 0.19340475 -0.11780557 0.07786891 -0.21927667

network.3.bias f4 [32]
00000000: fea9 8e3d 9c38 143d b91b a73c c79d 48bd
00000010: 4071 b23c 136f 4b3b 409d e23c 1808 04be
00000020: 10fd 3f3d 2c2b c33d f28b 8b3d 76c2 9abd
00000030: be22 dcbb fbea 083d 274e 8f3d 4d9f 4f3d
00000040: d606 583d 8164 a73d b421 5c3b bfe3 56bd
00000050: af69 963d 2fe5 4d3d cc91 abbc 84e1 963d
00000060: 7449 b13c 9f01 b03d 2acb 87bc 0445 b8bc
00000070: 8d74 4d3c 904d ebbc 0197 14bc 7e2d 94bd
0.06966017 0.0361868 0.020398961 -0.048978593 0.021782517 0.0031041547 0.027662873 -0.12893713
0.0468722 0.09529719 0.06813802 -0.07556622 -0.006718009 0.03342722 0.06997328 0.05068903
0.052740894 0.081734665 0.0033589425 -0.05246329 0.07344376 0.050267395 -0.020943545 0.073672324
0.02164147 0.08594059 -0.016576368 -0.022493847 0.012539995 -0.028723508 -0.009069205 -0.072352394

network.6.weight f4 [16, 32]
00000000: 536c cb3e 9ce3 1abe 4c3d 903e 3fc1 8abd
00000010: 07bf d4bd 4f49 473e 34bf 3fbe 984a a43c
00000020: aa87 293e bead ab3e cba5 633e 1938 f53c
00000030: e488 60bb f491 33be c7ff a03e af79 dbbc
00000040: 8203 c53e b30e 473e 8b12 d13d 9a9f 45be
00000050: 845a f6bd 0ca7 8d3e ed81 4cbe f10e 853e
00000060: 225e e83e 9793 e8bd 16a0 f83e 190c 7bbd
00000070: b74f 0ebe 785c 08be f27b 20be e7b0 d6bd
00000080: 2957 80bd c5ab 063b 117e 9dbd 497c c33d
00000090: d8e7 883e 1a35 27be d67d bebc ea23 723d
000000a0: 0fd2 1bbe df33 8dbd c308 d9bd a826 263e
000000b0: 8813 bd3d 2489 823e 535c 84bd 7735 07bd
000000c0: 22c9 c3bc 13d4 043e 21a3 c63d 7186 563d
000000d0: c2ac cb3d d5f4 29bd 99c7 773e 15b1 2fbe
000000e0: 7fd2 0ebd ba7c 233e 611b 27be ec82 2c3e
000000f0: c8c0 133e e455 fb3d 8a54 6a3e 3ddb 703e
00000100: dd60 80be 9281 81bd 4384 95be 8874 693e
00000110: c8ed 77bc 107d d5bd 0d2b 9e3d 7c5e 20be
00000120: bd42 5ebe b1c5 18bc ed21 5abe 2dc2 bb3d
00000130: 418b 7e3e 05a8 673e d1a5 81be 3a39 683e
00000140: 983c 36be 7c0a 123e 1ca2 e2bd da1b 7c3e
00000150: fa9d 7f3e ce50 5dbe 056b ec3d 9bf7 75be
00000160: 2437 38be 3195 8c3e 4c48 8cbe f8b6 4a3e
00000170: bccf f13c 2ec6 263e ebaf 6dbc ea7e 753d
00000180: 1363 83be a9b9 853e 27df 90be d9d8 3c3e
00000190: 5781 09bd 7307 e3bc 86c1 233e 812c e83d
000001a0: a4ed 28be 28d7 0b3c 432e 78bd f3cb 383e
000001b0: 357b 16bc 12bd 833d b5d0 38be b2dd 5b3e
000001c0: 689e 7abc eb40 913d a922 b1bd 540d 413e
000001d0: 5850 133e 123f 37bc 79bf f43c 0bba 4fbd
000001e0: 5022 a7bd 57e0 753e 6056 2bbe 0ed4 f03c
000001f0: a6b8 bf3d 6aa9 933d 35fe dd3d 4dbc 963d
00000200: a4aa 153f be2f 36be 4b56 033f f283 34be
00000210: c994 50be 3fa2 993e 09d8 efbd eaec e23d
00000220: f75a 843e 4133 8a3e eb61 023f f54f bebd
00000230: 11d8 43bd 0b62 21be ccc0 8e3e c290 f9bd
00000240: 8a44 9e3e 9114 f43d 6547 833d 97e9 4ebe
00000250: 4de5 c13c 0405 da3e 586b 78be b0ea 9a3e
00000260: 6bd7 e83e f397 35be c577 023f dd70 56be
00000270: ee9f aebe ffe2 8abe ec0b 1cbd 2b76 84be
00000280: 6049 a1be 47f7 6f3e 5b94 0cbd 3a95 713e
00000290: 1b7a ed3d bb5d 7dbe ac3c f53d 44ac 19bd
000002a0: ad22 1fbe 83cd c0bd f301 c6bd d2a1 cd3d
000002b0: 10cf 3b3e bfb9 a93d cd89 07be 9d75 3b3e
000002c0: 6772 6bbe ae7b 47bd 4c94 0cbe e1b3 233e
000002d0: 1985 273e dbfe 47be b20a 493c 33f3 3bbe
000002e0: c179 6dbe 0f6b 743e 4162 2bbe 29fd 623e
000002f0: 3fc8 7a3e 4b03 1f3e b583 523e bbd6 ca3d
00000300: 3b0c 0d3f 5fff 1abc d3e5 3e3f 1043 b1bd
00000310: 4004 1bbe d0fb 203f 93fe 7bbe 28da 31be
00000320: 5380 0e3f faad ec3e 88be df3e f5a1 88bd
00000330: 183e 8fbe e06b 33be 5dcc e13e 0ec3 5cbe
00000340: b31a e73e 6c6a 94bd 4e79 eb3d 6439 abbe
00000350: b00f ce3d 5a47 d03e ec99 23be 3ff9 e43e
00000360: c251 283f cdb0 81be 5a50 0e3f a24f a3be
00000370: c7db 44be 6d55 b5be 32a7 0ebe e856 a6be
00000380: 4b0b f83e 490f a2be d604 3d3f f4fe 00bc
00000390: 5ed8 77bd d0e8 223f a5d3 d9bc e21a d6bd
000003a0: a930 fb3e b8bc df3e b006 1e3f 2eb6 d3bc
000003b0: ecd3 903d 78f2 ca3d 6619 fd3e 6bf4 7fbd
000003c0: 3fa2 643e 2b32 4bbd f9b6 05be 29b0 fd3d
000003d0: 7502 773e 282c 0c3f 6bb3 203d 2629 ac3e
000003e0: 318a 223f 0249 2c3e 9399 053f a3ac b8bc
000003f0: b2e3 453d 682a 293e fcfa 123e 2351 0b3e
0.39731082 -0.15125889 0.28171766 -0.0677514 -0.10387998 0.19461559 -0.18725282 0.0200551
0.16555658 0.33530992 0.22231214 0.029933976 -0.003426128 -0.17536145 0.31445143 -0.026791422
0.3847924 0.19439201 0.10208615 -0.19299164 -0.12028983 0.2766651 -0.19971438 0.25987962
0.45384318 -0.113562755 0.48559636 -0.061290834 -0.13897596 -0.13316524 -0.15672281 -0.1048296
-0.062666245 0.002054916 -0.07690061 0.0954519 0.26739383 -0.1632885 -0.023253363 0.05911628
-0.1521685 -0.06894659 -0.10597374 0.16225684 0.09232241 0.25495255 -0.06462922 -0.033009972
-0.023899619 0.12971525 0.09699083 0.052374307 0.0994506 -0.041493256 0.24197234 -0.17157395
-0.034868713 0.15965548 -0.16319038 0.16846818 0.14429009 0.12272242 0.22883812 0.23521133
-0.250739 -0.06323542 -0.2920247 0.2279836 -0.015132375 -0.104242444 0.07723055 -0.15661043
-0.21705146 -0.009324477 -0.21302004 0.091678955 0.24857809 0.22622688 -0.2532182 0.2267808
-0.17796552 0.14261812 -0.11066076 0.2462 0.24962607 -0.21612856 0.1154385 -0.24020235
-0.17989784 0.27457574 -0.27398908 0.1979636 0.029518 0.16286537 -0.014507274 0.059935488
-0.25661525 0.2611821 -0.28295252 0.18442096 -0.033570614 -0.027713513 0.15991792 0.113366134
-0.16496903 0.008535184 -0.060590994 0.1804655 -0.009184648 0.06432547 -0.18048365 0.21471289
-0.015296556 0.0709246 -0.08649189 0.1885274 0.14386117 -0.011184471 0.029876458 -0.050714534
-0.081608415 0.2401136 -0.16732168 0.02939799 0.09361391 0.072100475 0.10839502 0.07360134
0.584635 -0.1779165 0.5130355 -0.17628458 -0.20369257 0.30006596 -0.11711127 0.11080344
0.2585065 0.2699223 0.5093066 -0.09292594 -0.04781348 -0.15760057 0.27881467 -0.121858135
0.30911666 0.11917985 0.06410102 -0.20206295 0.02366891 0.42581952 -0.24259698 0.30257177
0.4547685 -0.17733745 0.50964004 -0.20941491 -0.34106392 -0.2712631 -0.038097307 -0.25871405
-0.31501293 0.23434173 -0.03432117 0.23592082 0.115955554 -0.24742787 0.11974463 -0.0375178
-0.15540572 -0.09414198 -0.096683405 0.100406304 0.18340707 0.082873814 -0.1323616 0.18306585
-0.2299286 -0.048701935 -0.13728446 0.15986587 0.16359366 -0.19530813 0.012270616 -0.18354492
-0.23190977 0.23868965 -0.167367 0.22166885 0.2449045 0.155286 0.20558055 0.09904238
0.5509679 -0.009460299 0.74569434 -0.08655369 -0.1513834 0.62884235 -0.24608831 -0.17368376
0.5566456 0.46226484 0.4370005 -0.06671516 -0.2797706 -0.1752162 0.4410123 -0.21558782
0.45137557 -0.07246861 0.114977464 -0.33442223 0.10061586 0.40679437 -0.15976685 0.4472141
0.6574975 -0.253302 0.55591357 -0.31896693 -0.19224463 -0.35416737 -0.13930967 -0.3248818
0.48446116 -0.31652287 0.73835504 -0.007873286 -0.06050908 0.63636494 -0.026590178 -0.10454346
0.49060562 0.43698668 0.61728954 -0.025843706 0.07071671 0.099095285 0.4943344 -0.062488955
0.22327517 -0.04960839 -0.1305808 0.123871155 0.24122031 0.5475488 0.039233606 0.33625144
0.63492113 0.16824725 0.5218746 -0.022543257 0.04831285 0.16520083 0.14353555 0.1360517

network.6.bias f4 [16]
00000000: 3286 5e3e bccd 953d fbb8 303e 0cc6 b53d
00000010: a1b5 6c3e e6bb 423e d0b7 353e df58 083e
00000020: f819 973e 57c0 3bbe 7e6c c23d fa17 2f3e
00000030: 541a 1abf e1dc 3b3e d15d 153d c67d 1d3e
0.21730879 0.07314631 0.17258064 0.08875665 0.23116161 0.1901699 0.177459 0.13315152
0.29512 -0.1833509 0.094933495 0.1709899 -0.60196424 0.18345977 0.036466423 0.1538001

network.8.weight f4 [1, 16]
00000000: a8b7 fcbe f5ea 6d3e 5237 dd3e e952 573e
00000010: bd53 e1be ab3c aa3e 8005 40bf cb02 f0be
00000020: b4cd 05bf e80b fabd 5808 4c3e 24d6 0abf
00000030: 83d5 0fbf 15ba cd3e de19 4f3e 395d 503e
-0.4935887 0.2323416 0.4320627 0.21027721 -0.440092 0.3324941 -0.7500839 -0.4687713
-0.52267003 -0.12209302 0.19925058 -0.54233 -0.5618517 0.40181032 0.20224711 0.20348062
