第六次作业10245501405杨云天/model/Pharmacology & Toxicology.pth (torch, 15625 bytes, 7 tensors)

network.0.weight f4 [64, 3]
00000000: 01e3 f03e f358 713d cf4f b3be ce1a 84bf
00000010: a1cb b5bd 4dcc 47bf e83f 4cbf 6ee4 ffbe
00000020: 1d7b 4bbf 4d10 b33e df17 0ebf d605 573e
00000030: 70ce 113f f268 9ebe ee6e 6bbe aad5 5ebf
00000040: d469 a2bf 5d40 223e 3c0f 9d3d d2d8 b93f
00000050: 4f87 85bd d25a f53e cdc9 ad3f 3032 ac3e
00000060: dac1 41bf c5e2 b3bf 69f9 8f3e b670 133f
00000070: c0ca b13f 674e 56bc 8a39 013f a153 e8be
00000080: b695 f8be 7f2a 893f caa4 4b3f 62e1 933e
00000090: a3d5 083f b93d f2be d9f3 f9be a63b d33d
000000a0: d2cf db3f a61c 273d cd59 90be 4ed8 dcbe
000000b0: f630 68bf 8811 c83e 3dde a43f fff4 b53e
000000c0: 2a2d 923e d02c dfbd 1798 d0be 9fb6 f93e
000000d0: f759 743d 0562 dcbe 0877 9bbc f45a bbbf
000000e0: c49a 98be 5b73 453f 30a6 b23f ab54 2b3e
000000f0: 8e6d ccbd d6da 65be 258b c43e 5391 ac3e
00000100: c5e5 e43e bcd1 df3a b067 46be 7e0d cabf
00000110: 6662 8bbc 95ef b13e 05de cb3f a2a4 df3d
00000120: 2915 bb3e ff0b 2dbe d344 28be 77fe 163f
00000130: 4831 453f b485 8b3d d9d2 2d3f a2b9 9a3e
00000140: 14ce 123f a113 e73e bcad bb3e e5c7 2cbe
00000150: febd 6ebe 8a3c eebc 6a8c 243d c0ed 65bf
00000160: 2da0 1fbf b270 63bf dbcc 6b3d f5ed d7be
00000170: d1d3 a7be 413c 523e 6538 c63f 1cab ecbc
00000180: 6683 e73e 6078 2d3f f83a f13e ff81 1d3f
00000190: 5f11 833f cb11 9b3e e908 fabd 86fd c5be
000001a0: ac67 023e 1cd2 1a3e 1256 f73d 1632 56bf
000001b0: 1b06 773f fed4 2c3f 2c96 e73e a8da 00be
000001c0: 8078 d5be 47c2 39bf 9dbc 07bf 2216 91be
000001d0: b605 d63e aba8 49bf f623 89bf 19a5 68bf
000001e0: 2d44 b6be 8eb4 123f 4d2a cebe ff39 263d
000001f0: cbdd eabe e394 47bf 4c5c 39bf 6ca1 c1bf
00000200: 7cf9 b43e 73ff 7fbe efda a2bf 6226 70be
00000210: 7a8f 35bf f090 62bf f395 abbd a599 0dbf
00000220: 3d0e c23e 64cb e3be 2a8b 79bc b9bf 59bf
00000230: 2623 19bf 5dd0 c7be 734c f93b e4d7 eebe
00000240: 4e81 463e 0201 163e e779 dabe 0e88 7cbe
00000250: 72e7 9abc a3b2 bdbe 9a22 a9bc dfe3 ae3f
00000260: 6152 a5bd 3ecd 0fbf 68e4 d9bc 5830 ef3e
00000270: 39aa fa3e 0ee9 683f 09da fd3e 9d2f 1c3e
00000280: 9990 973f 04b9 f73e 4736 acbc aa8f 0fbe
00000290: 1b1d 2f3d d000 d7be 2465 0cbf 2557 d7be
000002a0: 3a18 14bf dc0e 69bf 03c2 2dbf 21b8 953e
000002b0: 48e6 3dbe 79b8 8bbe c86c eabe 215b 963e
000002c0: 2591 443e 6090 9c3e 8f78 d5bd 2eef 0cbe
000002d0: 7e2d bdbe 033d 30bf 1a46 39bf f0c4 dd3e
000002e0: bfb8 3ebe 13e5 003f f3d1 783f 4549 563f
000002f0: b4a4 d43e 022b 89bf 3375 08bf 09e8 d2be
0.4704819 0.05892272 -0.35021827 -1.032068 -0.0887673 -0.78046113 -0.79785013 -0.49978966
-0.7948473 0.34973374 -0.55505174 0.2099832 0.56955624 -0.30939442 -0.22991535 -0.87044775
-1.2688546 0.15844865 0.07668921 1.4519293 -0.06519949 0.47920853 1.357721 0.3363204
-0.7568642 -1.405358 0.28119972 0.5759386 1.3889999 -0.013080216 0.5047842 -0.45376304
-0.4855172 1.0716094 0.79548323 0.2888289 0.53450984 -0.47312716 -0.48818853 0.103141114
1.7172797 0.040798806 -0.28193513 -0.43133777 -0.9069971 0.39075875 1.2880322 0.3553848
0.28550082 -0.10897219 -0.40741035 0.4877214 0.05965611 -0.43043533 -0.018977657 -1.4637132
-0.29805577 0.77129143 1.3956966 0.16731517 -0.099818334 -0.2244676 0.3838741 0.33704624
0.4470655 0.0017076056 -0.19375491 -1.5785367 -0.017014693 0.347531 1.592713 0.10920073
0.3653958 -0.16899107 -0.16432504 0.5898203 0.7702832 0.06812611 0.67899853 0.30219752
0.573457 0.45132163 0.36655986 -0.16873129 -0.23314664 -0.029081602 0.04017297 -0.898159
-0.62353784 -0.88843834 0.057568412 -0.42173734 -0.3277879 0.20530798 1.548596 -0.028890185
0.45217437 0.677618 0.47115302 0.61526483 1.0239676 0.30287012 -0.12208731 -0.38669986
0.1273486 0.15119213 0.120769635 -0.83670175 0.9649369 0.675125 0.4523176 -0.1258341
-0.41693497 -0.7256207 -0.53022176 -0.28337198 0.41801232 -0.7877299 -1.07141 -0.9087692
-0.3559889 0.57306755 -0.40266648 0.040582653 -0.4587234 -0.7796156 -0.7240646 -1.5127387
0.3534659 -0.2499979 -1.2723063 -0.23452142 -0.7092205 -0.8850241 -0.0837821 -0.5531257
0.37901488 -0.44491112 -0.015230933 -0.8505817 -0.5981926 -0.39026156 0.0076079904 -0.46649086
0.19385263 0.14648822 -0.4267113 -0.24661276 -0.01890919 -0.37050352 -0.020646382 1.3663291
-0.08072353 -0.5617255 -0.02659817 0.4671657 0.48957995 0.90980613 0.4958041 0.15252538
1.1841003 0.48383343 -0.021021975 -0.14019647 0.042752367 -0.41992807 -0.5484183 -0.42058674
-0.57849467 -0.910383 -0.67874163 0.29242042 -0.18544877 -0.2728918 -0.45786119 0.293664
0.19195993 0.305789 -0.10423385 -0.13763115 -0.3694877 -0.68843096 -0.7237259 0.43314314
-0.18625163 0.5034954 0.9719536 0.8370555 0.4153191 -1.071625 -0.5330383 -0.41192654

network.0.bias f4 [64]
00000000: aa30 10be d2dd 8b3e 5a10 123d 46cc 7fbe
00000010: 2526 e7be 0900 6a3e 5f64 84ba 4a2d 85bc
00000020: c983 913e 2dee 14bc 6292 88bd 4f62 7abd
00000030: 15b1 d2be 1cd7 aebb 5ac0 a43e 9efc 68bc
00000040: 6890 ddbe 42ef 6cbe 9303 973d 77c0 c7bc
00000050: 16d4 cdbe 762c 693e 429b d23c 4fc1 54bc
00000060: 365f f1be 56a3 713e 6931 323e 4523 dabe
00000070: cc9b e9be 93ea 953e d862 6fbd 9fb7 b4bb
00000080: f709 7f3e cb0d 6dbc 46e7 06bf acb3 4c3e
00000090: 19b4 e0bc 2fb2 613e 09be fabe f88c 573d
000000a0: 866b 56be 26c1 b53e 9ff2 1d3d db49 6f3e
000000b0: dabe 533d aa6c 9ebe cbe3 863e bbab 2b3e
000000c0: 73d4 7fbe 28ca c3bd 01de 8439 962a c7be
000000d0: d965 a0bc 2af7 aabb c211 213e 7535 e0bd
000000e0: c104 4a3d b091 13bd 942a 4bbe 86a2 a1bd
000000f0: 9ab6 8a3e 423f 3f3e 3617 50bd 41c0 b03e
-0.14081064 0.27317673 0.035660125 -0.24980268 -0.4514629 0.22851576 -0.0010100714 -0.016256947
0.28420857 -0.009089989 -0.06668545 -0.06112891 -0.41150728 -0.0053357016 0.32178003 -0.014220385
-0.43274236 -0.23138145 0.073737286 -0.024383767 -0.4020087 0.22770867 0.025708798 -0.0129855415
-0.47142953 0.23597464 0.17401661 -0.42605034 -0.45626676 0.29280528 -0.058443874 -0.0055150534
0.24906145 -0.0144686205 -0.52696645 0.19990414 -0.027429627 0.22040628 -0.4897311 0.052624673
-0.20939454 0.35498923 0.03856146 0.23368017 0.051695682 -0.3094228 0.26345667 0.16764729
-0.24983387 -0.095600426 0.00025342408 -0.38899678 -0.019579815 -0.0052174525 0.1572943 -0.10947696
0.04932094 -0.03602761 -0.19840461 -0.07892327 0.2709244 0.18676475 -0.050803386 0.34521678

network.3.weight f4 [32, 64]
00000000: c749 74bc eaf1 8c3d 2843 003e 48a1 023d
00000010: 3a27 97bd 2caa 073d abb7 1ebf 2fa3 01bf
00000020: 892b b5bd 9207 dbbe 2086 f1bb 6f58 19bf
00000030: 20ef 41bd 766d 53be b365 213d c10e 09bf
00000040: 481a 893d 623b 8bbd 4097 df3d 7d49 9fbe
00000050: 26fd 98bd b231 49bd da8b cf3e 112c 37bf
00000060: d6bc e6bd 2831 babc c06f 56bd b96f 89bd
00000070: 7cc2 ac3d 38f9 4c3d f0de b4bd 13ba b4bd
00000080: 876e bdbc 8b6c b2bd d0e7 9f3c c973 bfbc
00000090: cb9b 41be f9f9 3e3c 9c6a 203d 0c3f aa3e
000000a0: 3c9a 053d 7e60 00bb 69a3 273e e0b5 53bd
000000b0: c833 ea3d 18d2 86bd 39e1 1cbc 271e bcba
000000c0: 5406 713d 0017 5b3c f8e7 5abf b266 97bd
000000d0: 4410 bebd 37d6 f3bd 1b6f c93b 6cb6 82bd
000000e0: ac06 e83d 522f cdbd 103f 713c 4db6 03be
000000f0: 2469 693d 4489 b8bd 7a6b dabe d024 893d
00000100: f321 f43c 430c 0dbd 37cd 20bd 86d4 97bd
00000110: b460 9cbd ca34 673c 1fdc fc3e b84e 6a3e
00000120: 5a6a 24bc 380b 863e f83f 86bd 798e 953e
00000130: fc51 4fbd c55b bb3e cd4b 2abd 23b0 673e
00000140: d8fc 32bd 54a8 94bd 5cf0 27be a49c a83e
00000150: 2ac4 d1bd 26c9 493c 3297 26be a3e0 e23e
00000160: d026 603c 6f7e 43bd 18eb 033d b1a7 bb3d
00000170: e00e e53c 31b2 c73c 32fb dd3d 740f a23d
00000180: 47e6 32bd 9e1f 8f3d c614 9c3d 7bfb 97bd
00000190: e011 0d3e 3dbe 963c e826 84bc 66d7 b4bd
000001a0: 4483 e2bd 68cb 203d ad78 aebe 14f4 84bc
000001b0: a6a7 1abe 3076 d6bc f3ad a33b 1c50 f5bc
000001c0: f02f 98bd 8036 a0bd 640f 1e3f 1223 823d
000001d0: da1f 493e 7a9e 7f3d d595 443d fa12 afbd
000001e0: 226d 02be eae2 bcbd 3400 083d 081b a3bd
000001f0: 396e 5ebd fef5 6bbd d552 853e 2d7f 7cbc
00000200: 1ca0 d43d 797a 183b 8647 dcbd 88cd d03d
00000210: a02e c7bb 9087 e6bd 5e18 f83e e2c3 1e3e
00000220: 464c a53c 8313 953e 1007 753d 1017 9a3e
00000230: a655 b23d 032d 5f3e b9de d6bc d29c 9e3e
00000240: 542e 7b3d ffc0 9dbc 61c3 0bbd 4b9c 4a3e
00000250: 3434 fa3d cf00 a63c cb6f 91be 2b38 9e3e
00000260: e0e6 76bd cab6 85bd 3cb4 6a3d 9d1c 37bd
00000270: 0416 3ebd 55ea 22bd 703a 3abc 443f a83e
00000280: 1950 373b d4aa 873e a27e e03d 8d5d 9bbd
00000290: cc35 7e3e 1101 e7bc b831 a4bc 87b6 d5bd
000002a0: 5645 f03d 5f89 7d3d 4d18 5ebe 34ac debd
000002b0: c9cb bfbd 8a7b 8dbd 865f 2a3d f008 803d
000002c0: 0685 cabd 204f 0f3d 87f3 173f 6649 d13d
000002d0: ccb0 a23e 3646 513e 7bac d3bc 745c 00bd
000002e0: 44de acbd c87d b6bd 0088 64ba 0916 e13d
000002f0: ab20 80bd 1c88 78bc 8835 a63e b1e0 07bd
00000300: ab3f e43d a965 013d e742 ff3a 0054 a23c
00000310: c43d 2e3d 4612 14be 39e7 c53d 3306 cfbc
00000320: 8a7f d0bd 5b99 e0bd e6ff fbbd 3b3d 12bd
00000330: 588e cf3d 8ad9 063e 4f91 88bd 6728 1f3e
00000340: 9202 fa3d 97a0 0c3e f2c2 9f3d 449f bfbd
00000350: 98cd 113d ad82 743d 60ae 893d 3463 683a
00000360: 5057 be3d 2e0c 81bc 0ed6 e43d 5566 e93d
00000370: 7062 373d 2bf6 0dbe 70db 763d bf96 2d3e
00000380: 9814 fd3d f785 0d3e ba4d bc3d 3cf0 1b3d
00000390: f658 5c3c 98e1 8abd 64e4 dcbd 022d 053e
000003a0: 946e b5bd 02d9 a93d 8586 c73d b3c1 33bd
000003b0: 2019 67bd 7603 ebbd 432e b23c 6545 193d
000003c0: c00e 083d 9448 10bd 823a 213e b886 a93c
000003d0: ed3a 873e 44e6 e43d 2463 9e3d 88af 1f3d
000003e0: 943e da3d 6076 9c3b 5453 063d 7130 f63d
000003f0: 95dc d6bb 06aa fa3d 5337 2b3d 6523 d03c
-0.014910168 0.06882079 0.12525618 0.03189209 -0.07380529 0.033121273 -0.61999005 -0.50639623
-0.08846194 -0.42779213 -0.0073707253 -0.59900564 -0.047347188 -0.20647225 0.03940363 -0.5353814
0.06694466 -0.06798436 0.109175205 -0.31110755 -0.07470159 -0.04911966 0.40536386 -0.71551615
-0.11266486 -0.022728518 -0.052352667 -0.067107625 0.084355325 0.05004236 -0.088315845 -0.08824553
-0.023123993 -0.08712109 0.019519717 -0.02337064 -0.18907087 0.011656278 0.03916417 0.33251226
0.032617792 -0.0019588764 0.1637093 -0.05168712 0.11435658 -0.06583041 -0.009575182 -0.0014352248
0.058843926 0.013372183 -0.85510206 -0.073926345 -0.09280446 -0.119060926 0.006147278 -0.063824505
0.113293976 -0.10018791 0.014724508 -0.12862511 0.056985036 -0.09010556 -0.42660123 0.066964746
0.029801344 -0.03443552 -0.039258208 -0.074135825 -0.07635632 0.014111707 0.4938669 0.22881591
-0.010035122 0.26180434 -0.0655517 0.2921026 -0.050615296 0.36593452 -0.041576196 0.22625785
-0.04369816 -0.072586685 -0.16400284 0.32932007 -0.102424935 0.012316024 -0.16268614 0.4431201
0.013681129 -0.047728 0.032206625 0.09162844 0.027961195 0.02437696 0.10838927 0.07913104
-0.04367664 0.069884524 0.0762115 -0.07421013 0.1377635 0.01840126 -0.016131833 -0.088301465
-0.11060193 0.039256483 -0.34076443 -0.016229667 -0.15103015 -0.026179403 0.0049951016 -0.029945426
-0.07431018 -0.07822895 0.61742234 0.063543454 0.19641057 0.062406994 0.047994453 -0.08548541
-0.12736943 -0.09222968 0.03320332 -0.0796414 -0.054304335 -0.057607643 0.26039758 -0.01541118
0.10382101 0.0023266359 -0.107558295 0.10195452 -0.006078556 -0.11256325 0.4845609 0.15504411
0.020177972 0.2911645 0.05982119 0.3009572 0.087077424 0.21794514 -0.02622925 0.3097902
0.06132348 -0.019257067 -0.034121875 0.19786184 0.12216988 0.020264057 -0.28405604 0.30902228
-0.060278773 -0.06529005 0.05730079 -0.044705022 -0.046407714 -0.039774258 -0.011366472 0.32860768
0.0027971326 0.2649752 0.10961653 -0.07586203 0.2482521 -0.02819875 -0.020043239 -0.10435205
0.11731975 0.061898585 -0.21688958 -0.10872689 -0.09365041 -0.06908329 0.041595004 0.06251705
-0.098886535 0.03498757 0.5935597 0.10219078 0.3177551 0.2043694 -0.025839081 -0.03133817
-0.08440831 -0.089107096 -0.00087177753 0.10990531 -0.06256231 -0.01516917 0.32462716 -0.033173267
0.11144956 0.03159109 0.0019474895 0.019815445 0.042539373 -0.14460096 0.09663243 -0.02527151
-0.10180576 -0.1096675 -0.12304668 -0.035702925 0.10134572 0.13168922 -0.066683404 0.15542756
0.122075215 0.13733135 0.07800855 -0.093565494 0.03559646 0.059694935 0.067227125 0.000886488
0.09293997 -0.015752878 0.1117364 0.113964714 0.04477161 -0.13863437 0.060267866 0.16952036
0.123574436 0.13820635 0.09194513 0.038070902 0.013448944 -0.0678131 -0.107857496 0.1300545
-0.08858982 0.08293344 0.097424544 -0.043885898 -0.056420445 -0.114752695 0.021750575 0.037419695
0.03321719 -0.035225466 0.15744975 0.020694122 0.26412144 0.11176732 0.07733753 0.03898576
0.10656467 0.0047748536 0.03279431 0.12020958 -0.006557057 0.12239461 0.04180081 0.025407502

network.3.bias f4 [32]
00000000: ef29 fe3d ba58 4ebd f17e 8dbb ef4b 0d3e
00000010: 1bb4 d6bd ef71 dabd 21b5 82bb 506d 55bc
00000020: 72c7 40bd 8e7f b23d a9ad 9cbc 88f6 603e
00000030: 46ea f2bd 30fa fa3c 088d ee3d 4e51 ee3d
00000040: 5ba8 003e e6b7 1c3d 6e07 0a3d 813b eabd
00000050: 7b39 0dbe 039d 0f3e 9bd6 a73d 761b 483a
00000060: 9ddc 5e3d d731 c83d 125a 873b 5aec 8e3d
00000070: 94a5 19ba ae2d e4bd 0641 ef3d 43c5 883c
0.12410342 -0.050377585 -0.004318111 0.13798498 -0.10483571 -0.10666262 -0.0039888774 -0.01302655
-0.047065206 0.087157354 -0.019125776 0.21969044 -0.1186109 0.030636877 0.11647993 0.116366014
0.12564223 0.038261317 0.03369849 -0.11437131 -0.13791458 0.14024739 0.081952296 0.00076334865
0.054409612 0.09775131 0.0041306103 0.06978674 -0.000586116 -0.11141525 0.11682324 0.016695624

network.6.weight f4 [16, 32]
00000000: 73de 8abd 3fa7 743e 5018 57be 25c7 3e3d
00000010: 94ef df3e a772 6bbe 95f3 01be cf0d 8cbd
00000020: fa80 8e3d 9f9b ce3c 4d6a 9a3d 5124 6bbd
00000030: a03a e63d 1b49 aebb fb01 8bbd 3c56 8fbd
00000040: 936f 18be c785 9fbd 0073 78bd 117a 40be
00000050: 5bae 863d 91fd 053d 5ff7 4a39 21b3 60be
00000060: 176e 45be be7d 87bd e2c4 3cbe 1542 2bbd
00000070: 833f 62bd 6a89 5cbe 28df 19be 2911 aebd
00000080: c545 71bd b2f1 313e edfb 543e dd66 3a3e
00000090: aa3b a33d c75a 4d3e 0930 e5bd f2cd d1bd
000000a0: 6231 c03d 7d41 10be a18b 173d 755d 883d
000000b0: 181e 223e 4b04 5a3e bf4f 57be f453 43be
000000c0: 826e 87be 2fc0 69be a978 ac3e b7f8 883e
000000d0: 9201 a13e a187 03be 3b83 dbbb 894f a2bd
000000e0: 5dab fc3d 3fc4 74bd 8cdb aabd 41d5 e93c
000000f0: 9aa5 c7bd 6835 fd3d 965d 5b3d 8d4d 043e
00000100: 6057 b33b d2ab 8c3e df25 22bc d0eb b23d
00000110: 76cd 3bbe 4a5f 9fbe c975 e4bd 8461 6dbe
00000120: 55a6 783e 51c9 48bd 9422 ce3c 081b 7a3d
00000130: 9e7c 37be c321 1abe d51d 30be cb6e 5ebd
00000140: 53f7 bfbd bd1b 7fbd 8e17 4b3e 4547 72be
00000150: 064a 10be 1a65 cf3c 0bba 23be 9db6 b8bd
00000160: 5d22 123e 7cf8 403d 65da d2bd 390b 893c
00000170: 204a 5cbe 5fee a63e 80ab 39be cc9a 5fbe
00000180: 5b18 ad3e 5fa0 88be cab8 c8bd 4bb1 91bd
00000190: 101c 83be 5f0a 28be ffa6 953e 0c6f d33e
000001a0: ecaa 0fbe 7d14 da3e 0d80 d4bd a9da 193e
000001b0: 45dd 34be 4875 3f3d a55f 9f3e 5b4c 583e
000001c0: 4a26 ae3e 0a33 173d fa60 f6bd 7eb6 7bbd
000001d0: f328 99be 6005 933e 5b60 9d3e c4cb b33e
000001e0: 1168 24be 4576 ac3d 469d 993e d145 5c3e
000001f0: b806 f83d 1c46 5dbe 036e 9c3e 9ea2 7bbe
00000200: 95e8 ec3d 42da 92be a244 58bd ae5a 3f3e
00000210: 3a96 34be 865c 6abe 030f 763e 2c4d 963e
00000220: 95b3 0fbe 1e3d 953e 404c 433e 7dd3 9abd
00000230: c8c1 7abe e019 c83d 5e1c bf3e 9925 923e
00000240: c296 b13e 89ca 543e da14 8cbe 36d8 5cbd
00000250: a9dd 98bd 2aa7 573e 6c1b 833e 8d81 cc3e
00000260: bdda 14be 8bf8 ad3d 7b8e a43e 774b 813e
00000270: 5a14 b03e 3415 23be 9583 463e d11e 4ebe
00000280: c5dc 1cbc 9553 55bd 51b2 35be f217 00be
00000290: 4e69 65be 9b65 4c3d 106a f03c fd62 b33d
000002a0: 9e91 a1bd 935d d6bd 7640 883d d766 84bd
000002b0: c480 4abc a27a 1ebe 48c8 fbbb 486a 1a3c
000002c0: 0900 14be 418d 173d fe28 00be 6182 823d
000002d0: abc3 3a3d 331d 43be 9cd0 123e 32bd 1b3e
000002e0: a199 5a3d 93ec dabd 9245 25be bc28 abbd
000002f0: b9ca a3bd 0976 d23c dd50 25be 6f98 cfbc
00000300: ff8c 5fbd 1066 863d f6cf 303d 9475 37ba
00000310: a2e5 d93d fab1 b83d 6571 3fbe 5db2 54be
00000320: db4e aa3e b49a 2bbe b19f bcbd ff39 ec3d
00000330: fed7 ce3e 9f20 813e 09a2 1b3d c284 0d3c
00000340: 8645 233c da33 7c3d 70d5 883e 44a6 5b3e
00000350: 4644 a33e 3c7f ac3d 14b1 243c 68ff 41be
00000360: 27b8 313e e3af f9bd 178c c23d fb89 04be
00000370: f7f2 05be 95e1 123e 127f 90bd b69c 583b
00000380: 6fd2 bd3e a335 e4bd 25b9 b6bd aefb cc3d
00000390: ab41 b5be 5094 afbe 838b 0d3e abbd ef3e
000003a0: ecc3 e4bd 35d6 b23e 114b 7bbe 6814 81bd
000003b0: 4cd8 be3c 128d 49be 0eec ed3e 9dbc 9a3e
000003c0: 87d2 c33e f5a0 b83e 0718 82be 3241 93be
000003d0: f0e3 113d 6048 733e 9478 2e3e d1aa ce3e
000003e0: 6cd6 26be 69c9 f93d 6428 673d 65bc 823e
000003f0: 8ea7 8d3e fccf c5be 1221 d93e 6d70 b4be
-0.0678071 0.23891924 -0.21005368 0.046576638 0.4373747 -0.22992955 -0.12690575 -0.06838571
0.06958194 0.02522069 0.075398065 -0.05740768 0.112416506 -0.0053187734 -0.06787487 -0.0699887
-0.14886312 -0.07789188 -0.060656548 -0.18796565 0.065762244 0.032712523 0.00019356374 -0.21943332
-0.19280277 -0.0661578 -0.1843448 -0.041811068 -0.05523635 -0.21536794 -0.15026534 -0.08499367
-0.058904428 0.17377356 0.20799227 0.18203302 0.079703644 0.2005416 -0.111908026 -0.10244359
0.09384419 -0.14087482 0.036998395 0.066584505 0.15831792 0.212907 -0.21026514 -0.19074994
-0.26451498 -0.22827218 0.33685806 0.26752254 0.3144651 -0.12844707 -0.0066989935 -0.079253264
0.123373725 -0.059757467 -0.083426565 0.02854407 -0.09748383 0.12363702 0.053556047 0.12920208
0.0054730624 0.27474838 -0.0098967245 0.08736384 -0.18340096 -0.31127387 -0.11155278 -0.2318173
0.242822 -0.049020115 0.025162973 0.061060935 -0.17918631 -0.15051942 -0.1719888 -0.05430488
-0.09373345 -0.062282313 0.19833204 -0.2366 -0.14090738 0.025316764 -0.15988939 -0.09019206
0.14270921 0.047111973 -0.10295562 0.016728984 -0.21512651 0.32603738 -0.18131828 -0.21836394
0.33807644 -0.26684853 -0.09800871 -0.07113894 -0.25607347 -0.16410206 0.2922897 0.4129566
-0.14030045 0.42593756 -0.10375986 0.15024818 -0.17662533 0.046742707 0.31127658 0.21122877
0.34013587 0.03691391 -0.120302156 -0.061453335 -0.29914054 0.28715038 0.30737576 0.35116398
-0.16055323 0.084209956 0.30002803 0.21511008 0.121106565 -0.21608776 0.30552682 -0.24573752
0.11567799 -0.28682142 -0.05279983 0.18686935 -0.17635432 -0.22886857 0.24029164 0.29355752
-0.14033349 0.2914819 0.19072056 -0.075598694 -0.24487984 0.0977056 0.3732633 0.2854431
0.34685332 0.20780386 -0.27359658 -0.053917132 -0.07464153 0.21059862 0.2560686 0.3994259
-0.14536567 0.084946714 0.32139954 0.25252888 0.34390527 -0.15926057 0.19386132 -0.20128943
-0.00957412 -0.052081663 -0.17743804 -0.12509134 -0.22403452 0.049901586 0.02934745 0.08759115
-0.078891024 -0.104670666 0.0665292 -0.06464928 -0.012359802 -0.15476468 -0.0076837875 0.0094247535
-0.14453138 0.036999945 -0.12515637 0.06372524 0.04559676 -0.19054107 0.1433739 0.15208891
0.05336917 -0.10689654 -0.1613982 -0.08357379 -0.07997651 0.02569105 -0.16144128 -0.02534124
-0.054577824 0.065624356 0.043167077 -0.00069984165 0.10639502 0.09018321 -0.186956 -0.20771165
0.33263287 -0.16758233 -0.09210146 0.115344994 0.40399164 0.252202 0.037996326 0.008637609
0.009965306 0.061572887 0.2672534 0.21450144 0.31888026 0.084227055 0.010051984 -0.18945086
0.17355405 -0.12191751 0.09499376 -0.1294326 -0.13080965 0.14343865 -0.07055487 0.0033052391
0.3707461 -0.11143043 -0.08922032 0.100089416 -0.35401663 -0.3429284 0.13822751 0.46824393
-0.11170182 0.34929052 -0.24540354 -0.0630272 0.023296498 -0.1968272 0.46469158 0.30222026
0.38246557 0.360603 -0.25408956 -0.28760678 0.03561777 0.23758078 0.17038184 0.40364698
-0.16292733 0.12196619 0.056435004 0.2553436 0.27666897 -0.38635242 0.42408043 -0.35242024

network.6.bias f4 [16]
00000000: faaa 0a3e 8a50 fa3d 9cbe a53d 9e59 343e
00000010: 3b35 f23d 157c eebd a15c 0c3d 9313 0f3e
00000020: d50e 893e 629f ad3e ee5c 2c3d d161 743e
00000030: 5a6c 213e 6af4 a13e a352 dabd 3d52 473d
0.13541785 0.12222393 0.080929965 0.17612311 0.11826559 -0.116447605 0.034268025 0.1397231
0.26769128 0.33910662 0.042080812 0.23865439 0.15763989 0.31631786 -0.10660293 0.048662413

network.8.weight f4 [1, 16]
00000000: 073a aa3e 8194 b73e 8fc9 f83e bea2 a6be
00000010: 2bbb b2be 3290 cebd 4674 823e 061f 34bf
00000020: a82e a4be 457e aabe 6475 a8be 17cd f4be
00000030: 540f a3be 64be b8be a824 ca3d 5f7b aa3e
0.33247396 0.35855487 0.48591277 -0.32546037 -0.34908423 -0.10086097 0.25479335 -0.7035984
-0.32066846 -0.3329946 -0.32902062 -0.4781272 -0.31847632 -0.36082757 0.09870273 0.3329725
