第六次作业10245501405杨云天/model/Physics.pth (torch, 14797 bytes, 7 tensors)

network.0.weight f4 [64, 3]
00000000: 46fa 973e e230 c7be 763e b33e 5a4f e7be
00000010: 37b1 9ebd 5043 b73e 683d e4be 974d 3f3d
00000020: 7fd3 003f ab5d fe3e 9966 443f a6ff d63e
00000030: 1e46 3c3e 2196 09bf 6b47 af3e cfce 40bf
00000040: c0da 4cbf 6a74 34bf 9c78 06bf 82c3 9c3d
00000050: 1a46 fabe 902a 17bd a3ac 43bf 6c45 54bf
00000060: 8216 c9be 410f 02bf 214b f0be ff06 b73d
00000070: 6afe 82bd fdb5 503f 6fe9 8b3d a208 303e
00000080: 907b 67bf c7d8 62bd 40fe 04bf d05b f93d
00000090: 5ba1 02bd 228b 0ebd 2f06 00bf 6507 22bd
000000a0: 0eaf a7bf 202d 13bf dd3b efbe 7dc2 0e3d
000000b0: ad0e babe a68d c73d ac33 a23f a381 d33e
000000c0: b823 6fbe 987d 863f a170 c03e 0e88 41bf
000000d0: efe3 46bf f0ab edbe a96e a3bd fb88 9cbe
000000e0: 31aa cb3c 6031 74bd cd44 103f 6429 fa3e
000000f0: 9fc0 57be 08d1 b13f 4ebd c83e d114 68be
00000100: 37a1 a33f 454a 993e 1775 27bf c3f1 97bf
00000110: f3ca 05bf ccc2 40be 74e4 963f d537 643e
00000120: 4ef4 093f ad97 973f 43a5 543d 9d0d e13e
00000130: c1b2 473f 8676 263f a814 ef3e cf15 cf3e
00000140: 4011 9dbe 6d35 cb3e 5b12 963f 9e9c 443f
00000150: b581 ee3e 91cb 683f 285b 6d3e ab8c 43bf
00000160: 69c8 a9bf 0257 a3be 40c6 5c3e 227f 7d3d
00000170: df0f f93e 0f03 c0bc 8c99 483e e840 da3e
00000180: 872e 7ebd fe74 c7bf 651a 333e 3714 173f
00000190: 78bb c23e 97e3 733e 501d c13e 8312 663f
000001a0: d75e 4c3f b86f 53bf d785 45bf 1248 adbe
000001b0: 43d5 8e3e 8cad 9b3f 954a 423e 0fbd 223f
000001c0: 506e 543f df7f 8c3d f63c ccbe cc85 b4be
000001d0: 8ea4 4fbd a8d1 26be a7af 59bf e9df 6bbf
000001e0: e698 e43e 085a 143f bd55 553f 1d98 84bf
000001f0: 306c 97bf 21ff 1ebf 6aaf fbbd 207a 42bf
00000200: 1f1a e0bd 1c42 eebe 027b 89bf 9c3c 2fbf
00000210: 60f6 73bf dee0 46bf 7039 cb3d aacf 78be
00000220: 2e58 bebf 25ff 3b3e 9b41 37be 4a41 b8be
00000230: d677 0abf 03d3 e3be 8cd0 2cbd 20c3 123f
00000240: ff09 85bf e623 4dbf 4e9f 6dbf 4e52 3ebf
00000250: b1ec 16bf 26a3 90bf 8fc1 2a3e 9f4e cf3e
00000260: 262f 35be 2eec 563d 9944 67bd 816a 4b3e
00000270: f8b0 733e c623 a73e e5b1 8d3e 79c2 843e
00000280: bde7 803f 81c6 113f bda1 11bf 9aab e83e
00000290: 4ca8 7a3d 411c 7abf 76e1 22bf d307 5cbf
000002a0: 77fe 06bf 02be dcbe 6ed3 033f 748d 503e
000002b0: 6ec1 4a3e 556f 11bf 282e 40bf 58fe 4fbf
000002c0: 22f4 47bf 1fc4 ccbe 540d 043f 0dec ebbe
000002d0: d20a 833e ce0b b8be 0af1 c6be 1645 06bf
000002e0: d198 65bf 868a d5be 5006 903e 965e 223f
000002f0: 0a25 f73e 50d1 363e 9a8a f1be 9a4c 02bf
0.2968313 -0.38904482 0.3500859 -0.45177728 -0.07748645 0.35793543 -0.445781 0.046704855
0.5032272 0.49680838 0.7671905 0.4199192 0.18386123 -0.53744704 0.34234175 -0.75315565
-0.80021286 -0.70490134 -0.52527785 0.07654478 -0.48881608 -0.036905825 -0.764353 -0.8291843
-0.39274985 -0.50804526 -0.4693232 0.08936881 -0.06396182 0.8152769 0.06831633 0.17190793
-0.90422916 -0.055382516 -0.51950455 0.12175715 -0.03189216 -0.034800656 -0.50009435 -0.039557833
-1.3100297 -0.5749073 -0.4672536 0.034853447 -0.36339322 0.09743814 1.2672019 0.41309842
-0.2335347 1.0507078 0.3758593 -0.7559823 -0.7769155 -0.4642024 -0.07980091 -0.30573258
0.024861427 -0.0596174 0.5635498 0.48859704 -0.21069573 1.3891916 0.39206928 -0.22664191
1.2783574 0.29939476 -0.6541304 -1.1870655 -0.522628 -0.18824309 1.1788468 0.22286923
0.53888404 1.1843163 0.05191542 0.439557 0.7800713 0.650246 0.46695447 0.40446326
-0.30677223 0.39689198 1.1724352 0.7680148 0.46583334 0.9093562 0.23179305 -0.7638652
-1.3264285 -0.3190232 0.21560001 0.06188882 0.4864492 -0.023438958 0.19589823 0.42627645
-0.06205609 -1.5582578 0.17490537 0.5901522 0.38033652 0.23817287 0.37717676 0.89871997
0.79832214 -0.82592344 -0.7715735 -0.33844048 0.2789708 1.2162337 0.18973763 0.6356973
0.82980824 0.06860327 -0.3989026 -0.3525833 -0.05069404 -0.16290915 -0.8503365 -0.92138535
0.44647902 0.57949877 0.8333395 -1.0358921 -1.1829891 -0.62108046 -0.12289317 -0.759676
-0.10942482 -0.46534812 -1.0740664 -0.6845186 -0.95297813 -0.7768687 0.09923065 -0.24297968
-1.487066 0.18359049 -0.1789612 -0.35987312 -0.54089105 -0.44496927 -0.042191073 0.5732899
-1.0393676 -0.801329 -0.92821205 -0.74344337 -0.5895491 -1.1299789 0.16675399 0.4048967
-0.17693767 0.052471332 -0.056461904 0.19864847 0.23797977 0.3264448 0.27674785 0.2592962
1.0070721 0.5694352 -0.5688742 0.45443422 0.061195657 -0.9769936 -0.63625276 -0.8594944
-0.5273203 -0.43113714 0.5149449 0.2036646 0.1980035 -0.56810504 -0.7507043 -0.8124747
-0.7810689 -0.3999338 0.5158284 -0.4607853 0.25594193 -0.35946506 -0.38855773 -0.52449167
-0.89686304 -0.41707247 0.28129816 0.63425577 0.48270446 0.17853284 -0.47176057 -0.50898135

network.0.bias f4 [64]
00000000: a3af 8a3e 40ad 9abe 0857 c2be f049 23bd
00000010: 4127 823e f115 eb3d 4e01 aebe c7be 8d3d
00000020: d60d ecbe 45e1 483e 70c7 303e d9d4 90be
00000030: 54bf 02bf 3258 1a3d 4550 99ba b429 0abc
00000040: 7a7a 31bc d82e ef3d e4dd c6be 4339 a23d
00000050: c8db 35bc efd7 d8bb 9ab0 783e 9ba4 0dbc
00000060: ee7e 32bc d07e 28bd f153 7bbe a204 9cbc
00000070: 41e4 833e d4e5 273d 0c01 853e b01a cbbe
00000080: fb0a 373d 03b7 b83d 7f90 25bd 3075 623e
00000090: 1322 62bc 51f7 8d3e 777d 09bb 1c72 303e
000000a0: 4ac2 5ebd 1c84 f73d 5099 b63d cec0 883e
000000b0: c93c 883e 7969 ec3c aefd 06bf f414 ebbe
000000c0: af59 6c3e 6a08 123d 11c1 56be b7f6 e1be
000000d0: f67d 09bf 990b 0f3e 7039 56be c745 fe3d
000000e0: 93af eebd b874 8fbe 424a 2d3d 380f 99be
000000f0: 07dd 9bbe 0d2f 3c3d 270c 1a3e ede0 5bbe
0.27087125 -0.30210304 -0.37957025 -0.039865434 0.25420573 0.11478794 -0.3398537 0.069211535
-0.46104306 0.19617184 0.1726358 -0.2828739 -0.51073194 0.037681766 -0.0011696896 -0.008432794
-0.010832423 0.116788566 -0.38841164 0.07921078 -0.011099763 -0.006617538 0.24286118 -0.008645202
-0.01089452 -0.041136563 -0.2454374 -0.019045178 0.2576008 0.040990666 0.2597736 -0.39668798
0.044688206 0.09019282 -0.040421005 0.22115016 -0.013802069 0.2772775 -0.0020979324 0.1723103
-0.054384507 0.12085745 0.08915961 0.26709598 0.26608875 0.028858887 -0.52730834 -0.45914423
0.23081087 0.035652556 -0.20972086 -0.4413354 -0.53707826 0.13969268 -0.20920348 0.12415653
-0.11654582 -0.28018737 0.042307146 -0.29894423 -0.30442068 0.04594331 0.15043698 -0.21472521

network.3.weight f4 [32, 64]
00000000: 25d8 10bd c0e7 19bd 4c72 2ebd a59a 6e3e
00000010: ced8 a83c 1ac0 a5bd e6d5 9d3d 38ae 23bd
00000020: 00aa b7bc bffe 85bb f996 0ebd d6cc e3bd
00000030: 6867 1fbd 535f edbe 94ab 763d 287f f13d
00000040: 43ca 6a3b 15c1 df3c 86e5 aabd 19b2 2dbd
00000050: 7087 e93e 68f4 b03e 3a92 5d3c dcdc df3e
00000060: 28a0 bc3e 3977 963e 19d8 1dbd e277 583d
00000070: 137f 953b 59d8 79be ad38 c93c 3c88 0b3e
00000080: ec7c 01be b54a 83bc 40d4 a33d 0508 0ebd
00000090: 6fed 253e e4f3 533d 4f0b 303d 5917 5d3d
000000a0: bcd0 083f 4e13 81bd 06d7 29bd d2d4 edbb
000000b0: c6f1 bc3b e25b 02bf 1469 35bd 68e7 783d
000000c0: 453d c73d 1fc7 6abe f5fd 9dbd f836 9d3c
000000d0: e4a0 3e3d d5b7 4e3c ac41 763d 6db5 e6bb
000000e0: cc11 db3d d0f8 fbbc 20fd 5fbe 020e b9bd
000000f0: 7484 b83d 914d febd c700 243d ec09 b0bd
00000100: ce4a 05ba 282e c9bd 7a56 dbbd 2bce 16be
00000110: 9bbb ebbc 9a5c d4ba 4003 ee3d bf96 183e
00000120: 48e4 dcbd af1c 6a3d 525c 58bd 5415 493d
00000130: e656 d13d ea70 fb3e cee6 a23d f4cd 1abe
00000140: 0e1a de3c 7dac a8bd da9d e6bd 3174 9fbd
00000150: 6858 0abf 4b64 b6be 613c 393c 094f 13bf
00000160: 43dc ecbe de6a c0be 506c 43bd bfc9 b5bd
00000170: a095 19bd 9e5e 263f 03fe 85bd 1ec5 e63d
00000180: 6630 6e3e e546 cebc 0991 efbd f525 9bbd
00000190: efee 26be 1565 14bc d08e bfbd db69 aebb
000001a0: e01f e6be e3cd 413e a6f5 94bd 1a98 39bd
000001b0: d25a 02bd 5925 133f 3830 e93c 2885 fe3d
000001c0: 6461 843d 9c94 513e 312d e03c 60d4 d33d
000001d0: 3adc 6a3d 1512 033d a2ab b9bd 4a51 c83d
000001e0: 38f1 88bc 3459 7dbd e4c4 ce3e a808 f13d
000001f0: 8a7d babd 8074 1e3e b996 06bb 004b 43ba
00000200: 9a36 0cbd 44e8 f43d 5002 d9bc 6774 2c3e
00000210: a2a9 8f3d ed56 403e 1251 923d 5139 023e
00000220: 98d4 803c 1603 a73c 5954 293e a22e 953d
00000230: a2ec b53d 4c3c 033d b856 d23d 9d0e 6f3d
00000240: f7cd fa3d 75dc c93d 0a6f 84bd 111f 0c3e
00000250: e420 ac3c 5a65 1b3e 3fa4 b5bb 83e8 a1be
00000260: 064c ba3d 89c8 39bd 7133 da3d 0d17 113e
00000270: 047b 84bd aae8 7cbd 3acf 913d b545 b33c
00000280: 0676 453e 64a0 813d aae8 0f3e 004e a53d
00000290: f6a7 163d 2b11 82bd 6cae 26bd a8bf 99bd
000002a0: 0ece 553e d633 3b3e e3da 2c3e 1a55 c53d
000002b0: 189b 903d b4d5 16bd 5cde 52bd 2056 c8bb
000002c0: f08b 39bb 6d35 253d f428 bb3c 761a f8bd
000002d0: a20f 9abd bc9e d33d f06b 2fbd cf0a 2e3e
000002e0: c46f 4c3d 18e2 373d 8af0 37bd eed6 fcbd
000002f0: 02ea a43d 540a b83c e4d4 223d 4092 183b
00000300: 2ff2 c2bc 40b4 6f3d 94de 7e3d 105c cf3d
00000310: 190d c63c 7022 a13b de6a 883d 1fc1 3f3d
00000320: 5c18 0ebd 05b7 fabc c8ae a73d 0031 dd3d
00000330: fca4 1ebd 45e7 93be 0855 253d ee7f 6d3e
00000340: 51b4 1d3e f6db c7bd 20bf e03c 19ef a23c
00000350: e095 923e 930e c23e 7ca8 563c e092 ba3e
00000360: 462c a63e 8653 2b3e 75d2 54bd 8d3a 463e
00000370: 0782 bb3d 251d b2be 5cf5 333d 1349 bb3d
00000380: 552e 37bd 0ce5 86bd b6cc 893e 8f1e 93bd
00000390: d019 aa3e d6a3 15bd d993 a13d 9c6c 7fbd
000003a0: 9b9f 883e eab5 09bd 339d 8ebc 8b6b 7d3c
000003b0: 2132 953d 5cdb b3be b2d2 e63d de0c b4bd
000003c0: ff6a 6f3c f80d 22be 1ce4 2f3c c8ac 9bbd
000003d0: a623 c2bc f3d6 733b a0ae dabd 6da2 fbbc
000003e0: d6bc fcbd 44f4 42bd efd9 97be 2ee6 a8bd
000003f0: 8a97 fabd b985 acbc a721 8f3d 80c9 59bb
-0.03536238 -0.03757453 -0.04258947 0.2330118 0.020611193 -0.08093281 0.077068135 -0.03996107
-0.02241993 -0.004089206 -0.034811947 -0.11123054 -0.038916975 -0.4636179 0.060222223 0.11791831
0.0035826124 0.027313748 -0.08344559 -0.042406175 0.45611143 0.34561467 0.013523633 0.4372319
0.3684094 0.29387835 -0.038536165 0.052848704 0.0045622676 -0.24398936 0.024563158 0.13626188
-0.1264531 -0.016026834 0.07999468 -0.034675617 0.16203855 0.051746264 0.042979535 0.053977344
0.53443503 -0.0630251 -0.041464828 -0.007258036 0.0057661263 -0.5092145 -0.044289663 0.06076756
0.09728483 -0.22927521 -0.07714454 0.01919125 0.046540156 0.012617071 0.060121223 -0.0070406706
0.10696754 -0.030758291 -0.21873903 -0.09035875 0.090096384 -0.12417138 0.040039804 -0.085956424
-0.0005084694 -0.09823257 -0.107098535 -0.14727084 -0.02877598 -0.0016201914 0.11621714 0.14901255
-0.10785729 0.05715626 -0.05282242 0.049092606 0.10221653 0.49109584 0.07954179 -0.15117627
0.027112033 -0.082360245 -0.112605765 -0.077858336 -0.5404115 -0.35623392 0.011305899 -0.57542473
-0.46261796 -0.37581533 -0.047710717 -0.08876371 -0.03749621 0.64988124 -0.065425895 0.11268066
0.2326065 -0.02518029 -0.11697585 -0.07575599 -0.16302083 -0.009057303 -0.09353411 -0.0053226775
-0.44946194 0.18926196 -0.07273416 -0.04531107 -0.031824894 0.57478863 0.028465375 0.12427741
0.06463888 0.20466846 0.027365299 0.10343242 0.05733893 0.031999666 -0.090659395 0.0978113
-0.016716585 -0.06185265 0.4038459 0.11769229 -0.09105976 0.15474129 -0.0020536615 -0.00074498355
-0.03423176 0.11958364 -0.02649036 0.16841279 0.07014777 0.1878316 0.07144369 0.12717177
0.015726373 0.020387214 0.16536082 0.07284285 0.08883025 0.032039925 0.102704465 0.058363546
0.12246316 0.09856502 -0.064664915 0.13683726 0.021011777 0.15175381 -0.0055432613 -0.31622705
0.090965316 -0.04535726 0.10654343 0.1416895 -0.06468776 -0.061745323 0.071196035 0.021883825
0.19283304 0.0632942 0.14053598 0.08071518 0.036781274 -0.06350931 -0.040693685 -0.07507259
0.20879385 0.18281493 0.16880374 0.096353725 0.07060832 -0.036824897 -0.05148159 -0.0061137825
-0.002831217 0.040334154 0.022846676 -0.12114422 -0.07522513 0.103330106 -0.042827547 0.1699631
0.049911276 0.044893354 -0.04490713 -0.12345682 0.08052446 0.022465862 0.03975381 0.0023280531
-0.023797123 0.05852151 0.062223986 0.101249814 0.024176167 0.0049174353 0.06661008 0.046815034
-0.0346912 -0.030604849 0.08187634 0.10800362 -0.03873156 -0.28887382 0.040364295 0.23193333
0.15400817 -0.09758751 0.027434886 0.019889401 0.2862997 0.37901744 0.013101693 0.36440182
0.32455653 0.1673108 -0.05195852 0.19358273 0.0915566 -0.3478786 0.043935165 0.09144797
-0.04472192 -0.06586656 0.26913995 -0.07183563 0.33222818 -0.0365332 0.07889528 -0.062359437
0.2668427 -0.033620752 -0.017408943 0.015467535 0.07284952 -0.35128295 0.11270656 -0.08791517
0.014612912 -0.15825641 0.010735538 -0.07601315 -0.02369864 0.0037206977 -0.10677838 -0.0307171
-0.12340705 -0.04759623 -0.29658458 -0.08247028 -0.12235935 -0.021059858 0.069888406 -0.0033231676

network.3.bias f4 [32]
00000000: 917a afbb b0cf ba3d 5f71 353e e249 1abd
00000010: 573f fc3c 4f8c 68bd 0056 9a3c 4223 d03d
00000020: c3a6 743d 8a75 923d e2eb 6ebd 8f6f 133e
00000030: 2a89 c43c e0d5 6a3c f032 aa3d 400c b43d
00000040: b8e6 923c 2702 9b3d b8f8 dc3c 722b 4c3c
00000050: 7670 c53b 4303 a33d 4ff6 403d 6aee 083d
00000060: 54dc 563b b360 903c 2e4f adbd c121 923d
00000070: b42c 8fbd 06c8 8fbd 81b6 35bd 1bc8 81bd
-0.005355187 0.091216445 0.17719029 -0.037668116 0.030791922 -0.056774434 0.018839836 0.10162975
0.05972935 0.07151325 -0.058330424 0.14398025 0.023991186 0.014333218 0.08310497 0.08791399
0.01793228 0.0756877 0.026974067 0.01246153 0.0060253693 0.079596065 0.0471099 0.033430494
0.0032785134 0.017624235 -0.08462368 0.07135344 -0.06990948 -0.07020573 -0.044363502 -0.06336995

network.6.weight f4 [16, 32]
00000000: 588b 8abe 5eb8 72bd 90f2 153d 9073 febd
00000010: 5af1 7a3d dbd4 3a3e b66f 85be 222b 2fbe
00000020: a937 debd fd22 22be c9b3 ba3d 54eb 35bd
00000030: a569 d3be 10cb 2c3e cef2 a9bc 9aca 68be
00000040: 1411 9dbe 4506 c0bd 04c4 b13d 2294 33be
00000050: 9d23 2dbe 80df af3c 9ade 933e 6204 d63d
00000060: 64f3 acbd 9f27 723e 405f 463d dad5 66bd
00000070: 98dc 26be 0443 9cbe 9fa0 0bbe 11ed 293e
00000080: 04c2 4bbe f392 8c3e 39a0 9a3c 3872 2cbe
00000090: 8b87 da3e 7298 7abe 5040 c63e a224 7abd
000000a0: 9ea0 12be 53b3 3d3e 4060 22bc f9f8 113e
000000b0: a5d5 70be 9d76 b03d 34ca f73e 1438 033f
000000c0: 850a 983e cf43 583e 8d96 97be a2e7 cc3e
000000d0: 0b2a 893e 7cf9 883e b1df dfbe fd0e 18be
000000e0: 900b 75be d620 86be 4d5d 98be 7380 b03d
000000f0: 87c1 b63e cab2 d9bd 3a85 c43e 63ee 3cbe
00000100: 88a7 c53a 05b4 f7bd fa37 c33c 89f0 1b3d
00000110: e9a7 c7bd 38fa 0e3d 277a cc3b 10a4 003e
00000120: 22df a13e caa4 e3bd 7f9d e43d 9715 d73d
00000130: 3ef1 2c3e a2e5 2a3a 6768 86be 76ed f4bd
00000140: 09dd 89be a7f5 06be 1f85 863e 4d99 86bd
00000150: 4189 89bd 435f 0e3e e568 5f3e c25c f93d
00000160: 5a89 f83d 6ae3 473e 0ca8 833e aa1c e6bd
00000170: 05f1 ef3c d912 3f3e a594 25be a018 563e
00000180: ac38 33be 3fa0 023f 8b5c 93ba 917c adbe
00000190: 41c4 533e 40e3 7cbe 926b 8c3e 228b 95be
000001a0: c3ff 3cbe b7d2 bc3e 4f56 2abe 700b adbd
000001b0: 0b97 dbbd 19ac fdbd b4ff e93e 7035 033f
000001c0: cccf 943e 6395 c93e 6596 20be 2cb9 f03e
000001d0: 9e79 233f b12a 4b3e c181 31be 2612 cfbd
000001e0: d7bb a5be 711d c8be 02ac 48be 8858 5a3e
000001f0: b890 853e e853 77be 50bb a13e c904 97be
00000200: b824 45be abd6 323d a447 8bbd b997 6dbe
00000210: b806 983c 4833 36bd 95e4 13be 8d59 353e
00000220: d8c2 273e 2fec e0bd 656b 2c3e 66ef 01be
00000230: f40d 4d3d 4f9e 66be c2eb dc3d ba14 883d
00000240: cd4e fd3d 0250 b93d c915 34be a601 43bc
00000250: d392 8f3b c7ca b63a e255 63bc fb13 53be
00000260: 982b 9a3d d619 d73e 75c8 3e3e 402e 40be
00000270: e4b0 a8bd ccad 1bbd d2a7 533d 24b2 e33c
00000280: 4381 27be 1665 b73e a34a 0d3c 1c38 d0bb
00000290: 28eb cb3e 8648 83bd 6d39 363e c46e 06bd
000002a0: 8065 37be a44f 723e 9e21 72be 5fe1 333d
000002b0: cea0 afbc 06f6 62bc fd81 943e 501e fc3e
000002c0: a930 e23e ee1d 493e 5162 07bd aeb2 513e
000002d0: f440 9b3e 2704 feba 08b4 95be 1ae0 8cbe
000002e0: b000 f2bd 0721 6fbe 9412 18be 21c9 b03e
000002f0: df7f 0f3e 1acc dbbd 101b 983e 16d9 efbd
00000300: 0b12 1cbe 56ee dd3e 71f9 97bc 6011 60be
00000310: 13b9 7b3e 5037 ddbd 0623 833e eecc 87be
00000320: 7bb6 52bd 2043 e33e 99b7 86be 6c84 a83d
00000330: c44c 7ebe 0ddf 953d 2c0f 813e 7694 743e
00000340: 3d8f a73e ff95 d13e fb1b cdbd 22eb a63e
00000350: eeb1 a03e a316 e33d 97e4 a0bd 84c8 55be
00000360: 91ae fabd d304 bfbd 7d1f 1abe 5574 883e
00000370: 6b05 cc3e 241d 8bbe 5be7 343e e4c4 38be
00000380: 00cf 303e d8f1 31be c22c c83d 91d5 1e3e
00000390: 22af de3c 1063 f03d 4795 4b3d 6bb6 11bb
000003a0: 4742 143e 4292 60be 0a98 453c ba38 f83d
000003b0: 1c98 5e3e 6b7b 03be cff4 82be a02c 0ebe
000003c0: a1c3 e8bd 3a7d 48be abe7 f93c e8c1 11be
000003d0: ec1b 49be 5088 ad3c bbc9 8f3d fd08 5c3e
000003e0: 2481 f53d d069 3c3d 9a6d a73e f068 d0bd
000003f0: 7aa0 a4bd de2e 6d3d 8a8e ad3c 2d18 133e
-0.27059436 -0.059257858 0.03660828 -0.124243855 0.061265327 0.1824526 -0.2606179 -0.17106298
-0.1085046 -0.1583366 0.091163225 -0.04441388 -0.41291538 0.16874337 -0.020745661 -0.22733536
-0.30677092 -0.09376196 0.08679965 -0.17536977 -0.16908117 0.021468878 0.2888077 0.10450055
-0.084448606 0.23647927 0.04843068 -0.05635629 -0.16295087 -0.3051988 -0.13635491 0.1659434
-0.1989823 0.27455863 0.018875228 -0.16840446 0.42681536 -0.24472216 0.38720942 -0.061070092
-0.14319083 0.18525438 -0.009910643 0.14255132 -0.23518999 0.08616374 0.48396456 0.51257443
0.29695526 0.21119617 -0.2960705 0.40020472 0.2678989 0.2675284 -0.4372535 -0.14849468
-0.23930192 -0.26196927 -0.29758683 0.0861825 0.35694525 -0.106298044 0.38382894 -0.18450312
0.0015079835 -0.12094883 0.023830403 0.03807119 -0.09748823 0.034906596 0.0062401476 0.12562585
0.3161555 -0.111154154 0.111628525 0.10502165 0.16888902 0.00065192033 -0.26251528 -0.119593546
-0.2692645 -0.13179646 0.26273438 -0.065722086 -0.06715632 0.13903527 0.21817358 0.12175895
0.12135573 0.19520345 0.25714147 -0.11235936 0.029289732 0.18659534 -0.16169985 0.20907831
-0.17502087 0.51025766 -0.001124279 -0.338841 0.20680334 -0.24696064 0.2742582 -0.29207712
-0.1845694 0.36879513 -0.16634487 -0.08449447 -0.107221685 -0.12386341 0.45702899 0.51253414
0.29064786 0.39371786 -0.15682371 0.47016275 0.6385745 0.19840504 -0.17334653 -0.101108834
-0.32369873 -0.39084962 -0.19596866 0.21322834 0.26086974 -0.24153101 0.3158822 -0.29495838
-0.19252288 0.043661755 -0.06800774 -0.23202409 0.018557891 -0.0444825 -0.14442666 0.17709942
0.1638292 -0.109825484 0.16837843 -0.1268898 0.050062135 -0.22521327 0.10787155 0.06644578
0.12368546 0.090484634 -0.17586435 -0.0119022485 0.0043815165 0.001394593 -0.0138754565 -0.2061309
0.07527846 0.420119 0.18631156 -0.18767643 -0.08236864 -0.038007542 0.051673718 0.027794905
-0.16357903 0.3581931 0.008623752 -0.006354345 0.39827847 -0.06410317 0.17795344 -0.032820478
-0.17909813 0.23663193 -0.23645636 0.043916102 -0.021438982 -0.013852602 0.29005423 0.49241877
0.4417775 0.19640324 -0.033052746 0.20478317 0.30322993 -0.00193799 -0.29238915 -0.27514726
-0.118165374 -0.23352443 -0.14850837 0.3452845 0.14013623 -0.10732289 0.29708147 -0.11711328
-0.15241258 0.43345898 -0.01855156 -0.21881628 0.24582319 -0.10801566 0.25612658 -0.26523536
-0.05144356 0.4438715 -0.2631195 0.082283825 -0.24833971 0.07317934 0.25206888 0.23884758
0.3272647 0.4093475 -0.100151025 0.32601267 0.3138575 0.11088302 -0.078561 -0.20877272
-0.12240327 -0.09327092 -0.15051074 0.26651254 0.39847884 -0.2717067 0.1766638 -0.18043858
0.17266464 -0.17377412 0.09774162 0.15511157 0.02718312 0.11737645 0.04970291 -0.0022233974
0.14478408 -0.21930793 0.012060175 0.12120195 0.21737713 -0.12840049 -0.255774 -0.1388421
-0.11365438 -0.1957902 0.030505976 -0.14234126 -0.19639558 0.021183163 0.07020899 0.21487804
0.11987522 0.04599935 0.32700807 -0.10176265 -0.08038421 0.057906024 0.021186132 0.14364691

network.6.bias f4 [16]
00000000: 3565 1d3e 3e42 af3e a88d f83d 26d0 8f3e
00000010: 178c 3bbd 20b7 ff3d c509 de3d 6b29 e13d
00000020: bdd7 803d 43e2 863d df74 5b3e 1b45 053e
00000030: ad73 6fbd 2d02 7c3d 99ae 6c3e 12e3 7bbd
0.15370639 0.34230226 0.12136394 0.28088492 -0.045787897 0.124861 0.10841707 0.10994228
0.06291149 0.06586125 0.21431302 0.13014643 -0.058459926 0.061525512 0.23113479 -0.061495848

network.8.weight f4 [1, 16]
00000000: a02b a83e 163a aabe 5cd0 663e 4c32 9dbe
00000010: 6e12 703e f716 eebe aa87 b6be 0638 983e
00000020: ca14 fabe 64df d83e 679d c7be 542c b4be
00000030: c37c 533e d46f e53e 8524 8dbe 6bc9 11be
0.32845783 -0.3324744 0.2254042 -0.30702436 0.2344453 -0.46501896 -0.35650378 0.29730242
-0.48843986 0.42357934 -0.38987276 -0.3519007 0.20653062 0.4481188 -0.27566925 -0.14236991
