第六次作业10245501405杨云天/model/Plant & Animal Science.pth (torch, 15583 bytes, 7 tensors)

network.0.weight f4 [64, 3]
-0.14822643 -1.798682 -0.0918072 0.18041947 0.008611104 0.48212802 0.20985395 -0.4417126
-0.24194722 -0.11179748 0.30735487 -0.33549815 -0.8350075 -1.4445308 -1.0659107 0.19140989
2.0473235 0.45279709 0.46885756 -0.11240087 0.48325276 0.4065051 2.38661 0.10655703
-0.48889852 -0.052916564 0.40009463 0.3753539 -0.5663941 -0.35176054 -0.14049861 -0.46343198
-0.3418303 -0.018023062 -0.4318457 -0.3998463 -0.078915305 -1.8403968 -0.18584543 -0.4223068
0.2816698 0.52300596 0.41245043 -0.08470281 0.6936507 0.18582667 0.5582541 0.5769289
-0.9851052 -1.2118815 -0.6309571 -1.0095606 -1.7250689 -0.48398083 -0.23743922 0.10120324
-0.034424525 0.6347644 -0.0072552967 0.80175996 0.36912933 1.9398416 0.282093 -0.25695035
-0.23511374 0.037862774 -0.23486733 -0.9397622 -0.18091194 -0.105096355 -0.446504 0.40030673
-0.3757961 0.37699842 -0.28574076 -0.9526036 -2.1006517 0.17175612 -0.015869927 -1.0688156
-1.0226012 -0.07718086 0.39567238 0.13385214 0.061255004 2.152487 0.38654587 -0.06489103
0.22576565 0.15125233 -0.1231988 1.7197222 0.23712307 -0.29547802 1.9491831 -0.023531076
0.8496535 0.61983347 0.13927256 -0.12644427 -1.5012233 -1.0255277 -0.112603016 -0.27654678
0.40812352 0.17597528 -0.036094647 0.11574408 0.12462341 -0.040954687 0.3007047 -0.15560052
-0.06169939 0.06921211 0.5130036 1.6541294 0.80705196 -1.0351859 -0.78410697 -1.093241
0.005818153 2.137281 -0.11408248 0.08424586 0.41679093 0.39220998 0.3032652 2.0775363
0.5704545 -0.83495903 -1.9749407 -0.28360358 -0.60552645 -1.8318665 -0.3646891 -0.020710355
-0.2171531 0.56938976 -0.81478554 -1.3365326 -0.77073544 0.3677087 1.3648885 0.8071407
-0.47833905 0.5737132 0.40497044 0.14393097 -2.3719878 -0.63697165 -0.37982655 -1.4716568
-0.8529258 -0.9512973 -1.4985036 -0.17323303 -0.5415823 0.057767525 0.34476537 -0.93027395
-0.9558496 -0.8752406 0.3157321 -0.09025812 -0.5330277 -0.8336328 -1.007146 -0.5505002
-0.17057589 2.0731134 -0.08503557 -0.9763269 -1.9504381 -0.8567213 0.72492945 1.4348196
0.9835902 0.23141491 0.13476579 0.16482851 -0.24764548 -0.4690041 0.06810601 -0.22631618
0.05390958 0.052711327 -1.0035279 -1.2842913 -0.0020478158 -0.25190428 -0.48406878 -0.52929926
00000000: abc8 17be 363b e6bf 6a05 bcbd e2bf 383e
00000010: 9715 0d3c 7cd9 f63e f4e3 563e 2728 e2be
00000020: 03c1 77be 14f6 e4bd 9e5d 9d3e 6ac6 abbe
00000030: 0dc3 55bf 63e6 b8bf c36f 88bf f400 443e
00000040: 5907 0340 05d5 e73e 190e f03e 6d32 e6bd
00000050: e86c f73e 7021 d03e 38be 1840 923a da3d
00000060: e850 fabe 0abf 58bd 34d9 cc3e 632e c03e
00000070: 34ff 10bf f519 b4be dede 0fbe f546 edbe
00000080: 6204 afbe 1aa5 93bc e11a ddbe a7b8 ccbe
00000090: 599e a1bd 1f92 ebbf 444e 3ebe 9938 d8be
000000a0: 0637 903e b8e3 053f b42c d33e ab78 adbd
000000b0: 1893 313f 5949 3e3e bee9 0e3f 9db1 133f
000000c0: db2f 7cbf ef1e 9bbf 6886 21bf 4839 81bf
000000d0: 0fcf dcbf 56cc f7be 4423 73be a543 cf3d
000000e0: bb00 0dbd eb7f 223f d7bd edbb 2440 4d3f
000000f0: 85fe bc3e bb4c f83f 7e6e 903e ff8e 83be
00000100: a8c1 70be ff15 1b3d 1081 70be 4194 70bf
00000110: fb40 39be c23c d7bd 2c9c e4be 01f5 cc3e
00000120: 5968 c0be f005 c13e 9d4c 92be d4dd 73bf
00000130: 1471 06c0 d6e0 2f3e a601 82bc f3ce 88bf
00000140: 99e4 82bf 0011 9ebd 9295 ca3e 8910 093e
00000150: 87e6 7a3d 59c2 0940 57e9 c53e 97e5 84bd
00000160: 1c2f 673e e4e1 1a3e a74f fcbd db1f dc3f
00000170: 64d0 723e e548 97be d57e f93f 3ec4 c0bc
00000180: e482 593f 68ad 1e3f 779d 0e3e 9b7a 01be
00000190: 1628 c0bf 7e44 83bf 699c e6bd 8a97 8dbe
000001a0: 91f5 d03e dd32 343e fbd7 13bd 3b0b ed3d
000001b0: 8f3a ff3d 1ac0 27bd f7f5 993e be55 1fbe
000001c0: 80b8 7cbd 14bf 8d3d 3454 033f 83ba d33f
000001d0: f59a 4e3f f980 84bf 3cbb 48bf 52ef 8bbf
000001e0: 34a6 be3b 36c9 0840 13a4 e9bd 1889 ac3d
000001f0: 9f65 d53e bfcf c83e 9445 9b3e 5bf6 0440
00000200: 4e09 123f e0bf 55bf dbca fcbf 7d34 91be
00000210: c803 1bbf 9a7a eabf 88b8 babe c3a8 a9bc
00000220: 625d 5ebe 87c3 113f c995 50bf 8013 abbf
00000230: eb4e 45bf 5144 bc3e abb4 ae3f c6a0 4e3f
00000240: dbe8 f4be dede 123f 4958 cf3e a462 133e
00000250: a6ce 17c0 9310 23bf a078 c2be 405f bcbf
00000260: 5859 5abf 3888 73bf f7ce bfbf 0064 31be
00000270: 23a5 0abf a49d 6c3d 1685 b03e 6f26 6ebf
00000280: 8fb2 74bf c50f 60bf a3a7 a13e 40d9 b8bd
00000290: 8174 08bf f668 55bf 29ea 80bf 95ed 0cbf
000002a0: 72ab 2ebe e4ad 0440 2127 aebd 8ff0 79bf
000002b0: f5a7 f9bf 1652 5bbf fa94 393f 2ba8 b73f
000002c0: 91cc 7b3f 08f8 6c3e 0b00 0a3e cec8 283e
000002d0: c796 7dbe 4e21 f0be 2a7b 8b3d 6ebf 67be
000002e0: 4bd0 5c3d d5e7 573d 9a73 80bf a863 a4bf
000002f0: a634 06bb 99f9 80be ddd7 f7be 2880 07bf

network.0.bias f4 [64]
0.071561836 -0.46131134 -0.4596592 -0.44345993 0.021319639 -0.004993811 0.041506745 -0.013482468
-0.35004222 -0.38806626 -0.38469112 -0.17971374 0.049189627 -0.49040747 0.051876154 -0.52214044
0.10885369 0.022529472 -0.48341382 0.013529533 -0.020097759 -0.38490978 0.10044251 -0.13025132
-0.46198294 0.021094313 0.06301387 -0.47960576 -0.0041027106 -0.32447267 -0.0036224618 0.00414064
0.04547852 0.083803095 -0.28926262 -0.41267985 -0.14056845 -0.4297123 -0.034631845 0.07224147
-0.0008169259 -0.5227367 -0.01743385 0.021125935 0.023726463 -0.28586146 0.015604705 0.008121494
-0.5254942 0.009864539 0.057989724 0.07779799 -0.1798772 0.06689487 -0.11140931 0.08916343
0.0020333277 0.021066146 -0.06508587 -0.36950925 -0.54188514 -0.49738553 0.07702791 -0.042923514
00000000: 038f 923d 0031 ecbe 7358 ebbe 2e0d e3be
00000010: 86a6 ae3c 1fa3 a3bb fa02 2a3d 92e5 5cbc
00000020: bc38 b3be 9fb0 c6be 3cf6 c4be e106 38be
00000030: 107b 493d b016 fbbe 177c 543d ffaa 05bf
00000040: afee de3d ba8f b83c 0482 f7be f9aa 5d3c
00000050: 0ea4 a4bc e512 c5be cdb4 cd3d 9a60 05be
00000060: 0789 ecbe fbcd ac3c 6a0d 813d e38e f5be
00000070: 0870 86bb 4821 a6be d366 6dbb 35ae 873b
00000080: af47 3a3d f5a0 ab3d 3b1a 94be c64a d3be
00000090: 2df1 0fbe 4003 dcbe 1fda 0dbd 56f3 933d
000000a0: f826 56ba 13d2 05bf 6fd1 8ebc 4c10 ad3c
000000b0: 005e c23c 6f5c 92be e0aa 7f3c 0410 053c
000000c0: ca86 06bf e09e 213c a286 6d3d 8d54 9f3d
000000d0: bb31 38be 2d00 893d 902a e4bd 519b b63d
000000e0: 9441 053b e992 ac3c be4b 85bd 5130 bdbe
000000f0: fcb8 0abf 51a9 febe cfc0 9d3d 91d0 2fbd

network.3.weight f4 [32, 64]
-0.020746373 -0.0068408996 -0.09545012 -0.10056783 0.26038027 -0.069463484 -0.04098892 -0.22438134
-0.08342023 0.08861567 -0.008864731 0.024473816 -0.035359323 -0.09910984 0.006190943 -0.028139029
-0.050428603 0.37805814 -0.06306404 0.05240815 -0.47058934 0.03187777 -0.028667854 -0.100761175
-0.031543165 0.4338971 -0.043786988 -0.10621977 -0.23671095 0.078535035 -0.57359856 -0.04047986
-0.0018385428 0.007132662 -0.019028082 0.03983289 0.07431088 0.022081897 -0.35483885 -0.113005154
-0.2269295 0.07946419 -0.2603074 0.5080587 0.2165196 0.048457965 0.28065988 -0.033839792
-0.06491195 0.73621297 0.08969632 0.0461437 -0.029334024 -0.040131234 -0.12417494 -0.005611604
-0.13151845 0.7225637 -0.37851936 0.06499627 -0.048267037 0.06941457 -0.10033943 -0.07629827
0.008474405 0.04491788 -0.043258816 -0.1036336 -0.04976144 0.1521796 0.09796703 0.19284938
0.083410084 0.026659667 0.08849396 -0.113732964 -0.056907777 0.029741272 0.038669974 0.10119806
-0.022079537 -0.03568034 0.014470533 -0.03125761 0.3921416 0.116095066 -0.023865782 -0.11021809
0.12159017 -0.18437833 -0.064674966 0.11829127 0.2683217 -0.12410922 0.23103353 0.09054209
0.002396646 -0.07259252 0.01419571 -0.029448584 0.113190554 -0.031934217 0.28100756 0.019866174
0.39848235 -0.10247457 0.2806872 -0.4184294 -0.24852183 0.09725839 -0.042490978 0.1560333
-0.01976633 -0.23774092 -0.034981024 -0.01356141 0.052574083 -0.09027498 0.12070902 0.017431984
0.18521954 -0.39783898 0.5008297 0.05959496 0.010551706 -0.017278537 -0.05398144 0.10615358
0.0689273 0.03510748 0.12308198 -0.11696404 0.2640546 -0.009836458 -0.0071799485 -0.2345421
0.08983922 -0.013888791 -0.06816509 0.06355405 0.02207188 -0.012249932 -0.0013335886 -0.10276233
0.062382445 0.33588827 0.088061646 -0.028660472 -0.39343923 -0.031170726 -0.0018724512 -0.08324711
-0.04058321 0.28667954 0.06696266 0.08737461 -0.18586193 0.12362203 -0.56016606 -0.061271332
0.0030207722 0.071208976 0.12348677 0.052234605 -0.0016397536 0.03547658 -0.35380048 0.053883728
-0.070258304 0.06076619 -0.20079306 0.59271556 0.20814507 -0.03605026 0.3161571 0.009120535
0.07951461 0.4295478 0.041506406 -0.07042589 -0.025736317 0.032156438 -0.08444798 0.038419988
-0.08161543 0.47251648 -0.2829753 -0.04894951 -0.06832461 0.054887936 0.08727559 0.010494918
-0.065236256 -0.07072601 -0.11771746 -0.11608666 -0.22867502 0.038055968 0.008174265 0.15421845
0.043355882 0.092242405 -0.07037206 -0.11491522 -0.055883575 0.12384012 -0.032101974 0.16936931
-0.009669424 -0.13378172 0.10449466 0.024845507 0.26789108 0.014996573 -0.026814304 0.10510853
0.090272084 -0.12215316 -0.045743592 0.053683788 0.09770846 -0.0060713887 0.32584798 -2.5053028e-05
0.021556918 -0.0003889418 0.11056198 0.07357189 -0.041163605 -0.039858878 0.31961027 -0.02598998
0.19011717 -0.07753309 0.21161805 -0.34754962 -0.16776909 0.0018076301 -0.21129067 -0.006317276
-0.088041514 -0.25746223 -0.039901275 0.009980581 -0.065977395 -0.08382965 -0.07139216 -0.06620214
0.07422013 -0.30047855 0.384133 0.028025478 -0.015944928 0.10063031 -0.051865336 -0.104128
00000000: 4cf4 a9bc a029 e0bb 5a7b c3bd 82f6 cdbd
00000010: 9050 853e df42 8ebd ffe3 27bd 39c4 65be
00000020: 3ad8 aabd 227c b53d 603d 11bc 507d c83c
00000030: f0d4 10bd 1afa cabd 65dd ca3b d283 e6bc
00000040: 398e 4ebd d690 c13e b827 81bd eea9 563d
00000050: 16f1 f0be 4492 023d d9d8 eabc e05b cebd
00000060: 6833 01bd c327 de3e fc59 33bd c089 d9bd
00000070: 5b64 72be fad6 a03d 5bd7 12bf 36ce 25bd
00000080: 42fb f0ba 1bb9 e93b c8e0 9bbc d027 233d
00000090: 4d30 983d 18e5 b43c 70ad b5be 3f6f e7bd
000000a0: 3560 68be 1fbe a23d 0347 85be 2310 023f
000000b0: 50b7 5d3e dc7b 463d a7b2 8f3e 989b 0abd
000000c0: 8ef0 84bd 7478 3c3f b4b2 b73d 2d01 3d3d
000000d0: e84d f0bc a660 24bd 6e4f febd 8ce1 b7bb
000000e0: c6ac 06be eff9 383f 4acd c1be c41c 853d
000000f0: a8b3 45bd 3a29 8e3d c27e cdbd 4442 9cbd
00000100: 3bd8 0a3c d0fb 373d 2830 31bd da3d d4bd
00000110: a7d2 4bbd f8d4 1b3e f0a2 c83d 4f7a 453e
00000120: e8d2 aa3d 6065 da3c 523c b53d d4ec e8bd
00000130: 2118 69bd f8a3 f33c 6864 1e3d ee40 cf3d
00000140: 25e0 b4bc 8c25 12bd d015 6d3c fb07 00bd
00000150: c9c6 c83e 40c3 ed3d 2c82 c3bc 06ba e1bd
00000160: 4404 f93d accd 3cbe 4f74 84bd b242 f23d
00000170: 7661 893e fa2c febd 0e94 6c3e 226e b93d
00000180: 0c11 1d3b 63ab 94bd 2095 683c 283e f1bc
00000190: 73d0 e73d 74cd 02bd 39e0 8f3e 63be a23c
000001a0: e105 cc3e 30de d1bd 3cb6 8f3e 613c d6be
000001b0: 827c 7ebe 682f c73d 050b 2ebd 32c7 1f3e
000001c0: 00ed a1bc 5b72 73be 4348 0fbd ad30 5ebc
000001d0: ec57 573d 17e2 b8bd 4a36 f73d 85cd 8e3c
000001e0: 31aa 3d3e 8db1 cbbe 6036 003f d819 743d
000001f0: 10e1 2c3c b88b 8dbc a41b 5dbd 0c67 d93d
00000200: c229 8d3d dccc 0f3d 6812 fc3d d88a efbd
00000210: 2a32 873e 1829 21bc c645 ebbb ce2b 70be
00000220: a0fd b73d d08d 63bc 249a 8bbd a028 823d
00000230: 16d0 b43c f0b3 48bc cfcb aeba 0e75 d2bd
00000240: bc84 7f3d 8cf9 ab3e aa59 b43d 5ec9 eabc
00000250: de70 c9be c059 ffbc 096d f5ba 767d aabd
00000260: 943a 26bd a9c7 923e b823 893d 76f1 b23d
00000270: 9752 3ebe 8c2d fd3d 0b67 0fbf a6f7 7abd
00000280: 26f8 453b 03d6 913d a2e6 fc3d f4f3 553d
00000290: 00ed d6ba e44f 113d 5625 b5be 2fb5 5c3d
000002a0: 96e3 8fbd f8e5 783d b29c 4dbe 35bc 173f
000002b0: fb23 553e 70a9 13bd 58df a13e 4c6e 153c
000002c0: 8ed8 a23d b0ed db3e 9f02 2a3d 733b 90bd
000002d0: f8d4 d2bc 78b6 033d 10f3 acbd 475e 1d3d
000002e0: fe25 a7bd aeed f13e 23e2 90be 487f 48bd
000002f0: c6ed 8bbd 2cd2 603d 8bbd b23d e0f2 2b3c
00000300: 969a 85bd ccd8 90bd da15 f1bd d8be edbd
00000310: c929 6abe 93e0 1b3d 5aed 053c 71eb 1d3e
00000320: f095 313d 96e9 bc3d 3a1f 90bd ac58 ebbd
00000330: 2de6 64bd e49f fd3d 5c7d 03bd 266f 2d3e
00000340: 816c 1ebc 13fe 08be 4c01 d63d ce88 cb3c
00000350: 0529 893e 30b4 753c aca9 dbbc 2443 d73d
00000360: 92e0 b83d 702b fabd a25d 3bbd 88e3 5b3d
00000370: 601b c83d 80f2 c6bb 8cd5 a63e f828 d2b7
00000380: 2298 b03c e2ea cbb9 526e e23d dcac 963d
00000390: 2b9b 28bd 1043 23bd f5a3 a33e f0e8 d4bc
000003a0: 13ae 423e abc9 9ebd 67b2 583e 06f2 b1be
000003b0: a9cb 2bbe 00ee ec3a 955c 58be 2701 cfbb
000003c0: 1c4f b4bd 17d2 83be 856f 23bd 9785 233c
000003d0: 281f 87bd e1ae abbd 0e36 92bd fd94 87bd
000003e0: b900 983d 53d8 99be 15ad c43e b095 e53c
000003f0: f09e 82bc 4417 ce3d bf70 54bd 1041 d5bd

network.3.bias f4 [32]
0.044780724 -0.029530255 -0.0132730035 0.011513922 0.0048113517 -0.020828988 -0.04949135 0.022944871
0.014783802 0.027745415 0.002943992 0.041350078 0.032804348 -0.014920443 0.037983645 0.018550225
-0.005801658 -0.002306847 0.019797916 0.030793507 -0.096791066 0.044081006 -0.011441131 0.016941356
-0.05183393 0.052596156 0.014726989 0.017178012 0.043527126 -0.0069957995 0.036360834 -0.0022680475
00000000: fe6b 373d 6fe9 f1bc 0377 59bc e4a4 3c3c
00000010: 8ba8 9d3b 8ea1 aabc 71b7 4abd e2f6 bb3c
00000020: c337 723c 5a4a e33c fdef 403b b35e 293d
00000030: da5d 063d e074 74bc bd94 1b3d a4f6 973c
00000040: d61b bebb 782e 17bb 3d2f a23c aa42 fc3c
00000050: 653a c6bd 498e 343d 9573 3bbc 99c8 8a3c
00000060: d14f 54bd 116f 573d 7849 713c e7b8 8c3c
00000070: 8049 323d 053d e5bb 19ef 143d 86a3 14bb

network.6.weight f4 [16, 32]
-0.021590091 -0.06581149 -0.18457827 0.106885396 0.012648663 -0.15188117 -0.06660397 -0.038856618
-0.06924365 -0.01628774 -0.0914436 0.17839484 -0.14704204 -0.10361697 -0.150856 -0.09686407
0.074204616 -0.11975035 0.15802898 -0.102771565 -0.12303537 -0.14263332 -0.11753492 0.065604284
0.08462202 -0.012168885 -0.110872805 0.0112829 -0.04996782 -0.16791023 -0.10991157 0.07471814
-0.21443938 -0.046062935 -0.11711313 0.16479382 -0.25704512 -0.091655985 0.25167856 -0.22748284
0.26324496 -0.01705325 -0.25973096 -0.30322495 -0.1553973 0.026988026 -0.25447676 0.2344008
-0.30220723 0.32373834 -0.26606295 -0.35902214 -0.16124073 -0.35885054 0.2364143 -0.39255154
0.34413838 0.05542032 0.20932835 -0.26310647 -0.17296603 -0.1973656 0.21845658 0.11232865
0.42929366 -0.24775913 0.38738853 -0.18236236 0.5319212 0.28339878 -0.2677297 0.3233781
-0.2760633 0.031296887 0.34337622 0.14954609 0.46607733 -0.1409713 0.43073228 -0.1660329
0.34436277 -0.039024644 0.31271836 0.1930285 -0.0023834254 0.3881885 -0.18172203 0.4477665
-0.12096403 0.31502882 -0.25119215 0.28097305 0.25337252 0.27627555 -0.20684338 -0.10291092
0.6154114 -0.38891962 0.42459562 -0.3459939 0.67220396 0.42418087 -0.35873762 0.62865555
-0.4080072 0.026549054 0.33435062 0.473072 0.64712685 -0.3988153 0.5176375 -0.4564484
0.46303123 -0.25117072 0.42244506 0.41583136 0.14661743 0.42767677 -0.40217867 0.75952756
-0.06877799 0.07122592 -0.3500128 0.41329765 0.12259161 0.35596457 -0.3666324 -0.18239017
-0.060212556 0.2687852 -0.11540281 0.24832074 -0.344323 -0.13584326 0.14969943 -0.4453461
0.09166487 -0.008064218 -0.15471986 -0.24317178 -0.48202682 0.24650274 -0.27746448 0.3073808
-0.20962796 0.3464895 -0.40869403 -0.3053778 0.06963389 -0.2440244 0.032467794 -0.3708808
0.065569825 -0.05912342 0.111332044 -0.18372549 -0.27358988 -0.30203223 0.24317504 0.2540947
-0.23099218 0.19116852 -0.017408077 0.10437165 -0.18945932 -0.15448183 0.33681688 -0.23740183
0.258804 0.09898164 -0.27064785 -0.18313006 -0.3587639 0.27577507 -0.20637572 0.28172278
-0.2212333 0.24227172 -0.037906256 -0.23477128 -0.0017230225 -0.2569701 0.34720623 -0.2775106
0.41670442 -0.12625994 0.15769799 -0.2008709 -0.033610158 -0.2511622 0.37309125 0.03302942
0.41921827 -0.32442585 0.2614942 -0.32049498 0.50128305 0.30150166 -0.07471234 0.3817243
-0.27901518 0.08449768 0.3022206 0.26688728 0.43452722 -0.4044349 0.36372572 -0.10868717
0.3109829 0.002078885 0.3115587 0.29580423 -0.009435769 0.10069401 -0.052933354 0.41020325
0.007373615 0.09889237 -0.2446431 0.3320271 0.18711165 0.113306545 -0.26909575 -0.051903296
-0.20756596 0.31490493 -0.0857466 0.13297315 -0.19645394 -0.0825077 0.15988456 -0.26802891
0.36502504 0.00864702 -0.22319072 -0.108516514 -0.24089476 0.16428216 -0.17938758 0.12119702
-0.032612525 0.09067737 -0.1140449 -0.26735455 -0.084645145 -0.071197696 0.18780807 -0.27667204
0.12474825 -0.046242096 0.31978327 -0.22302876 -0.001117504 -0.0360988 0.17675355 0.1543545
00000000: b4dd b0bc 2dc8 86bd 1602 3dbe bbe6 da3d
00000010: 563c 4f3c bd86 1bbe aa67 88bd 1e28 1fbd
00000020: 9dcf 8dbd de6d 85bc c846 bbbd 23ad 363e
00000030: 3092 16be 2235 d4bd ff79 1abe ab60 c6bd
00000040: 97f8 973d ac3f f5bd 59d2 213e e679 d2bd
00000050: f8f9 fbbd 780e 12be 26b6 f0bd 8a5b 863d
00000060: 4f4e ad3d 0160 47bc 4811 e3bd eadb 383c
00000070: 0fab 4cbd a9f0 2bbe 5119 e1bd d305 993d
00000080: ff95 5bbe 7dac 3cbd 02d9 efbd b6bf 283e
00000090: 6b9b 83be 22b6 bbbd 03dc 803e 43f1 68be
000000a0: 0bc8 863e 42b3 8bbc 75fb 84be 4d40 9bbe
000000b0: 7820 1fbe fe15 dd3c c74a 82be c306 703e
000000c0: e8ba 9abe 08c1 a53e 6739 88be c0d1 b7be
000000d0: 4a1c 25be 42bb b7be 9716 723e 84fc c8be
000000e0: e832 b03e 6b00 633d 2c5a 563e e4b5 86be
000000f0: 021e 31be 351a 4abe 15b3 5f3e 900c e63d
00000100: 61cc db3e 92b4 7dbe ca57 c63e 33bd 3abe
00000110: fd2b 083f a519 913e de13 89be d091 a53e
00000120: 2b58 8dbe 2a31 003d 02cf af3e 9c22 193e
00000130: b0a1 ee3e c85a 10be f188 dc3e 8704 2abe
00000140: 5150 b03e 4ed8 1fbd 9f1c a03e 43a9 453e
00000150: 3e33 1cbb a5c0 c63e 5715 3abe a741 e53e
00000160: fdbb f7bd 754b a13e 429c 80be b3db 8f3e
00000170: 0bba 813e fd73 8d3e c0ce 53be f6c2 d2bd
00000180: 9a8b 1d3f 7920 c7be 9964 d93e 1d26 b1be
00000190: 8f15 2c3f 3c2e d93e 75ac b7be 92ef 203f
000001a0: 52e6 d0be 677d d93c 0130 ab3e 7e36 f23e
000001b0: 1baa 253f 8531 ccbe e483 043f 9bb3 e9be
000001c0: 6e12 ed3e 7399 80be b84a d83e d9e7 d43e
000001d0: e122 163e 73f8 da3e 5dea cdbe 6670 423f
000001e0: 7adb 8cbd e5de 913d e134 b3be c09b d33e
000001f0: 4f11 fb3d fd40 b63e 3eb7 bbbe 7dc4 3abe
00000200: 71a1 76bd 379e 893e 4f58 ecbd cb47 7e3e
00000210: 1b4b b0be 7f1a 0bbe cf4a 193e 6704 e4be
00000220: cbba bb3d c81f 04bc e26e 1ebe 0602 79be
00000230: 38cc f6be 376b 7c3e d30f 8ebe 0461 9d3e
00000240: b6a8 56be 1267 b13e 5840 d1be 7b5a 9cbe
00000250: 379c 8e3d 88e1 79be f3fc 043d 17e4 bdbe
00000260: 7949 863d 662b 72bd 0e02 e43d 8922 3cbe
00000270: f913 8cbe f8a3 9abe e102 793e b318 823e
00000280: 3789 6cbe aec1 433e 629b 8ebc cec0 d53d
00000290: a001 42be 7c30 1ebe 4373 ac3e 7719 73be
000002a0: f581 843e e3b6 ca3d 5b92 8abe 7286 3bbe
000002b0: e7af b7be 6432 8d3e 2854 53be f83d 903e
000002c0: fb8a 62be 1416 783e 9743 1bbd e267 70be
000002d0: 0bd7 e1ba 9691 83be 04c5 b13e df15 8ebe
000002e0: 485a d53e 494a 01be 957b 213e 1ab1 4dbe
000002f0: ceaa 09bd 5598 80be d105 bf3e db49 073d
00000300: c7a3 d63e 251b a6be 91e2 853e eb17 a4be
00000310: 1654 003f 6d5e 9a3e c902 99bd 5e71 c33e
00000320: 14db 8ebe 1f0d ad3d a9bc 9a3e 73a5 883e
00000330: 5a7a de3e 1712 cfbe 423a ba3e 6197 debd
00000340: 2739 9f3e e73d 083b 9f84 9f3e a773 973e
00000350: 7c98 1abc a938 ce3d a5d0 58bd 2906 d23e
00000360: 5e9e f13b 1588 ca3d b983 7abe 75ff a93e
00000370: 329a 3f3e 430d e83d ebc6 89be 8d98 54bd
00000380: 2c8c 54be 383b a13e ea9b afbd 1d2a 083e
00000390: 392b 49be ccf9 a8bd c7b8 233e 163b 89be
000003a0: 90e4 ba3e 3bac 0d3c 1c8c 64be e83d debd
000003b0: 1ead 76be 9539 283e 61b1 37be 2536 f83d
000003c0: b694 05bd 0fb5 b93d 5f90 e9bd b2e2 88be
000003d0: 6f5a adbd 19d0 91bd c250 403e f5a7 8dbe
000003e0: 037c ff3d 5a68 3dbd a2ba a33e a761 64be
000003f0: 3679 92ba 56dc 13bd e2fe 343e 1b0f 1e3e

network.6.bias f4 [16]
-0.093519 0.21919169 0.15786575 0.18252337 0.2318906 0.14110295 0.06502979 0.101391844
0.073459014 0.17816216 0.10897481 -0.19975266 0.22527303 0.046492584 0.09717601 0.1431367
00000000: e486 bfbd c973 603e 8fa7 213e 68e7 3a3e
00000010: bb74 6d3e 4b7d 103e 572e 853d 87a6 cf3d
00000020: ae71 963d 2470 363e 2f2e df3d f68b 4cbe
00000030: f9ad 663e 026f 3e3d 3704 c73d 6d92 123e

network.8.weight f4 [1, 16]
-0.07832992 0.5313326 -0.50556695 -0.6297319 0.39137855 0.41110423 -0.6727133 0.37539458
-0.6837197 -0.533405 0.35510114 0.07450503 -0.54331386 -0.6144991 -0.4731825 -0.5077709
00000000: 706b a0bd 6a05 083f d66c 01bf 1c36 21bf
00000010: c562 c83e 417c d23e f036 2cbf b833 c03e
00000020: 4108 2fbf 3b8d 08bf d1cf b53e 1896 983d
00000030: 9e16 0bbf d04f 1dbf fa44 f2be 46fd 01bf
