第六次作业10245501405杨云天/model/Psychiatry Psychology.pth (torch, 15505 bytes, 7 tensors)

network.0.weight f4 [64, 3]
-0.571813 0.5558515 0.48513007 0.5504026 0.06547648 0.5116293 0.3493669 -0.008104892
-0.021686712 0.07063514 -0.26259735 -0.43039843 -0.5867236 -0.9531169 -0.93072 -0.05739167
0.38493407 -0.5006873 0.67578804 0.9510001 0.4491761 0.33610857 0.60492086 -0.06840879
-0.58036906 -0.31736952 -0.21957476 -0.45447427 -0.9901179 -0.93355256 0.03234032 1.6730466
0.1527723 0.4542437 0.697831 0.58324915 -0.75803983 -0.47962573 -0.20706253 -0.090051025
-0.13550463 -0.24486321 0.15013857 0.3286961 0.011901122 0.8296157 0.77940166 0.5728158
0.047840565 1.324224 0.48593897 -0.5587734 0.32101452 -0.57477826 0.13869311 0.09579564
0.33568263 0.33606768 0.47639757 -0.35094595 -0.13263798 -0.43932724 0.31981984 0.26693285
-0.19164816 0.5016326 -0.3639485 -0.4833911 0.40571868 -0.32206777 -0.45974913 0.120306656
0.57682246 1.0537286 0.60508204 -0.2864062 -1.0459805 -0.9374215 0.45388985 -0.4663326
-0.4330562 -0.5251235 -1.1130916 -0.90178967 0.43488538 -0.5483433 -0.56314117 -0.5248088
-0.66052115 -0.47526395 -0.11770691 0.21186475 0.11117145 0.93591195 0.49483263 0.45530596
0.26441517 -0.51695895 -0.3131 0.40813744 -0.40435368 -0.26099315 0.15985021 -0.51571107
0.25118518 -0.87022126 -1.477556 -0.15908095 0.5000127 1.1298993 0.5268173 0.09028498
1.4782343 0.32636106 -0.7481168 -0.92207736 -0.8825551 -0.8591142 -0.6617055 -0.19131349
0.7443431 1.0055304 0.1505434 -0.20087773 -0.47117528 0.17779331 -0.56027645 0.21373068
0.38573426 -0.7760535 -1.2226068 0.32043433 0.58640903 0.7638876 0.66611683 -0.6387449
-0.8663296 -0.12388571 0.67465353 0.6504547 -0.1258496 -0.09102341 1.4263197 0.5631722
0.32588068 0.68445677 -0.099492475 0.19188662 1.4214531 0.16802917 0.09482589 0.42865133
0.18679218 -0.49920288 0.5493185 0.35874495 0.3042827 0.07108017 -0.5490058 0.37591112
1.2972816 0.2973429 0.73540527 0.9880746 0.17534888 -0.12456496 -0.08250968 -0.42130238
0.0031402465 0.50337297 -0.5573822 0.30031633 -0.09517426 -0.31978762 -0.59662646 -0.83052456
-0.9263919 0.623569 0.47139814 0.23160954 -0.68535936 -0.35851985 0.13740937 0.5216192
-0.1618721 0.2918833 -0.20262659 -0.3191146 0.40713078 -0.5742254 0.1972586 -0.19670828
00000000: 5662 12bf 494c 0e3f f862 f83e 2fe7 0c3f
00000010: 8818 863d 23fa 023f 38e0 b23e 62ca 04bc
00000020: 55a8 b1bc 28a9 903d 2973 86be 2f5d dcbe
00000030: 8533 16bf 78ff 73bf aa43 6ebf 8713 6bbd
00000040: 1416 c53e 0b2d 00bf 7200 2d3f be74 733f
00000050: 69fa e53e 6c16 ac3e 18dc 1a3f e819 8cbd
00000060: 1193 14bf 427e a2be 35d8 60be dab0 e8be
00000070: 5e78 7dbf 4dfd 6ebf 4977 043d 6426 d63f
00000080: 5870 1c3e a192 e83e 0da5 323f d14f 153f
00000090: e60e 42bf 8191 f5be 3308 54be ac6c b8bd
000000a0: bac1 0abe 6cbd 7abe edbd 193e db4a a83e
000000b0: ecfc 423c b261 543f de86 473f 0ea4 123f
000000c0: 78f4 433d 2c80 a93f fecc f83e c60b 0fbf
000000d0: 045c a43e ab24 13bf 9105 0e3e 8130 c43d
000000e0: 98de ab3e 1011 ac3e 62ea f33e 30af b3be
000000f0: 40d2 07be 80ef e0be 6dbf a33e 6cab 883e
00000100: 6a3f 44be fe6a 003f 7557 babe 0a7f f7be
00000110: 5cba cf3e 11e6 a4be 3d64 ebbe 5663 f63d
00000120: a3aa 133f 94e0 863f a8e6 1a3f d5a3 92be
00000130: b0e2 85bf dbfa 6fbf 4064 e83e 26c3 eebe
00000140: 8bb9 ddbe 7e6e 06bf c979 8ebf b0db 66bf
00000150: 4ca9 de3e 3a60 0cbf 052a 10bf df59 06bf
00000160: ea17 29bf cc55 f3be 5210 f1bd 13f3 583e
00000170: dbad e33d ed97 6f3f b45a fd3e dd1d e93e
00000180: 6d61 873e 6c57 04bf a54e a0be 64f7 d03e
00000190: 7207 cfbe e5a0 85be c6af 233e a405 04bf
000001a0: 589b 803e d2c6 5ebf 8e20 bdbf 1ee6 22be
000001b0: d500 003f 8aa0 903f 80dd 063f 55e7 b83d
000001c0: c836 bd3f cc18 a73e 9584 3fbf 430d 6cbf
000001d0: 22ef 61bf e9ee 5bbf 8865 29bf afe7 43be
000001e0: 458d 3e3f 38b5 803f 0d28 1a3e e4b2 4dbe
000001f0: e33d f1be 730f 363e 476e 0fbf 37dc 5a3e
00000200: f67e c53e 71ab 46bf 617e 9cbf f80f a43e
00000210: e71e 163f 238e 433f a286 2a3f c984 23bf
00000220: c7c7 5dbf cbb7 fdbd 18b6 2c3f 3384 263f
00000230: b8de 00be 7b6a babd a591 b63f 0e2c 103f
00000240: d5d9 a63e 8f38 2f3f b6c2 cbbd ed7d 443e
00000250: 2df2 b53f d70f 2c3e 1434 c23d 3078 db3e
00000260: 7346 3f3e 8597 ffbe 23a0 0c3f 6bad b73e
00000270: f1ca 9b3e 7b92 913d a58b 0cbf 6c77 c03e
00000280: 530d a63f 543d 983e 8543 3c3f 75f2 7c3f
00000290: a88e 333e ea1b ffbd d6fa a8bd f2b4 d7be
000002a0: 98cc 4d3b 0ddd 003f 9ab0 0ebf 10c3 993e
000002b0: b9ea c2bd 34bb a3be 83bc 18bf 429d 54bf
000002c0: 0528 6dbf 38a2 1f3f 195b f13e 0d2b 6d3e
000002d0: b673 2fbf ea8f b7be 0bb5 0c3e d688 053f
000002e0: cdc1 25be ba71 953e 587d 4fbe fd62 a3be
000002f0: 7273 d03e 7000 13bf 29fe 493e e56d 49be

network.0.bias f4 [64]
-0.36896974 0.19333196 -0.57006615 -0.38990122 0.06470996 -0.19303794 -0.006643288 -0.2404112
0.07254987 0.021911483 -0.0024245633 -0.005952386 0.13413401 -0.117139444 0.0188626 -0.037236117
-0.0065925806 -0.16311812 0.3025266 0.02265882 -0.18042436 -0.09708571 -0.54059106 -0.24161252
-0.015290745 0.023244876 0.012268689 0.06183899 0.15202267 0.17606945 -0.5492615 -0.042389218
-0.49297273 -0.33757395 -0.4953893 0.028566444 -0.014127797 -0.0074609416 0.13065259 0.09756513
-0.016211225 -0.35002592 -0.4227928 0.031414747 -0.031172529 0.07557236 0.031184569 -0.007361429
0.003544225 -0.007811865 -0.38656968 -0.33738026 -0.54687744 -0.010796794 -0.017555602 -0.29357743
0.08053908 -0.54752725 0.022000093 0.03191304 0.054295264 -0.48893693 -0.18863876 -0.14442684
00000000: 9ae9 bcbe d0f8 453e dbef 11bf 22a1 c7be
00000010: a886 843d bdab 45be f0af d9bb 5b2e 76be
00000020: 0795 943d b67f b33c 6ce5 1ebb 3c0c c3bb
00000030: 6d5a 093e cee6 efbd bd85 9a3c e684 18bd
00000040: 9306 d8bb 7008 27be c4e4 9a3e fd9e b93c
00000050: 2ac1 38be dfd4 c6bd 2d64 0abf 4669 77be
00000060: 0886 7abc 0a6c be3c 9d02 493c e14a 7d3d
00000070: d5ab 1b3e 8d4b 343e 679c 0cbf 51a0 2dbd
00000080: ec66 fcbe 7ed6 acbe aba3 fdbe 2d04 ea3c
00000090: 4778 67bc ea7a f4bb cbc9 053e 3ad0 c73d
000000a0: 67cd 84bc 9936 b3be 4c78 d8be c0ac 003d
000000b0: 885d ffbc aec5 9a3d c876 ff3c 2438 f1bb
000000c0: 3a46 683b acfa ffbb 76ec c5be 1bbd acbe
000000d0: 2900 0cbf 09e5 30bc c4d0 8fbc c84f 96be
000000e0: acf1 a43d bf2a 0cbf 8a39 b43c 3fb7 023d
000000f0: b664 5e3d f155 fabe 852a 41be a1e4 13be

network.3.weight f4 [32, 64]
0.11049922 -0.026176842 -0.115742266 -0.01265873 0.11689256 0.053234547 -0.065884076 0.07903119
-0.014136552 0.33073983 -0.58678997 -0.0046451264 -0.011518936 0.045318842 0.062443882 -0.4362552
-0.51538485 -0.037921056 -0.0052460707 0.016399773 -0.040280655 -0.03835238 -0.07207246 0.07203892
-0.18849468 0.23231761 0.044091877 0.07878872 0.0069173137 -0.07854227 -0.088431895 -0.37138388
-0.03602977 -0.059826493 -0.009036303 0.37111983 -0.37232596 -0.57533073 -0.06211273 -0.027589409
-0.20583123 -0.114589304 -0.052829906 0.10933456 -0.28067887 0.002119472 -0.061639044 -0.38534895
0.021883642 -0.22269419 0.12234117 0.08617093 -0.120592594 -0.3923916 -0.34032074 -0.05964686
-0.03237954 -0.026975498 0.2653174 -0.06053119 -0.0053643775 -0.12092061 0.045135587 -0.11865324
-0.05880083 -0.038727026 0.024773747 -0.0770935 -0.34557813 -0.11030626 0.25979644 -0.18298936
-0.1578827 -0.26559377 -0.048865266 0.19328333 -0.08714524 -0.03780301 -0.039471 0.2561178
0.113370374 -0.05838497 -0.03530232 0.13396412 0.10761283 -0.23965706 -0.09757419 0.05091755
0.0039876364 -0.32161245 -0.2234785 -0.25558776 0.025421007 -0.059067965 -0.049665406 0.14072715
-0.036873654 -0.032808527 -0.053646058 -0.2445398 -0.15839009 0.113878615 -0.19380005 -0.23191157
-0.012148476 -0.035856694 -0.054347783 -0.34017774 0.0625146 -0.13398203 -0.02331404 0.16409786
0.25059703 0.30737653 0.11755565 -0.09256755 -0.05102071 0.048666254 -0.037786603 -0.07937157
-0.0031734717 -0.09277065 -0.15233162 0.046372492 -0.19400184 -0.08516875 0.025322199 -0.057456955
0.0840172 -0.020938532 0.06665254 0.008560017 0.015827183 -0.096806705 0.0046736784 -0.09667114
0.022325985 -0.14960001 0.36380643 0.09769784 -0.010312271 -0.121053204 0.005185454 0.37661642
0.44367883 -0.08359969 -0.011845765 -0.05497783 0.055678457 0.054721396 -0.11423868 0.042684555
0.14977854 -0.22175427 -0.017600253 0.019301627 -0.022096777 -0.0019257322 0.087147415 0.4531392
0.08233002 -0.07994582 -0.019705907 -0.2262379 0.38037604 0.41615596 0.0063321493 -0.027902186
0.30054495 -0.026568249 0.024039611 -0.10699421 0.36306563 -0.042102944 -0.07627155 0.37597927
0.053685345 0.117171995 -0.017977824 -0.07307358 -0.01648216 0.28097 0.28227904 0.070947364
-0.016503816 -0.032017246 -0.27342498 -0.03056636 0.021780835 0.017787442 0.09735809 0.051499277
-0.11318959 -0.011312736 -0.12395848 -0.08641884 -0.0883891 0.023402408 0.044349335 0.08353133
-0.05223208 -0.15575518 0.3675978 0.0071795434 0.0420624 0.07317074 0.022004629 0.3463144
0.35628822 0.043902606 -0.015316539 -0.02814378 -0.04594122 -0.019210527 -0.04927452 0.08932352
0.14705908 -0.14927734 -0.095727526 -0.024877168 0.009806335 -0.011637178 -0.115664005 0.29978678
0.0027562976 0.041106403 0.017445847 -0.21246445 0.35840234 0.40698624 -0.002500452 -0.034007914
0.2830478 -0.09018524 -0.050361335 -0.036171094 0.20165406 -0.055719256 0.04919083 0.22656393
0.08406656 0.08876241 0.12350243 -0.091144696 -0.10550128 0.33566016 0.45243225 0.07466836
-0.03305184 0.12472996 -0.20317166 0.06353076 -0.05992152 -0.076530665 0.049166754 0.046443522
00000000: 6a4d e23d d170 d6bc 480a edbd 9066 4fbc
00000010: 5e65 ef3d 780c 5a3d 3bee 86bd 1bdb a13d
00000020: ff9c 67bc bb56 a93e de37 16bf 2536 98bb
00000030: ebb9 3cbc 40a0 393d 28c5 7f3d d75c dfbe
00000040: 43f0 03bf 1c53 1bbd 3be7 abbb d158 863c
00000050: 54fd 24bd 6317 1dbd ba9a 93bd 2489 933d
00000060: c004 41be abe4 6d3e af99 343d fb5b a13d
00000070: a2aa e23b c5da a0bd c81b b5bd 0726 bebe
00000080: f493 13bd a00c 75bd 000d 14bc 6b03 be3e
00000090: 82a1 bebe e048 13bf eb69 7ebd 2f03 e2bc
000000a0: 6cc5 52be ccad eabd 2c64 58bd ccea df3d
000000b0: 24b5 8fbe d7e6 0a3b 3979 7cbd 754c c5be
000000c0: 5345 b33c f209 64be 028e fa3d 627a b03d
000000d0: 40f9 f6bd 8de7 c8be 853e aebe 4450 74bd
000000e0: 69a0 04bd b8fb dcbc afd7 873e 8eef 77bd
000000f0: a9c7 afbb 3aa5 f7bd 18e0 383d 7800 f3bd
00000100: 24d9 70bd 3ba0 1ebd 50f2 ca3c 32e3 9dbd
00000110: 9eef b0be 40e8 e1bd 0a04 853e 9061 3bbe
00000120: 01ac 21be e8fb 87be f226 48bd 11ec 453e
00000130: 3479 b2bd 54d7 1abd 58ac 21bd df21 833e
00000140: ba2e e83d 1425 6fbd 2a99 10bd e42d 093e
00000150: 1e64 dc3d a968 75be fad4 c7bd ec8e 503d
00000160: b8aa 823b 63aa a4be 8cd7 64be 66dc 82be
00000170: b73f d03c 40f1 71bd f46d 4bbd c71a 103e
00000180: d408 17bd 3c62 06bd f8bb 5bbd a468 7abe
00000190: 0331 22be 3139 e93d 8573 46be 3a7a 6dbe
000001a0: 670a 47bc 78de 12bd c89b 5ebd c72b aebe
000001b0: a807 803d 9632 09be 16fd bebc 4509 283e
000001c0: 414e 803e 7560 9d3e 04c1 f03d 0e94 bdbd
000001d0: 18fb 50bd 4456 473d 20c6 1abd 908d a2bd
000001e0: 05fa 4fbb 8afe bdbd d2fc 1bbe 15f1 3d3d
000001f0: 6ba8 46be f46c aebd 8070 cf3c fc57 6bbd
00000200: 3611 ac3d 4987 abbc 2081 883d 503f 0c3c
00000210: 02a8 813c 9842 c6bd a825 993b 85fb c5bd
00000220: fce4 b63c bf30 19be d644 ba3e ce15 c83d
00000230: cdf4 28bc beea f7bd beea a93b ded3 c03e
00000240: df29 e33e 5036 abbd bd14 42bc 6f30 61bd
00000250: 180f 643d 8b23 603d f8f5 e9bd 00d6 2e3d
00000260: 8c5f 193e 8d13 63be 682e 90bc 721e 9e3c
00000270: 4d04 b5bc da68 fcba 587a b23d dc01 e83e
00000280: a49c a83d a2ba a3bd 486e a1bc e8aa 67be
00000290: a6c0 c23e 6512 d53e eb7d cf3b 2093 e4bc
000002a0: 07e1 993e a8a5 d9bc b8ee c43c c81f dbbd
000002b0: bde3 b93e 2374 2cbd 4234 9cbd 5b80 c03e
000002c0: 2ae5 5b3d dff7 ef3d 3b46 93bc 9aa7 95bd
000002d0: 9805 87bc 4ddb 8f3e e186 903e da4c 913d
000002e0: 0333 87bc 8424 03bd 5cfe 8bbe 4e66 fabc
000002f0: b96d b23c f8b6 913c ae63 c73d e8f0 523d
00000300: f2cf e7bd 0e59 39bc f2dd fdbd 5cfc b0bd
00000310: 5805 b5bd 68b6 bf3c a6a7 353d 7912 ab3d
00000320: 4ef1 55bd 497e 1fbe c735 bc3e 6042 eb3b
00000330: a049 2c3d 8ada 953d 0d43 b43c 1f50 b13e
00000340: 696b b63e 38d3 333d 39f2 7abc c98d e6bc
00000350: dc2c 3cbd 655f 9dbc 14d4 49bd 40ef b63d
00000360: a896 163e 29dc 18be cb0c c4bd 34cb cbbc
00000370: c0aa 203c dda9 3ebc 40e1 ecbd a77d 993e
00000380: 00a3 343b 305f 283d 98ea 8e3c 4890 59be
00000390: 8380 b73e 8060 d03e a0de 23bb e24b 0bbd
000003a0: a4eb 903e 0ab3 b8bd b047 4ebd 2428 14bd
000003b0: 677e 4e3e e039 64bd 537c 493d 6000 683e
000003c0: 172b ac3d 11c9 b53d d8ee fc3d 12aa babd
000003d0: 0e11 d8bd a6db ab3e 33a5 e73e baeb 983d
000003e0: 5e61 07bd 6c72 ff3d 3b0c 50be 6a1c 823d
000003f0: 4570 75bd 1cbc 9cbd 1463 493d 903b 3e3d

network.3.bias f4 [32]
0.073683016 0.07714698 0.019793274 0.02237172 -0.05048551 0.13085718 -0.007992556 0.05251512
-0.12613869 -0.02849681 -0.07458597 0.0017808205 0.024890793 -0.13200249 0.014320819 0.051120427
0.0026294554 -0.002910871 -0.07605079 -0.04057681 -0.03074417 0.040913165 0.028392073 0.003069304
0.009205816 0.054951224 0.14921127 -0.0057329657 0.032173242 0.030327138 0.03541639 0.08717128
00000000: 1fe7 963d 3cff 9d3d 8125 a23c e644 b73c
00000010: e5c9 4ebd 6dff 053e 36f3 02bc 181a 573d
00000020: 802a 01be 2472 e9bc 87c0 98bd 6c6a e93a
00000030: c7e7 cb3c a92b 07be dea1 6a3c a763 513d
00000040: f152 2c3b 50c4 3ebb 84c0 9bbd de33 26bd
00000050: 33db fbbc 9094 273d 7e96 e83c 6026 493b
00000060: fed3 163c 8914 613d d7ca 183e 9adb bbbb
00000070: 17c8 033d 9e70 f83c c710 113d db86 b23d

network.6.weight f4 [16, 32]
0.56623846 -0.1637166 -0.4394504 -0.5365652 -0.38200024 0.012935577 -0.50750506 -0.42404005
0.009879846 -0.5151033 -0.0077799647 0.4028514 -0.24754414 -0.050034367 -0.431511 -0.27561593
0.3909149 -0.47429228 -0.4926781 0.068977006 -0.4341109 -0.5733051 0.6252342 -0.61483955
-0.5569255 0.55539984 -0.113665774 -0.07989267 -0.3023237 0.43729383 0.24888076 0.14911705
0.33525518 -0.065478235 -0.27532312 -0.17335233 -0.29464835 0.13525122 -0.3627124 -0.087427415
0.15465844 -0.2697661 -0.0403225 0.255382 -0.22093725 -0.069060944 -0.14981626 -0.10390268
0.18436755 -0.16219762 -0.0357306 0.10664241 -0.05950091 -0.3204065 0.24560432 -0.13679102
-0.13455531 0.5712251 0.032433834 -0.03881512 -0.28470486 0.31390056 0.32344684 0.40286425
0.00012810489 -0.23833683 0.3721457 0.16880861 0.30046844 -0.014202524 0.19123936 0.28373227
0.016387494 0.20138542 -0.16062596 -0.17858501 0.2899764 -0.0609156 0.14230058 0.25374696
0.17110789 0.21569777 0.12036256 0.15608081 0.31588826 0.17003769 0.0035892548 0.19404052
0.2691598 -0.09459563 0.22229193 -0.035096023 0.19838394 0.013529739 -0.0370397 0.033933397
-0.16999291 -0.06988056 -0.15206116 0.12530981 -0.035180703 0.032462895 -0.07140747 -0.05826917
0.10262671 -0.015203686 -0.15081626 -0.12082054 0.04094699 -0.09295732 0.042056553 -0.14358191
0.015703393 -0.19603375 -0.022278637 -0.13911332 0.1167189 -0.062265687 -0.0060795066 -0.17868567
-0.049032986 0.0050389175 -0.12626144 -0.04881001 -0.17050412 -0.1693158 -0.16048576 -0.1706294
-0.23003569 0.30984366 0.2304086 0.13326113 0.24560814 0.25281432 0.04620861 0.27072945
-0.11055725 0.12534828 -0.043345734 -0.25550613 0.22542869 -0.057650685 0.023144111 0.22249566
-0.08001032 0.095215864 0.09803263 -0.021587282 0.18473521 0.11042935 -0.19833651 0.16348813
-0.04896884 -0.1415862 0.19389495 0.08724247 0.2121083 0.014670625 0.06992213 -0.13734172
-0.11566276 0.09692146 -0.055067476 -0.09277686 -0.087037385 -0.18770081 -0.12299444 -0.024216259
-0.14873287 -0.118139006 -0.069047935 0.111925244 -0.19598268 -0.1278597 -0.037930228 -0.06912482
-0.12628363 -0.0057402714 0.067993805 -0.12240206 -0.14196074 0.14279826 0.08378802 -0.055167574
-0.13013938 0.026033316 -0.111611106 0.020837117 0.081046775 0.024419852 0.08285957 0.07963546
0.30186915 -0.20368575 -0.29293373 -0.2625893 -0.23829633 0.026867913 -0.25754234 -0.20065627
-0.03388339 -0.31449434 0.029124562 0.30996466 -0.19938348 0.0023983624 -0.23704463 -0.2154164
0.38425818 -0.032304045 -0.21770689 -0.088191055 -0.32337335 -0.19049856 0.31970274 -0.23701325
-0.2642536 0.34822342 0.20668802 -0.057954732 -0.04864176 0.34423825 0.3923649 0.40036866
-0.23695083 0.24760798 0.31208715 0.2751022 0.16503502 0.20651002 0.013644365 0.27184907
0.1323074 0.0786753 -0.04399334 -0.18683614 0.22510786 -0.08304067 0.16572501 0.21015096
-0.06444043 0.039387695 0.24700242 -0.068724304 0.13954207 0.18545592 -0.14554743 0.18853103
0.121205874 -0.23995362 0.16422407 0.2238738 0.044644196 0.089725874 -0.04893159 -0.032879
00000000: 01f5 103f 53a5 27be a5ff e0be 565c 09bf
00000010: 8995 c3be beef 533c daeb 01bf c71b d9be
00000020: 14df 213c cfdd 03bf 13ef febb 8a42 ce3e
00000030: 367c 7dbe d6f0 4cbd 03ef dcbe 881d 8dbe
00000040: ff25 c83e 70d6 f2be 4e40 fcbe d143 8d3d
00000050: c943 debe 1fc4 12bf 590f 203f 2066 1dbf
00000060: ab92 0ebf af2e 0e3f 9ac9 e8bd c59e a3bd
00000070: 2cca 9abe fae4 df3e 99da 7e3e 24b2 183e
00000080: 91a6 ab3e 7419 86bd 27f7 8cbe 4683 31be
00000090: 26dc 96be 4c7f 0a3e 71b5 b9be 250d b3bd
000000a0: c85e 1e3e c81e 8abe 3529 25bd 6ec1 823e
000000b0: 603d 62be d36f 8dbd 6f69 19be eeca d4bd
000000c0: d9ca 3c3e 2217 26be 405a 12bd 5667 da3d
000000d0: 3ab7 73bd 520c a4be b37f 7b3e f212 0cbe
000000e0: dec8 09be cf3b 123f 57d9 043d 9afc 1ebd
000000f0: d6c4 91be 93b7 a03e d39a a53e 3944 ce3e
00000100: e553 0639 920e 74be e289 be3e 2adc 2c3e
00000110: 00d7 993e b4b1 68bc 40d4 433e 5b45 913e
00000120: 113f 863c fb37 4e3e 227b 24be fdde 36be
00000130: c977 943e a382 79bd 3eb7 113e 1feb 813e
00000140: e836 2f3e e0df 5c3e a580 f63d a6d3 1f3e
00000150: 1bbc a13e 5c1e 2e3e b439 6b3b 8fb2 463e
00000160: 50cf 893e 5bbb c1bd 7fa0 633e d9c0 0fbd
00000170: 2925 4b3e d7ab 5d3c f1b6 17bd bffd 0a3d
00000180: 9f12 2ebe 8a1d 8fbd ecb5 1bbe 3751 003e
00000190: a419 10bd d0f7 043d 143e 92bd a7ab 6ebd
000001a0: f42d d23d e218 79bc 946f 1abe c270 f7bd
000001b0: 08b8 273d 6860 bebd 7e43 2c3d 2307 13be
000001c0: 67a4 803c 12bd 48be b081 b6bc b973 0ebe
000001d0: 520a ef3d 4e0a 7fbd 9936 c7bb 60f9 36be
000001e0: d0d6 48bd 811d a53b ae4a 01be 01ed 47bd
000001f0: a298 2ebe 1f61 2dbe 6156 24be 79b9 2ebe
00000200: 7a8e 6bbe d4a3 9e3e 3bf0 6b3e 9b75 083e
00000210: b380 7b3e e170 813e 3d45 3d3d 0d9d 8a3e
00000220: d76b e2bd 4d5b 003e 4c8b 31bd b3d1 82be
00000230: c7d6 663e 2023 6cbd b898 bd3c e7d5 633e
00000240: 73dc a3bd 8900 c33d 55c5 c83d d0d7 b0bc
00000250: 3a2b 3d3e c828 e23d ba18 4bbe 6f69 273e
00000260: 8d93 48bd f9fb 10be 668c 463e 2eac b23d
00000270: eb32 593e 105d 703c 5533 8f3d 4fa3 0cbe
00000280: 99e0 ecbd c27e c63d 6f8e 61bd cb01 bebd
00000290: a840 b2bd a434 40be 82e4 fbbd 2d61 c6bc
000002a0: 6e4d 18be ddf2 f1bd 0169 8dbd 1039 e53d
000002b0: afaf 48be a7ed 02be ba5c 1bbd 5091 8dbd
000002c0: 7f50 01be e318 bcbb 5640 8b3d eead fabd
000002d0: 285e 11be b539 123e 0e99 ab3d 65f7 61bd
000002e0: 4243 05be d243 d53c 5d94 e4bd 9ab2 aa3c
000002f0: dafb a53d 240c c83c 47b2 a93d eb17 a33d
00000300: 988e 9a3e ff92 50be 69fb 95be 1b72 86be
00000310: f403 74be 191a dc3c 97dc 83be d678 4dbe
00000320: 4fc9 0abd 6705 a1be a296 ee3c b0b3 9e3e
00000330: 2f2b 4cbe d82d 1d3b d4bb 72be 1e96 5cbe
00000340: 7dbd c43e 3f51 04bd 8eee 5ebe 839d b4bd
00000350: 3191 a5be 0e12 43be 14b0 a33e 9ab3 72be
00000360: 3f4c 87be 574a b23e 06a6 533e f161 6dbd
00000370: 953c 47bd ff3f b03e 0de4 c83e 1ffd cc3e
00000380: 3da3 72be f28c 7d3e e3c9 9f3e 32da 8c3e
00000390: f1fe 283e 5d77 533e 9d8c 5f3c cd2f 8b3e
000003a0: 977b 073e 8420 a13d 5c32 34bd f951 3fbe
000003b0: ad82 663e 3a11 aabd d1b3 293e d031 573e
000003c0: 58f9 83bd fe54 213d 34ee 7c3e 54bf 8cbd
000003d0: 1ee4 0e3e 28e8 3d3e 630a 15be 470e 413e
000003e0: c93a f83d 67b6 75be 5b2a 283e 2c3f 653e
000003f0: d5dc 363d 33c2 b73d 7e6c 48bd 21ac 06bd

network.6.bias f4 [16]
0.28701454 0.24538857 -0.35482594 -0.07021958 0.028478136 -0.16635002 0.44116458 0.02578241
0.047661997 0.0664733 0.3846361 0.29483867 0.07605754 0.17401683 0.23651265 0.12197698
00000000: 92f3 923e 2447 7b3e bfab b5be 48cf 8fbd
00000010: fb4a e93c a957 2abe 53e0 e13e a235 d33c
00000020: 3a39 433d 2723 883d 06ef c43e 18f5 963e
00000030: 0ec4 9b3d 7831 323e 5f30 723e 11cf f93d

network.8.weight f4 [1, 16]
-0.7672171 -0.6050976 -0.5805013 -0.15656917 0.40918118 0.076047085 -0.45801216 0.3131745
0.35307646 0.28925487 -0.54339176 -0.5454314 0.33869553 -0.54565555 -0.6374462 0.18766405
00000000: 5768 44bf ade7 1abf bc9b 14bf ab53 20be
00000010: 3280 d13e 93be 9b3d 9280 eabe 6858 a03e
00000020: 70c6 b43e 3719 943e b91b 0bbf 64a1 0bbf
00000030: 8069 ad3e 15b0 0bbf ad2f 23bf 012b 403e
