第六次作业10245501405杨云天/model/Social Sciences, General.pth (torch, 15611 bytes, 7 tensors)

network.0.weight f4 [64, 3]
0	0xbefe29b9	-0.49641207
1	0xbd131da4	-0.03591694
2	0x3ec775e7	0.3895714
3	0xbd8899b8	-0.066699445
4	0x40015e04	2.0213633
5	0xbd340f26	-0.04395976
6	0xbefdc8f4	-0.49567378
7	0xbdb2ab18	-0.0872404
8	0xbd9f7723	-0.077863954
9	0xbf14f200	-0.5818176
10	0xbf85dd6b	-1.0458196
11	0xbf54591f	-0.8294849
12	0xbe2d8e6c	-0.16948861
13	0x3e97d0e7	0.29651567
14	0xbe46beaf	-0.19408678
15	0xbe6661dd	-0.2249827
16	0x3f0dc934	0.55385137
17	0x3eb9da36	0.36299294
18	0xbe471151	-0.194402
19	0xc00ccb00	-2.1998901
20	0xbe61acd3	-0.22038583
21	0xbf0416b6	-0.51597154
22	0x3c082453	0.008309442
23	0x3da45e02	0.08025743
24	0x3d910e85	0.070828475
25	0xbeb2e388	-0.34939218
26	0xbe6778f5	-0.22604735
27	0xbead6859	-0.33868673
28	0xc021af74	-2.5263338
29	0x3dad9e6f	0.084774844
30	0xbf28d2c2	-0.6594659
31	0xc012ad8b	-2.2918422
32	0xbf67d4e0	-0.90559196
33	0xbf57b3b2	-0.8425857
34	0xc0187e97	-2.3827264
35	0xbd0486f4	-0.032355264
36	0x3e3d88a4	0.18509156
37	0xbf031a5d	-0.512121
38	0xbe54ea8a	-0.20792595
39	0xbf00b912	-0.50282395
40	0xbd599313	-0.053118777
41	0x3e4d3792	0.2004073
42	0xbe9cbba6	-0.30611914
43	0xc013fd0b	-2.3123195
44	0xbe4a514a	-0.19757572
45	0xbeee744a	-0.46573097
46	0xbe9e3163	-0.30897054
47	0x3e1f6e22	0.15569356
48	0xbf8437b0	-1.0329494
49	0xbff18eb6	-1.8871677
50	0xbf22c682	-0.6358415
51	0x3ebe2286	0.37135714
52	0xbeb0a25c	-0.3449887
53	0x3e0d7406	0.1381379
54	0x3f6e431e	0.9307116
55	0x3fdb2bc2	1.7122729
56	0x3d9d073f	0.07667398
57	0x3e332ca3	0.17497496
58	0x3e708b2b	0.23490588
59	0xbe835b0e	-0.25655407
60	0xbe66ebff	-0.22550963
61	0x3f10c81c	0.5655534
62	0x3e2379bf	0.15964411
63	0x3c2780f5	0.010223617
64	0xbefc03c1	-0.49221614
65	0xbe924b95	-0.2857329
66	0x3f315959	0.6927696
67	0x3fe76174	1.8076615
68	0x3d0e0051	0.03466827
69	0x3f191e53	0.59811896
70	0x3f813438	1.0094061
71	0x3e0011c3	0.12506776
72	0xbf4c410f	-0.7978677
73	0xbfa123fc	-1.2589107
74	0xbf0608bf	-0.52357095
75	0x3e74a076	0.23889336
76	0xbf1211d6	-0.57058465
77	0x3ea622e7	0.32448503
78	0x3db0a6fb	0.08625599
79	0xbedf277e	-0.43584818
80	0xbe92addc	-0.2864827
81	0xbefca8f5	-0.49347654
82	0xbe8e4a5d	-0.2779111
83	0x3dc1500c	0.09439096
84	0xbe3c19b7	-0.18369184
85	0xbf89558b	-1.0729231
86	0xbf255535	-0.6458314
87	0x3e298cde	0.16557643
88	0xbee62d2e	-0.44956344
89	0x3e34789d	0.17624135
90	0xbe13a011	-0.14416529
91	0x3e97fe49	0.29686192
92	0x3e951a2b	0.29121527
93	0x3f0f13c4	0.55889535
94	0x3e87c6c0	0.26518822
95	0x3ef3699f	0.4754152
96	0x3f418498	0.75592947
97	0x3fc4be15	1.5370508
98	0x3eef4db6	0.46738976
99	0xbef626ef	-0.4807658
100	0x3f2178ea	0.63075125
101	0x3dc5d49c	0.09659693
102	0xbd4f4489	-0.05060247
103	0xc014b109	-2.3233054
104	0xbd43b5fc	-0.047780976
105	0xbf165c0e	-0.58734214
106	0xbf4fa7f6	-0.81115663
107	0xbe2a0592	-0.16603687
108	0xbe501028	-0.20318663
109	0x4000ec89	2.014437
110	0x3dcb7c3f	0.099358074
111	0xbf198972	-0.5997535
112	0xbfa9d9e8	-1.3269625
113	0x3c71bb21	0.014754088
114	0xbcc4d0a3	-0.024025267
115	0xbdb1f009	-0.08688361
116	0xbed93a4c	-0.4242729
117	0x3d9a12ae	0.07523094
118	0xbff806f7	-1.9377126
119	0xbf06846d	-0.52545816
120	0xbec3d2be	-0.3824672
121	0xc021984a	-2.52492
122	0xbbf600c0	-0.0075074136
123	0x3f55b355	0.83476764
124	0x3fa4633a	1.2842782
125	0x3f047eea	0.51756155
126	0x3f61cad5	0.8820012
127	0x3fdae60e	1.7101457
128	0x3edc21c6	0.42994517
129	0xbc96900c	-0.018379234
130	0x3d9a1996	0.075244114
131	0xbe4eac73	-0.20182972
132	0xbd957b7f	-0.07298946
133	0x3ed9633c	0.42458522
134	0xbe5d643d	-0.21620269
135	0xbf498cdb	-0.78730553
136	0xbfa7a89c	-1.309833
137	0xbedb1a6b	-0.42793593
138	0x3eb88091	0.36035588
139	0x3e8c37e1	0.27386382
140	0xbf0faa53	-0.5611927
141	0xbe4a8efa	-0.19781104
142	0x400994d6	2.1497092
143	0xbdeea393	-0.11652293
144	0x3ee4b52d	0.44669476
145	0x3fa2d81c	1.2722201
146	0x3ec7943f	0.3898029
147	0xbee389ca	-0.44441062
148	0x3c2175a9	0.0098547125
149	0xbe77aedc	-0.24187797
150	0x3eed7e0b	0.46385226
151	0x3fdd498b	1.7288069
152	0x3cb1f754	0.02172438
153	0xbece74e2	-0.4032355
154	0xc025aebe	-2.5887904
155	0x3ee4ca14	0.44685423
156	0x3d8e7b42	0.06957103
157	0xbe1acf94	-0.15118247
158	0xbef279c9	-0.4735854
159	0xbedf313e	-0.43592256
160	0xbe100056	-0.14062628
161	0xbd947754	-0.072493225
162	0xbe9388e0	-0.28815365
163	0xbe8bae2c	-0.2728132
164	0xbef19edf	-0.47191522
165	0xbe5d5f0b	-0.21618287
166	0x3ea9c1ab	0.3315557
167	0xbea6fe3c	-0.3261584
168	0xbefbc29a	-0.49171907
169	0xbec49f94	-0.38402998
170	0x3db1b38e	0.086768255
171	0xbe35a831	-0.17739941
172	0x3f129664	0.5726073
173	0x3c9282d6	0.017884653
174	0x3f2ba29b	0.6704499
175	0x400a0f15	2.1571705
176	0x3e1e9d64	0.15489727
177	0x3ebab4bb	0.3646601
178	0x3ff7aaa9	1.9348956
179	0xbb7753a2	-0.0037739058
180	0xbde6ef32	-0.11276092
181	0xc01a446c	-2.4104261
182	0xbdcca2db	-0.09992
183	0x3ee3cf06	0.44493884
184	0x3e019fee	0.12658665
185	0xbf023fef	-0.50878805
186	0xbcea92a2	-0.028634373
187	0xbe9dd087	-0.30823156
188	0x3bd2a517	0.0064283716
189	0x3e45a6ed	0.19301958
190	0xbd9ed353	-0.07755151
191	0x3f46a181	0.77590185

network.0.bias f4 [64]
0	0xbe17623d	-0.14783569
1	0xbba8e477	-0.0051541883
2	0xbf0752a1	-0.52860457
3	0x3d340fa5	0.043960232
4	0xbea052cf	-0.31313178
5	0xbec8f756	-0.39251202
6	0x3c978753	0.018497145
7	0xbd124a54	-0.035715416
8	0xbf010fab	-0.5041453
9	0x3c18a395	0.009316345
10	0x3c3bde45	0.011466567
11	0x3c373e66	0.011184311
12	0xbf06831d	-0.52543813
13	0xbe7fde3f	-0.24987124
14	0x3c206ad2	0.009791093
15	0xbed0d5ec	-0.4078821
16	0x3c25f67e	0.010129569
17	0xbee0fca2	-0.43942744
18	0xbcd71aca	-0.026257891
19	0xbebf462b	-0.3735822
20	0xbe6c86c2	-0.23098281
21	0xbee0a14b	-0.43873057
22	0xbc5c23c4	-0.013436262
23	0x3aff957a	0.0019499504
24	0x3cc4fb17	0.02404551
25	0xbeb5b407	-0.35488912
26	0xbe2a10eb	-0.16608016
27	0xbd32c181	-0.04364157
28	0x3d7098a8	0.058739334
29	0xbf01d31f	-0.5071277
30	0xbeafd2e7	-0.34340593
31	0xbe973349	-0.29531315
32	0xbd131b72	-0.035914846
33	0x3bea3596	0.007147501
34	0x3c2374df	0.009976595
35	0x3d0919cf	0.03347188
36	0xbc1ed97a	-0.009695405
37	0x3c9a1d2d	0.01881274
38	0xbe15f6f1	-0.14644982
39	0x3c515692	0.012776988
40	0x3c2cfb44	0.010557953
41	0xbcad2235	-0.021134475
42	0xbd067bc2	-0.03283287
43	0xbecf7c14	-0.40524352
44	0xbe8fd9f2	-0.28095967
45	0x3cc0059e	0.023440178
46	0xbf012f82	-0.50463116
47	0xba91b86e	-0.0011117586
48	0xbc1d1918	-0.009588502
49	0xbd853e81	-0.06506062
50	0xbc5072fc	-0.012722727
51	0x3c51fc91	0.012816564
52	0xbebb87bb	-0.36626992
53	0xbe9a4562	-0.3013106
54	0xbf019a0b	-0.50625676
55	0xbe79d32a	-0.24396959
56	0xbe06bcd1	-0.13157965
57	0xbf08a335	-0.53374034
58	0xbc883098	-0.016624734
59	0xbc34d05e	-0.011036007
60	0x3c63ea89	0.013910898
61	0xbec08877	-0.37604114
62	0xbf13bdc6	-0.57711446
63	0x3d8215e0	0.063518286

network.3.weight f4 [32, 64]
0	0xbd237238	-0.03990385
1	0xbf2dba4e	-0.67862403
2	0xbd3e00a0	-0.046387315
3	0xbcbf9e1b	-0.02339082
4	0xbd3d3b9c	-0.046199426
5	0xbdf96780	-0.12177944
6	0x3d6271f3	0.05528445
7	0x3d941cf2	0.072320834
8	0x3defc4dc	0.1170747
9	0x3f18bc82	0.5966264
10	0x3f2081a4	0.62697816
11	0x3f2a93c2	0.6663171
12	0x3ddc62fe	0.10761069
13	0x3deb120c	0.114780515
14	0x3f19276a	0.59825766
15	0x3cad7180	0.021172285
16	0x3f0ef1a4	0.55837464
17	0xbdbc5fd0	-0.09197962
18	0xbeafd4b3	-0.34341964
19	0xbc202ab0	-0.0097758025
20	0xbd947a38	-0.07249874
21	0xbdfe2066	-0.12408523
22	0xbd671151	-0.056413
23	0xbcbae7f0	-0.022815675
24	0x3cf0ae4a	0.029379983
25	0x3d9b3c58	0.07579869
26	0x3d89cca2	0.06728484
27	0xbc9f5cf8	-0.01945351
28	0xbd2eff1b	-0.042723756
29	0x3b91be60	0.0044477433
30	0x3dd6830c	0.10474214
31	0xbda74b56	-0.08168666
32	0xbe842ab3	-0.25813827
33	0xbc8caece	-0.017173197
34	0x3eb62a9e	0.3557939
35	0xbca00910	-0.019535571
36	0xbc7eab5c	-0.015543785
37	0x3c3c0884	0.01147664
38	0x3dee44b8	0.11634201
39	0x3e88ebfb	0.2674254
40	0x3f17c0ce	0.5927857
41	0x3cc2eaf8	0.023793682
42	0xbdbe49ef	-0.092914455
43	0xbcce0940	-0.025150895
44	0x3c678c90	0.014132634
45	0x3d3ca208	0.046052963
46	0xbdf24b4e	-0.118307695
47	0xbf43e7a5	-0.76525337
48	0xbce4e476	-0.02794097
49	0x3d489044	0.048965707
50	0xbf20f0b7	-0.628673
51	0x3e923f58	0.28563952
52	0x3dc29336	0.095007345
53	0xbd69c3f4	-0.05707164
54	0x3da8a2ea	0.082341984
55	0xbddc305e	-0.10751413
56	0xba6b1700	-0.0008967966
57	0x3db04c0a	0.08608253
58	0xbeaea258	-0.34108233
59	0x3ccdd9f4	0.025128342
60	0x3da01da5	0.07818154
61	0x3de27f9c	0.11059496
62	0x3c024b10	0.007952467
63	0xbc562bef	-0.013071998
64	0x3be7c060	0.0070724934
65	0x3e2c5c4a	0.1683208
66	0xbd6fdfac	-0.05856292
67	0xbd8dd753	-0.069258355
68	0xbce15348	-0.027505532
69	0xbd701483	-0.05861331
70	0x3d09bc89	0.033627067
71	0x3c446890	0.01198782
72	0x3db5530a	0.08853729
73	0xbd61b5ae	-0.055104904
74	0xbd3db592	-0.046315737
75	0xbce9af34	-0.028525926
76	0xbccfa210	-0.025345832
77	0x3ca0fc78	0.019651636
78	0xbdf9fad7	-0.12206047
79	0xbce61a70	-0.028088778
80	0x3cbfa3e7	0.023393584
81	0x3dfa2dd8	0.12215775
82	0x3e4136c4	0.18868548
83	0x3c952d98	0.018210217
84	0xbd4535ed	-0.04814713
85	0x3d623660	0.055227637
86	0xbd2cc996	-0.042184435
87	0xbdacf74b	-0.08445605
88	0xbd9eab1f	-0.077474825
89	0xbd6f2f8c	-0.058394954
90	0xbc676e80	-0.014125466
91	0xbd39ea74	-0.045389608
92	0x3da2b490	0.07944596
93	0x3d6e509c	0.058182344
94	0xbd84eb0e	-0.064901456
95	0xbe464e1e	-0.19365737
96	0x3e58f42e	0.21186897
97	0xbcd2b10e	-0.025719192
98	0x39007d6b	0.00012253753
99	0x3d888eaf	0.0666784
100	0x3c031175	0.007999768
101	0x3cd64682	0.026156668
102	0xb8884800	-6.4983964e-05
103	0xbdcb0ec6	-0.09914927
104	0xbdcba054	-0.099426895
105	0xbc186652	-0.009301739
106	0x3e18541d	0.14875837
107	0x3da5c6d0	0.08094561
108	0x3df25226	0.11832075
109	0xbdf51c44	-0.11968282
110	0xbd2077fc	-0.039176926
111	0x3dbe46d3	0.092908524
112	0xbd0d0726	-0.034430645
113	0x3c90ab50	0.017659813
114	0x3e4adbd3	0.19810419
115	0xbe0f183d	-0.1397409
116	0x3da4b2f4	0.08041945
117	0xbdbf2a34	-0.093342215
118	0xbdeff4a8	-0.11716586
119	0x3d9a4764	0.07533148
120	0xbde39382	-0.11112119
121	0xbdd92bb4	-0.10604039
122	0x3e01f976	0.12692818
123	0xbdaf0fc2	-0.085479274
124	0xbc9933f0	-0.018701524
125	0x3dd82cd0	0.10555422
126	0xbdf24724	-0.11829975
127	0xbe02af0e	-0.1276209
128	0xbceef468	-0.029169276
129	0xbf58eb95	-0.8473447
130	0x3d9a7338	0.075415075
131	0xbcc34793	-0.02383784
132	0xbd641bc0	-0.055690527
133	0x3d92311c	0.07138273
134	0x3cfb1ed8	0.030654356
135	0xbd978a46	-0.073994204
136	0x3df6a9b0	0.12044084
137	0x3f5b1c00	0.855896
138	0x3f129275	0.57254726
139	0x3f7867bf	0.97033304
140	0xbdcdd02c	-0.10049471
141	0x3d375d14	0.0447665
142	0x3f5b7aa5	0.85734016
143	0xbd2290f8	-0.039689034
144	0x3f525b3c	0.8217046
145	0xbd3f1fb0	-0.04666108
146	0xbee7e6f8	-0.45293403
147	0xbd2b24b0	-0.041783035
148	0xbdf661a0	-0.12030339
149	0xbd645cd0	-0.055752575
150	0xbba49b52	-0.0050233984
151	0x3c340113	0.010986584
152	0x3dc22d81	0.094813354
153	0x3d7b12ec	0.061297342
154	0x3d84b01c	0.06478903
155	0x3d0ec29c	0.034853563
156	0x3ce0fc00	0.027463913
157	0x3d8641f0	0.06555545
158	0xbc040fa0	-0.008060366
159	0x3c854310	0.01626733
160	0xbed127a2	-0.4085055
161	0xbb0f6641	-0.0021881016
162	0x3ecb09b4	0.3965584
163	0x3d7a6d78	0.061139554
164	0xbcafbb3c	-0.021451585
165	0x3d4afa3f	0.04955506
166	0x3db628a8	0.08894473
167	0x3e3b9545	0.1831866
168	0x3f26be3d	0.6513403
169	0x3d7a3ff0	0.06109613
170	0xbe282409	-0.16419996
171	0x3d45f690	0.048330843
172	0x3d91d31c	0.07120344
173	0xbcb92823	-0.022602146
174	0x3da68d32	0.081323996
175	0xbf70da6c	-0.94083285
176	0x3cae7baf	0.021299211
177	0x3de38670	0.11109626
178	0xbf639a64	-0.88907456
179	0x3ebb8270	0.36622953
180	0x3c98eff8	0.018669114
181	0x3de7c712	0.113172665
182	0xbdaab6bc	-0.08335635
183	0xbd976f88	-0.0739432
184	0xbd56b5f0	-0.052419603
185	0x3c9acbb8	0.018895969
186	0xbecad485	-0.39615265
187	0xbd347ec9	-0.044066224
188	0x3e1180c3	0.14209275
189	0x3dd0d12a	0.10196145
190	0x3c8e1698	0.017344758
191	0x3cbde0bc	0.02317845
192	0xbd8ede92	-0.06976046
193	0x3eb104fb	0.34574112
194	0xbcb6dd48	-0.022322312
195	0xbe2614f4	-0.1621893
196	0xbd874712	-0.066053525
197	0x3c263c72	0.010146247
198	0xbdda5426	-0.10660581
199	0xbd87088e	-0.065934286
200	0xbc5cc940	-0.013475716
201	0xbe4688c0	-0.19388103
202	0xbebee27c	-0.3728217
203	0xbe913a23	-0.28364667
204	0xbd249e2c	-0.040189907
205	0xbd93b208	-0.07211691
206	0xbe335dca	-0.17516246
207	0xbae8a100	-0.0017748177
208	0xbe91a991	-0.2844968
209	0xbdbfb57a	-0.09360786
210	0x3e91e094	0.28491652
211	0xbd9b5326	-0.07584219
212	0x3c39e6da	0.011346543
213	0x3de48cd4	0.11159673
214	0x3e0f6a8f	0.14005493
215	0x3e201174	0.15631658
216	0xbe3700c4	-0.17871386
217	0x3dc39f80	0.095519066
218	0x3c4b47c0	0.012407243
219	0x3cdd9c50	0.027052075
220	0xbe0ff8d8	-0.1405977
221	0x3dab82e0	0.08374572
222	0x3dbf9c52	0.093559876
223	0xbd983490	-0.074319005
224	0x3e8357be	0.2565288
225	0x3d52f016	0.051498495
226	0xbdb52b95	-0.08846203
227	0x3d10684b	0.03525571
228	0x3e5096a5	0.20369966
229	0xbda3697c	-0.07979104
230	0x3c7573e0	0.01498124
231	0x3b57edfa	0.0032948242
232	0xbe312301	-0.17298509
233	0x3da2de0c	0.07952508
234	0x3e8bd035	0.27307287
235	0x3c806f00	0.015677929
236	0x3c9a7690	0.018855363
237	0xbca85d21	-0.02055222
238	0x3dce62f0	0.100774646
239	0x3e5e74b0	0.217242
240	0x3cda56c1	0.026652696
241	0xbd815c56	-0.0631644
242	0x3e85dd0c	0.26145208
243	0xbe1c860d	-0.15285511
244	0x3da4b6aa	0.08042653
245	0xba202300	-0.0006108731
246	0x3dbc679e	0.09199451
247	0x3d973e66	0.073849484
248	0x3ca3d378	0.019998297
249	0x3c8c4c58	0.017126247
250	0x3e00d053	0.1257947
251	0x3db6a789	0.089186735
252	0xbdec68af	-0.11543404
253	0xbdc27b98	-0.0949623
254	0x3d8c6bd4	0.06856504
255	0x3d94be78	0.072628915

network.3.bias f4 [32]
0	0x3b45ca02	0.003018022
1	0xbe2efdea	-0.17089048
2	0xba55f85f	-0.00081623154
3	0x3c0ba68a	0.008523593
4	0x3cc808b0	0.024418205
5	0x3c93cd05	0.018042097
6	0x3ba6b1cc	0.005087113
7	0x3c22b3ae	0.009930534
8	0x3cb6bedb	0.022307804
9	0x3c3f2f87	0.011669046
10	0x3bf8a918	0.007588517
11	0x3c82cce9	0.01596685
12	0x3c991142	0.018684987
13	0xbb3c4f09	-0.0028733632
14	0x3b82e340	0.0039943755
15	0xbde3f22b	-0.11130174
16	0x3c8d6e9c	0.017264657
17	0x3b96acc2	0.004598231
18	0x3ca50517	0.020144029
19	0x3c350a15	0.011049767
20	0xbbaa20b2	-0.005191886
21	0x3b948079	0.0045319167
22	0x3bd3140e	0.0064415997
23	0x3bef5a04	0.007304432
24	0x3cac142b	0.02100571
25	0x3c863783	0.016383892
26	0x3cac2e4a	0.021018166
27	0x3b13fa14	0.0022579478
28	0x3cbe11fc	0.023201935
29	0x3ae1e61a	0.0017234713
30	0x3c174903	0.009233716
31	0x3be1c4da	0.0068899216

network.6.weight f4 [16, 32]
0	0xbeb8009b	-0.35937962
1	0x3d1cd7dc	0.038291797
2	0xbe8ed03e	-0.2789325
3	0x3d2a03dc	0.041507587
4	0x3d991725	0.074751176
5	0x3d8913f1	0.06693257
6	0xbe49334e	-0.19648477
7	0x3e51c3af	0.20484804
8	0xbd3f3bd1	-0.046687905
9	0x3e8a0226	0.26954764
10	0x3e31a80e	0.17349264
11	0x3df125c6	0.11774783
12	0xbb1adda2	-0.0023630639
13	0xbe32317c	-0.1740169
14	0xbe72c73a	-0.23708811
15	0x3e0da1ef	0.13831304
16	0xbd917417	-0.071022205
17	0xbe47a64f	-0.19497035
18	0xbd786e1a	-0.060651876
19	0xbcbed703	-0.023295885
20	0xbcd8c0f2	-0.026459191
21	0xbdabdab8	-0.08391327
22	0x3d75500a	0.059890784
23	0x3e65c8f8	0.22439945
24	0xbd8a0808	-0.06739813
25	0xbd3430d2	-0.04399187
26	0x3e1b26c5	0.15151508
27	0xbef1fa51	-0.4726129
28	0x3e5b50a5	0.21417482
29	0x3d5e2f53	0.05424435
30	0xbe9c8591	-0.30570653
31	0xbea0ab3e	-0.31380647
32	0xbe3ce354	-0.18446094
33	0xbe11de87	-0.14245044
34	0xbe90c243	-0.2827321
35	0x3d9a6fb5	0.07540838
36	0x3db5bfd2	0.088744774
37	0xbd252920	-0.040322423
38	0xbe1bcaf5	-0.1521414
39	0x3e3ff702	0.1874657
40	0x3e3f797b	0.18698685
41	0x3e8c84a1	0.27444938
42	0x3e8d10c3	0.2755185
43	0x3c07a09b	0.008278037
44	0x3d9b998d	0.07597647
45	0xbe8ddfd9	-0.27709845
46	0xbe12875b	-0.14309447
47	0xbd996563	-0.07490041
48	0xbe185587	-0.14876376
49	0xbe387ce8	-0.18016398
50	0xbd82b358	-0.06381863
51	0x3e555181	0.20831873
52	0xbd34439e	-0.044009797
53	0x3e071afc	0.13193887
54	0x3d045e41	0.03231645
55	0x3e472c6b	0.19450538
56	0x3e2a3734	0.16622621
57	0x3ce9d52b	0.02854403
58	0x3e3a7df3	0.18212108
59	0xbea136d4	-0.31487143
60	0x3ef5b90c	0.47992742
61	0x3da8a948	0.08235413
62	0xbea1bcb8	-0.31589293
63	0xbe7f8a4e	-0.24955103
64	0x3f1a48a6	0.602671
65	0xbd8c7c8b	-0.06859692
66	0x3f1bc7ad	0.60851556
67	0x3cedc0f1	0.029022666
68	0xbe22ab6b	-0.15885703
69	0xbe55677e	-0.2084026
70	0x3f008499	0.5020233
71	0xbf036c15	-0.51336795
72	0xbed281c3	-0.41114625
73	0xbef26198	-0.47340083
74	0xbe9235b1	-0.28556588
75	0xbe84c6b5	-0.2593285
76	0xbea75442	-0.3268147
77	0x3eb492e3	0.35268316
78	0x3ea42fb2	0.3206764
79	0xbcfa9045	-0.030586371
80	0x3ef15933	0.47138366
81	0x3f0494e2	0.5178968
82	0x3e4994ab	0.19685619
83	0xbeaa356f	-0.33243892
84	0x3e61deac	0.22057599
85	0xbeaa9145	-0.33313957
86	0xbec5449b	-0.38528904
87	0xbea46843	-0.32110795
88	0xbe974b0f	-0.29549453
89	0xbebcd042	-0.36877638
90	0xbeceadd1	-0.40366986
91	0x3eed4812	0.46344048
92	0xbf05b055	-0.52222186
93	0xbda9a6ef	-0.08283793
94	0x3f17ac55	0.5924733
95	0x3f041d91	0.51607615
96	0x3f238899	0.63880306
97	0xbda8858a	-0.082285956
98	0x3ef79566	0.4835617
99	0xbdcf0f3f	-0.1011033
100	0xbf03f54e	-0.5154618
101	0xbdd2297d	-0.102618195
102	0x3ee9e800	0.45684814
103	0xbf1aecb9	-0.6051746
104	0xbef2d905	-0.47431198
105	0xbee89313	-0.4542471
106	0xbe5ad21b	-0.21369211
107	0xbf031ebd	-0.5121878
108	0xbedd2594	-0.43192732
109	0x3f0192eb	0.50614804
110	0x3f22f5fa	0.6365658
111	0xbdd8509b	-0.10562249
112	0x3ee7193b	0.45136437
113	0x3e90ba64	0.28267205
114	0x3ec2748c	0.37979543
115	0xbefb9180	-0.49134445
116	0x3e539c9f	0.20665215
117	0xbf0dd56f	-0.554038
118	0xbf003baf	-0.5009107
119	0xbee0e5ae	-0.43925232
120	0xbee44dd2	-0.44590622
121	0xbf0a28b4	-0.5396836
122	0xbeece6a9	-0.4626973
123	0x3f2b77bf	0.66979593
124	0xbefb04de	-0.4902715
125	0xbe819304	-0.25307477
126	0x3ef35ada	0.47530252
127	0x3f322270	0.695838
128	0x3ebf3b31	0.37349847
129	0xbdd36a86	-0.10323052
130	0x3eb842bd	0.35988417
131	0xbd8cf363	-0.0688236
132	0xbd6b4829	-0.057441864
133	0xbe7f8895	-0.24954446
134	0x3edfdf23	0.43724927
135	0xbe88ba03	-0.26704416
136	0xbdfd385a	-0.12364264
137	0xbeaaa1c3	-0.3332654
138	0xbe68c139	-0.22729959
139	0xbe41ac2c	-0.18913335
140	0xbe1447e8	-0.14480555
141	0x3ede0c3e	0.43368715
142	0x3e8df975	0.27729383
143	0xbdbdd1aa	-0.09268506
144	0x3e558d4d	0.20854683
145	0x3eaa04ed	0.33206883
146	0x3e6ded04	0.23234946
147	0xbe8d747f	-0.27627942
148	0x3e3732ba	0.17890444
149	0xbe9bfbf4	-0.30465662
150	0xbeb4b4e6	-0.35294265
151	0xbdfcfcc0	-0.12352896
152	0xbe3f1947	-0.18661986
153	0xbe174a8d	-0.14774533
154	0xbe1c44c0	-0.15260601
155	0x3edfcd01	0.43711093
156	0xbeb66f7a	-0.35631925
157	0xbe931cec	-0.28733003
158	0x3ece0db7	0.4024484
159	0x3f15c04c	0.58496547
160	0xbed4e054	-0.415774
161	0xbe276e30	-0.16350627
162	0xbe11e7ed	-0.14248629
163	0x3e73bdfb	0.2380294
164	0x3e1f929e	0.15583274
165	0x3e2dd764	0.16976696
166	0xbeb20cee	-0.3477549
167	0x3c0b1ed9	0.008491241
168	0x3e7d978c	0.24764842
169	0x3de46ff9	0.111541696
170	0x3ebe4dc7	0.37168714
171	0x3e4902ae	0.19629928
172	0x3e9ebf5b	0.31005368
173	0xbee1f80a	-0.4413455
174	0xbe2eb9a0	-0.17062998
175	0x3db258f5	0.087083735
176	0xbeaa494d	-0.3325905
177	0xbeb1347e	-0.3461036
178	0x3d7a043b	0.06103919
179	0x3d6293da	0.055316783
180	0x3d5d3027	0.054001
181	0x3eaf8207	0.3427889
182	0x3ea15a4d	0.31514207
183	0x3e4d50c8	0.20050347
184	0x3dbdcc5e	0.092674956
185	0x3d467774	0.048453763
186	0x3e7ba7de	0.24575755
187	0xbe9d2638	-0.3069322
188	0x3e317203	0.17328648
189	0x3e95ac72	0.29233128
190	0xbed1806f	-0.409183
191	0xbe6374a8	-0.2221247
192	0x3f02cd56	0.5109457
193	0xbc88faeb	-0.01672121
194	0x3f00a239	0.5024753
195	0x3d78fbb1	0.060786907
196	0xbebaa6aa	-0.3645528
197	0xbe4562c9	-0.19275965
198	0x3ed53e4f	0.416491
199	0xbec0546e	-0.37564415
200	0xbe348bf0	-0.17631507
201	0xbec17a44	-0.37788594
202	0xbf031982	-0.51210797
203	0xbece605d	-0.40307894
204	0xbedfe321	-0.43727973
205	0x3ec4a857	0.38409683
206	0x3f167779	0.5877605
207	0x3cf73207	0.030175222
208	0x3f05daef	0.5228719
209	0x3f017172	0.5056373
210	0x3d7213a6	0.05910077
211	0xbebc523d	-0.36781493
212	0x3eae0537	0.33988354
213	0xbe866331	-0.26247552
214	0xbeaa63e3	-0.33279333
215	0xbea27577	-0.31730244
216	0xbe84ef6c	-0.25963914
217	0xbea47a3b	-0.32124504
218	0xbe9b2349	-0.30300358
219	0x3eed7464	0.46377861
220	0xbee0f5f3	-0.43937644
221	0xbea38ec7	-0.31944868
222	0x3f2b9f66	0.670401
223	0x3f2a6f2e	0.66575897
224	0xbe065e66	-0.13121948
225	0x3eee5ef1	0.4655681
226	0xbe1da170	-0.15393615
227	0x3d81d207	0.06338888
228	0x3e92b413	0.2865301
229	0x3e889728	0.26677823
230	0x3d8fec15	0.07027451
231	0x3e824ace	0.25447696
232	0x3e790466	0.24318084
233	0x3ed31a30	0.41230917
234	0x3e6792e5	0.2261463
235	0x3e4bf5a5	0.19917925
236	0x3e845864	0.25848687
237	0xbe240efb	-0.1602134
238	0x3e09f1c6	0.13471135
239	0xbdecf0ba	-0.115693524
240	0xbe1c26ea	-0.1524922
241	0xbe330a74	-0.17484456
242	0xbd9b539e	-0.07584308
243	0x3e641e21	0.22277118
244	0x3e08424c	0.1330654
245	0x3e0442e9	0.12916149
246	0x3e60a2b3	0.21937065
247	0x3e97e6eb	0.29668364
248	0x3e424c3e	0.18974397
249	0x3e258188	0.16162694
250	0x3e8a87c3	0.27056703
251	0xbd78aedc	-0.060713634
252	0x3eb0d9eb	0.34541258
253	0x3e5ca8ef	0.21548818
254	0x3e0111e0	0.12604475
255	0xbd824552	-0.06360878

network.6.bias f4 [16]
0	0x3de68c58	0.11257237
1	0x3dc90846	0.09816031
2	0x3e13052b	0.1435744
3	0x3e42fb14	0.19041091
4	0x3e63969d	0.22225423
5	0x3e178876	0.1479815
6	0x3e7127fd	0.2355041
7	0xbf26b518	-0.6512008
8	0x3e999eb8	0.30003905
9	0x3e312819	0.17300452
10	0x3e0968b9	0.13418855
11	0x3db37cbc	0.087640256
12	0x3e3f9815	0.18710358
13	0xbe1da7b9	-0.15396012
14	0x3e0cdfd1	0.13757254
15	0x3e3f3c5d	0.1867537

network.8.weight f4 [1, 16]
0	0x3eca80dc	0.39551437
1	0x3e5c07da	0.2148737
2	0xbf39fede	-0.7265452
3	0xbf2dc044	-0.678715
4	0xbf262ff7	-0.6491694
5	0x3ea80512	0.32816368
6	0xbf216d34	-0.63057256
7	0xbf90a835	-1.1301333
8	0xbf1f674a	-0.6226698
9	0xbf17a056	-0.5922903
10	0xbf2e9014	-0.68188596
11	0x3ed8137b	0.42202362
12	0xbf2e1410	-0.6799936
13	0xbbf3d606	-0.007441285
14	0x3f02b17b	0.51052064
15	0x3eed10e8	0.4630196
