第六次作业10245501405杨云天/model/Space Science.pth (torch, 15393 bytes, 7 tensors)

network.0.weight f4 [64, 3]
0	0x3df8b33c	0.12143561
1	0xbb652678	-0.0034965556
2	0xbf1756ba	-0.5911671
3	0xbf0176f9	-0.5057216
4	0x3e1984e2	0.14992097
5	0xbe664b2f	-0.22489618
6	0xbef215a7	-0.47282144
7	0x3f07c8d9	0.53040844
8	0xbeccc87c	-0.39996707
9	0xbe891c80	-0.26779556
10	0x3e9951da	0.2994526
11	0x3e346839	0.17617883
12	0x3d00f5ba	0.031484343
13	0x3f19db4e	0.6010026
14	0x3e950110	0.29102373
15	0xbed8a394	-0.423123
16	0xbe888005	-0.2666017
17	0xbf43086a	-0.76184714
18	0xbea69f3e	-0.32543367
19	0x3df8ee85	0.12154869
20	0xbf32327c	-0.69608283
21	0xbf0d423e	-0.551792
22	0xbf3fa5b9	-0.7486225
23	0xbf1f65aa	-0.622645
24	0xbf066002	-0.52490246
25	0x3f042ded	0.5163258
26	0xbec3de64	-0.38255608
27	0x3f00f24b	0.5036971
28	0x3f2bc92d	0.67103845
29	0x3ecacd8b	0.39609942
30	0xbf2d1e98	-0.6762481
31	0xbf1f5843	-0.6224405
32	0xbdb33ffe	-0.0875244
33	0x3e6e025f	0.23243092
34	0xbf0abb0a	-0.5419165
35	0xbe8c039e	-0.2734651
36	0xbf11a329	-0.5688959
37	0x3e98385b	0.29730496
38	0xbf3b43e8	-0.7315049
39	0xbd77254a	-0.060338296
40	0xbf50d34a	-0.815724
41	0xbf2f83da	-0.68560565
42	0xbeb79007	-0.35852072
43	0xbe8b9531	-0.27262262
44	0x3e36834c	0.17823523
45	0xbf087fce	-0.53320014
46	0xbf4b5806	-0.7943119
47	0x3d1d063b	0.03833602
48	0xbdf96ee7	-0.12179356
49	0xbea5d3d3	-0.32388172
50	0xbf0c0a40	-0.5470314
51	0x3d4e151d	0.050313104
52	0x3bd8fdc1	0.0066220467
53	0x3e3ab76c	0.18234032
54	0xbe2bf19d	-0.16791387
55	0x3f469eff	0.7758636
56	0x3e053697	0.13009106
57	0xbf2b8fb4	-0.6701615
58	0xbf40a8ab	-0.75257367
59	0x3d95b6c9	0.07310254
60	0xbd2b1d8a	-0.041776218
61	0xbe860851	-0.2617822
62	0xbe2e2ec5	-0.17010029
63	0xbf0da3f2	-0.55328286
64	0x3e5334ef	0.20625661
65	0xbed3b525	-0.4134914
66	0x3ec5ada8	0.38609052
67	0xbf2de1ee	-0.67922866
68	0xbee9e8f6	-0.45685548
69	0xbd3f660e	-0.046728186
70	0xbef5e245	-0.48024192
71	0x3ed59dfe	0.417221
72	0x3e016291	0.12635256
73	0x3ee8b7d7	0.4545276
74	0x3eeb66d7	0.45976898
75	0xbdf0239b	-0.11725541
76	0xbf065d96	-0.5248655
77	0x3e5880ec	0.2114293
78	0x3c674057	0.014114461
79	0x3dcc88f1	0.09987057
80	0xbeb0cf0b	-0.3453296
81	0xbf1498b7	-0.58045524
82	0xbe3f8eb3	-0.18706779
83	0x3e2c047f	0.1679859
84	0x3e756a7f	0.23966406
85	0x3e245290	0.1604712
86	0xbefb4b21	-0.49080756
87	0xbf26cd7f	-0.6515731
88	0xbf67eacf	-0.90592664
89	0xbeac9964	-0.33710778
90	0x3e563e58	0.2092222
91	0xbd358d6b	-0.04432432
92	0x3e0e1d70	0.13878417
93	0x3ec15eb5	0.37767568
94	0xbee79cea	-0.45236903
95	0xbedf6768	-0.4363358
96	0xbeec1e7d	-0.4611701
97	0xbedaaf76	-0.4271199
98	0xbe919c47	-0.28439543
99	0x3f0cced7	0.5500311
100	0x3ef866aa	0.48515826
101	0x3d480107	0.048829105
102	0xbe5f11ce	-0.21784136
103	0x3d8a4e9e	0.06753276
104	0x3e52eac5	0.2059737
105	0xbe21378c	-0.15743846
106	0x3e0be3fe	0.13661191
107	0x3f0b3104	0.54371667
108	0x3e59fe37	0.21288382
109	0xbf186a61	-0.5953732
110	0x3e8690a2	0.2628222
111	0x3f07397d	0.52822095
112	0x3dae875d	0.08521912
113	0x3f1a8393	0.60357016
114	0xbeb0832f	-0.34475085
115	0xbe7dc016	-0.24780306
116	0x3ed0e978	0.40803123
117	0xbd114598	-0.03546676
118	0x3eda8d5c	0.42685974
119	0x3f010f64	0.5041411
120	0xbf209da2	-0.6274053
121	0xbf675d9b	-0.90377206
122	0x3e874e03	0.26426706
123	0xbe05e08b	-0.13073938
124	0xbf20a5c2	-0.62752926
125	0xbf40fa27	-0.753817
126	0x3ea6eb2e	0.32601303
127	0xbc6ab117	-0.014324448
128	0xbd8c1f06	-0.06841855
129	0xbe13bcca	-0.14427486
130	0xbed6b470	-0.41934538
131	0xbe26c94a	-0.16287723
132	0x3e2634aa	0.16231027
133	0x3f05694a	0.52113783
134	0x3f36920a	0.7131659
135	0x3e855478	0.26041007
136	0xbef6a001	-0.48168948
137	0xbd480442	-0.048832186
138	0xbf0d262f	-0.5513639
139	0xbf57acd6	-0.842481
140	0xbe27f78f	-0.1640303
141	0xbef5d3f7	-0.4801328
142	0x3e99273e	0.29912752
143	0x3e5a021b	0.21289866
144	0x3ee04f6b	0.4381059
145	0x3d62d7c4	0.05538155
146	0xbf009785	-0.502312
147	0xbeb8fc0f	-0.36129805
148	0xbf478e22	-0.7795125
149	0xbd6669bd	-0.056253184
150	0x3e3f8933	0.18704681
151	0x3ef03aca	0.46919852
152	0x3f003586	0.5008167
153	0x3f0e1128	0.5549493
154	0x3ec17b58	0.37789416
155	0xbe2aade5	-0.16667898
156	0xbe9e2bf0	-0.30892897
157	0xbe19cfcd	-0.15020676
158	0xbf15d3e5	-0.5852645
159	0xbd16361c	-0.036672696
160	0x3f609cd0	0.87739277
161	0x3e5ec44e	0.21754572
162	0xbf08fb01	-0.53508
163	0xbf0c3b97	-0.54778427
164	0x3df02960	0.11726642
165	0xbf14081c	-0.57824874
166	0xbef453d0	-0.47720194
167	0xbf1e4e32	-0.61838067
168	0xbd52031c	-0.051272497
169	0xbec2d3d4	-0.38052237
170	0x3edadc79	0.42746332
171	0xbec36343	-0.38161668
172	0x3d9c7588	0.07639605
173	0xbdfb347c	-0.1226587
174	0xbe673de3	-0.22582202
175	0x3ef04a51	0.469317
176	0xbe52dd3d	-0.20592208
177	0x3f01c9dc	0.5069864
178	0x3f0caa00	0.549469
179	0xbc2e4093	-0.010635513
180	0x3e87422f	0.26417682
181	0xbd5948f4	-0.05304809
182	0xbe78739c	-0.24262851
183	0x3f10651c	0.5640428
184	0xbddfbfab	-0.1092523
185	0x3e9d3608	0.30705285
186	0xbe50ed4b	-0.2040302
187	0x3f38bc4d	0.72162324
188	0x3ee78dc5	0.4522535
189	0x3e89ddcc	0.2692703
190	0x3f3aff22	0.7304555
191	0x3e0155d5	0.12630399

network.0.bias f4 [64]
0	0x3eb8c0a3	0.3608447
1	0xbe150b99	-0.14555205
2	0xbedffec5	-0.4374906
3	0x3ef78aa0	0.4834795
4	0xbc47335c	-0.012158241
5	0x3e655dd6	0.22399077
6	0x3d8d8cce	0.06911622
7	0x3e13a67d	0.14418979
8	0xbe164fac	-0.1467883
9	0xbd27a74e	-0.04093104
10	0x3e3f7b17	0.18699299
11	0xbd6abebb	-0.0573108
12	0x3e7c4c41	0.24638464
13	0x3e899ed7	0.26878998
14	0xbf079b73	-0.5297157
15	0x3dac31a0	0.08407903
16	0xbf0687d7	-0.52551025
17	0xbee14b43	-0.44002733
18	0x3bf3a4e5	0.0074354284
19	0x3e7839ac	0.2424075
20	0x3db2dfc3	0.087340854
21	0x3edffd53	0.4374796
22	0x3ef2bf92	0.47411782
23	0xbe3b75ea	-0.183067
24	0xbddc5c4b	-0.10759791
25	0xbe4b9d5d	-0.19884248
26	0xbebe8f94	-0.37218916
27	0x3e6a8067	0.22900544
28	0x3ee50009	0.4472659
29	0x3e2d0f51	0.16900374
30	0xbf0860cc	-0.532727
31	0xbeb7fe82	-0.35936362
32	0xbddb4d53	-0.10708108
33	0xbce8f05a	-0.028434921
34	0xbf10992c	-0.5648372
35	0x3e3b5fec	0.1829831
36	0x3e5d6a2a	0.2162253
37	0xbd096082	-0.033539303
38	0x3f02f991	0.5116206
39	0xbc4c1f53	-0.01245864
40	0x3dcb549e	0.09928249
41	0x3e872499	0.2639511
42	0xbe99d3a7	-0.3004429
43	0xbf0948d7	-0.5362677
44	0xbd046ce1	-0.032330398
45	0xbf0eba2c	-0.55752826
46	0x3e8db623	0.27678022
47	0xbe127c4e	-0.14305231
48	0xbec1a24d	-0.37819138
49	0x3e1716fd	0.14754863
50	0x3e560777	0.20901285
51	0xbc2507fd	-0.010072705
52	0x3dd6925c	0.104771346
53	0xbc0872d6	-0.00832816
54	0x3d93628a	0.07196529
55	0x3e48be3a	0.19603816
56	0x3e051afe	0.12998578
57	0xbf0a29d3	-0.5397007
58	0xbed1948c	-0.40933645
59	0x3e94eebe	0.29088396
60	0xbed99fcf	-0.42504737
61	0x3ee2495c	0.44196594
62	0x3e563465	0.20918424
63	0xbde516d7	-0.11185997

network.3.weight f4 [32, 64]
0	0x3d7f133b	0.0622742
1	0x3de6f07e	0.11276339
2	0xbdff2318	-0.124578655
3	0x3d670a8e	0.05640655
4	0xbde68a62	-0.11256863
5	0x3bba21b0	0.0056802854
6	0x3d8b544c	0.06803188
7	0x3e35f600	0.17769623
8	0xbd8f84e8	-0.07007772
9	0xbe0b7cf6	-0.13621888
10	0xbd3dbc84	-0.04632236
11	0xbc7963f0	-0.015221581
12	0x3cc50644	0.02405084
13	0x3e21f086	0.15814409
14	0xbcebc240	-0.028779149
15	0x3e8efd3e	0.27927583
16	0xbd276484	-0.040867344
17	0xbda49c8e	-0.08037673
18	0xbd973ea6	-0.07384996
19	0x3b52d7ea	0.0032172152
20	0xbc43190d	-0.011907828
21	0x3d95d607	0.07316213
22	0x3d08b86a	0.033378996
23	0x3da9a3ee	0.0828322
24	0xbde1b682	-0.11021139
25	0x3d5ebf0c	0.054381415
26	0x3d6bfdb0	0.057614982
27	0x3d23391b	0.039849382
28	0x3dcdae1b	0.100429736
29	0x3e1ece2d	0.15508337
30	0xbd6de688	-0.05808118
31	0xbdef31e8	-0.11679441
32	0xbde8cc24	-0.11367062
33	0xbe0d9ca6	-0.13829288
34	0xbdb5b174	-0.08871737
35	0x3db905fa	0.09034343
36	0x3d7a1607	0.061056163
37	0xbd536fb1	-0.05162019
38	0x3e0a2ce2	0.13493684
39	0xbe2299f9	-0.15879048
40	0x3da0911b	0.07840177
41	0x3dd48e76	0.10378735
42	0x3dec058c	0.115244955
43	0xbd946352	-0.07245506
44	0xbd4bc05b	-0.04974399
45	0x3d62b9dc	0.05535303
46	0x3dce36e8	0.10069066
47	0x3d425d04	0.047451988
48	0xbdbb0c60	-0.0913322
49	0x3e4caf7c	0.19988817
50	0xbb096a55	-0.002096792
51	0xbc2337cc	-0.0099620335
52	0x3e2c12fe	0.1680412
53	0xbea767db	-0.32696423
54	0x3d787cf4	0.06066604
55	0x3df92234	0.12164727
56	0xbcc77b0d	-0.024350667
57	0xbdf65e1a	-0.12029667
58	0xbd4be9f8	-0.049783677
59	0x3d58b966	0.052911185
60	0xbc5388a0	-0.012910992
61	0x3b04eb4f	0.0020281856
62	0x3ddc2840	0.107498646
63	0xbe9397ab	-0.2882665
64	0x3d78c3c6	0.06073358
65	0x3d7105f4	0.058843568
66	0xbbbae560	-0.005703613
67	0xbd184941	-0.037179235
68	0x3e82fda9	0.25584152
69	0x3d470f35	0.048598487
70	0xbe5feb42	-0.21867087
71	0xbe6fb347	-0.23408233
72	0x3d221514	0.039570883
73	0x3e2bfa3f	0.1679468
74	0xbcaf4c4c	-0.021398686
75	0x389ea000	7.5638294e-05
76	0x3dbb56f8	0.09147447
77	0xbe2baf40	-0.16766071
78	0x3db58bd0	0.08864558
79	0xbe6bd83f	-0.2303171
80	0xbba3dda0	-0.005000785
81	0x3d90b03e	0.070648655
82	0x3e8631c2	0.26209837
83	0x3d26b70b	0.040701907
84	0xbe38666b	-0.1800782
85	0x3d93f6ae	0.07224785
86	0xbd9aa987	-0.07551866
87	0xbd455444	-0.048176065
88	0x3e591574	0.2119959
89	0xbc218b80	-0.00985992
90	0xbccdf820	-0.02514273
91	0x3d96e740	0.07368326
92	0x3e064215	0.13111146
93	0xbe55e3f1	-0.20887734
94	0x3c02cda0	0.007983595
95	0xbdc688a6	-0.09694032
96	0xbd55fb84	-0.052241817
97	0x3e3a1126	0.18170604
98	0xbdf415a6	-0.119181916
99	0x3c15b78e	0.009138001
100	0x3cf7ae42	0.03023446
101	0x3e210ced	0.15727587
102	0x3d14e31e	0.03634941
103	0x3d8be504	0.06830791
104	0xbe4beb9b	-0.19914095
105	0x3c892a61	0.01674384
106	0x3d85d58a	0.0653487
107	0xbdb795d6	-0.08964126
108	0x3dd4a660	0.10383296
109	0xbc90ea68	-0.017689899
110	0xbca9bfd0	-0.020721346
111	0x3da9da06	0.08293538
112	0xbdb11e40	-0.08648348
113	0xbe609adb	-0.21934073
114	0x3db67bf9	0.08910365
115	0x3d8c7b93	0.068595074
116	0xbd9cafcf	-0.0765072
117	0x3e71b5a6	0.2360445
118	0xbe30e124	-0.17273384
119	0xbe693716	-0.2277492
120	0xbd1b4e43	-0.037916433
121	0xbdbc9dc6	-0.092097804
122	0x3d72ae78	0.059248418
123	0x3bc011c7	0.005861494
124	0xbcf9f968	-0.030514434
125	0x3cda0adc	0.026616506
126	0x3d1183d7	0.035526123
127	0x3e981d89	0.29710034
128	0x3dd19bec	0.10234818
129	0xbddddc96	-0.10833089
130	0x3d5b4fa4	0.053542748
131	0xbb4bf035	-0.0031118516
132	0xbe2a2d83	-0.16618924
133	0x3e296ef5	0.16546233
134	0x3e61b919	0.22043265
135	0x3e21d493	0.15803747
136	0x3da1a0f8	0.078920305
137	0xbe35381e	-0.17697188
138	0x3e1846ce	0.1487076
139	0xbd4e47bc	-0.05036138
140	0x3dd04f97	0.101714306
141	0x3e438643	0.19094186
142	0x3dd74238	0.10510677
143	0x3ea5a9e1	0.3235617
144	0xbc3f9480	-0.01169312
145	0xbd506d20	-0.05088532
146	0xbe0e3afd	-0.1388969
147	0x3ca97e4b	0.020690104
148	0x3d5cc46d	0.053898264
149	0xbd6fa65f	-0.058508273
150	0xbda9ac28	-0.08284789
151	0xbc6c3dd0	-0.014419034
152	0xbdf86887	-0.12129312
153	0xbcbabcb8	-0.022795066
154	0xbdd3eace	-0.1034752
155	0xbc971fee	-0.018447842
156	0x3d125dd6	0.03573402
157	0x3e841ee6	0.25804824
158	0x3b9a7a60	0.0047142953
159	0xbd915ad4	-0.07097402
160	0x3de6c7da	0.112685874
161	0xbdb28181	-0.08716107
162	0xbd90f0b4	-0.070771605
163	0x3d8c1e5d	0.06841729
164	0x3cca7f2c	0.024718843
165	0xbe1fe421	-0.15614368
166	0x3d8b9cbd	0.06817005
167	0xbe51cd23	-0.2048841
168	0x3e984adb	0.2974461
169	0x3d380bf4	0.044933274
170	0x3dfaf724	0.122541696
171	0x3d16f6bc	0.036856398
172	0xbe2ecbdb	-0.17069952
173	0x3d0e6c60	0.034771323
174	0x3dd28487	0.10279184
175	0xbd877970	-0.06614959
176	0x3d65f628	0.056142956
177	0x3e078e22	0.13237813
178	0xbded4e8c	-0.11587247
179	0xbe092c3a	-0.13395777
180	0x3e30dbab	0.17271297
181	0xbe4bed51	-0.19914748
182	0x3e91cb7f	0.28475568
183	0x3e7219c1	0.23642637
184	0x3dcb8a61	0.09938503
185	0x3dbd5f32	0.09246673
186	0xbb1b0940	-0.0023656636
187	0xbd804b58	-0.06264371
188	0x3d444a08	0.047922164
189	0x3db4d905	0.08830456
190	0xbd91211e	-0.07086395
191	0x3cc6c52b	0.024263939
192	0xbdda6c49	-0.10665185
193	0xbd37c3f8	-0.044864625
194	0x3d99ba76	0.07506268
195	0x3c3babde	0.011454551
196	0x3e18ee59	0.14934672
197	0xbd54387c	-0.05181168
198	0xbda272c6	-0.079320475
199	0x3c29941a	0.010350252
200	0xbb8e84c0	-0.004349321
201	0xbd841461	-0.064491995
202	0xbe6b07ce	-0.22952196
203	0x3dd78fbc	0.10525462
204	0xbe02ab49	-0.12760653
205	0xbd99c2b9	-0.075078435
206	0x3d5fe4c8	0.054661542
207	0xbdf9ac11	-0.12191022
208	0xbde2c5fe	-0.1107292
209	0xbbd7bac0	-0.0065835416
210	0x3e32e725	0.17470987
211	0xbd8b0a20	-0.067890406
212	0xbe011b35	-0.12608035
213	0xbda779e1	-0.081775434
214	0xbdd6ba97	-0.10484808
215	0x3d47a0ac	0.048737213
216	0x3e7b74a7	0.24556218
217	0x3de4f030	0.11178625
218	0xbd1aa938	-0.037759036
219	0x3cea0ff3	0.028572058
220	0xbd382e2c	-0.044965908
221	0x3d928696	0.071545765
222	0xbd897a40	-0.067127705
223	0xbcda4248	-0.026642933
224	0x3d4d2670	0.050085485
225	0x3e1d2420	0.15345812
226	0xbdd14a20	-0.10219216
227	0x3d9d1ac7	0.07671123
228	0xbdaa6e9c	-0.08321878
229	0xbc928fa9	-0.017890768
230	0x3c6ab7a8	0.014326014
231	0x3d8ef9e6	0.06981258
232	0x3b28dd36	0.0025766618
233	0xbdae1736	-0.08500521
234	0x3c0258b0	0.007955715
235	0x3db64c2a	0.08901246
236	0x3e080e63	0.13286738
237	0xbcb69960	-0.022289932
238	0xbe1d8161	-0.15381385
239	0x3daec7c4	0.08534196
240	0xbccdc008	-0.025115982
241	0xbcac01d3	-0.020996964
242	0x3deb8d30	0.11501539
243	0x3da52b1c	0.08064863
244	0x3db49160	0.088167906
245	0x3e01eab6	0.12687191
246	0xbdc4e409	-0.09613807
247	0xbd2e21da	-0.042512752
248	0xbd850880	-0.06495762
249	0xbc468030	-0.012115523
250	0xbdf725d6	-0.120677635
251	0xbc344584	-0.011002902
252	0x3d609ee8	0.054839045
253	0x3d9ef4bb	0.077615224
254	0x3dbc212a	0.09186013
255	0x3e317090	0.17328095

network.3.bias f4 [32]
0	0x3c9b8b92	0.01898745
1	0xbd0cb1b1	-0.034349147
2	0xbd3c4b5d	-0.04597031
3	0x3cba8817	0.02276997
4	0x3e01c7be	0.12673852
5	0x3d86e23a	0.06586118
6	0xbd9a691e	-0.07539581
7	0x3debae8e	0.11507903
8	0x3e23b587	0.15987216
9	0xbcbf6596	-0.02336387
10	0xbddce11b	-0.10785123
11	0xbd90d0e2	-0.07071091
12	0x3d161052	0.036636658
13	0xbde8fd3c	-0.113764256
14	0x3d5d2607	0.053991344
15	0xbb930f21	-0.0044878875
16	0xbc97925b	-0.018502405
17	0x3d4a1770	0.049338758
18	0xbccd4b38	-0.025060281
19	0xbd656eec	-0.056013986
20	0x3d1f60ee	0.0389108
21	0x3dba156f	0.090861194
22	0xbbc65f16	-0.0060538156
23	0x3e0260a2	0.12732175
24	0xbc526f0d	-0.012843859
25	0x3cc712e9	0.02430101
26	0x3d9ccf60	0.07656741
27	0x3ca1192f	0.019665329
28	0x3e0c9f82	0.13732722
29	0x3dd755c4	0.10514405
30	0x3c9504a5	0.018190691
31	0xbdc559da	-0.096362785

network.6.weight f4 [16, 32]
0	0x3e81a06b	0.25317702
1	0xbcddc4b9	-0.027071344
2	0x3db4a4b0	0.08820474
3	0x3c936f0d	0.01799729
4	0xbd321738	-0.043479174
5	0xbe17534a	-0.14777866
6	0x3d1f69fa	0.038919427
7	0x3e1f6527	0.1556593
8	0x3e2bf6be	0.16793343
9	0xbdd95f57	-0.10613888
10	0xbd662aa0	-0.056192994
11	0x3de584de	0.11206983
12	0xbd572c69	-0.052532587
13	0x3d972fb8	0.073821485
14	0xbba1bd02	-0.0049358616
15	0xbd06086c	-0.032722875
16	0x3e513c66	0.20433196
17	0x3e0cc40a	0.13746658
18	0x3e1b78e5	0.15182836
19	0xbd2447e6	-0.04010763
20	0x3db761aa	0.08954175
21	0x3e551466	0.20808563
22	0x3d355a47	0.04427555
23	0x3cb04f35	0.021522144
24	0xbd31ea28	-0.0434362
25	0xbd4615bd	-0.048360575
26	0x3e720dcb	0.23638074
27	0x3cef0d89	0.029181259
28	0xbd0ad6b2	-0.033896156
29	0x3e0d395d	0.13791414
30	0x3d8fcb17	0.07021158
31	0x3d91e30d	0.071233846
32	0xbd3e8f6d	-0.0465235
33	0x3d98cde0	0.074611425
34	0x3dc5f433	0.09665718
35	0x3eb9df75	0.36303297
36	0x3d9448c2	0.0724044
37	0xbd978ae3	-0.073995374
38	0x3c66dced	0.014090759
39	0xbd1e1302	-0.038592346
40	0x3e5cd260	0.21564627
41	0x3e1318de	0.14364955
42	0xbe124e2b	-0.14287631
43	0xbd5a628a	-0.05331663
44	0x3dd8eb1c	0.105917186
45	0x3b36c43e	0.0027887966
46	0xbd9a4460	-0.07532573
47	0x3e50f1ef	0.2040479
48	0xbda6a14c	-0.08136234
49	0x3dc68b02	0.096944824
50	0xbda625fe	-0.08112715
51	0xbd233cf3	-0.039853048
52	0x3db66935	0.089067854
53	0x3e0f6a9d	0.14005513
54	0x3d266a5d	0.04062878
55	0x3dc930f8	0.09823793
56	0x3de910c5	0.11380152
57	0xbd9a1535	-0.07523576
58	0x3ddd178e	0.10795508
59	0xbd98a82b	-0.074539505
60	0x3e07235f	0.13197087
61	0x3df39320	0.11893296
62	0x3d6628b8	0.056191176
63	0xbcdcf92d	-0.026974285
64	0xbd74ce7e	-0.05976724
65	0xbe289c99	-0.16465987
66	0xbdf4345d	-0.1192405
67	0x3d5a6f65	0.05332889
68	0xbd7c3bc8	-0.06158045
69	0x3d3a5e73	0.04550023
70	0xbdcddb84	-0.10051635
71	0xbe227b76	-0.15867409
72	0x3db92ce8	0.09041768
73	0x3e82c5f2	0.25541645
74	0xbdd9743c	-0.10617873
75	0xbdd16c31	-0.10225714
76	0xbc3a7c95	-0.011382242
77	0xbdf9df9d	-0.12200854
78	0xbe2c66b3	-0.16836052
79	0x3de6d0e4	0.112703115
80	0xbd583636	-0.052786075
81	0x3d87234f	0.065985315
82	0x3e0cd3c3	0.13752656
83	0x3d37a4e6	0.044834994
84	0xbcbe6d3b	-0.023245445
85	0x3c7945a7	0.01521436
86	0x3d3cce7a	0.04609535
87	0x3dbc73db	0.09201785
88	0x3de1859d	0.11011813
89	0xbd6682f1	-0.05627722
90	0xbda3fcde	-0.08007215
91	0xbd3955bd	-0.045247782
92	0xbc9e0d3f	-0.019293426
93	0xbd943ee1	-0.07238556
94	0x3d5e9d3a	0.05434916
95	0xbd40ebc4	-0.047099844
96	0xbd204523	-0.039128434
97	0x3e5ab5e4	0.21358448
98	0xbdecc5b0	-0.115611434
99	0x3e64c62b	0.2234122
100	0x3e38c67b	0.18044464
101	0x3ceecedb	0.02915137
102	0xbd9ecee0	-0.07754302
103	0xbdd2954f	-0.102823846
104	0x3e5fc5f8	0.21852863
105	0x3d890937	0.06691211
106	0xbdc47204	-0.09592059
107	0xbdeb22d7	-0.114812545
108	0x3e2814ef	0.16414236
109	0x3d8c4914	0.06849876
110	0xbdfd7cfd	-0.12377355
111	0x3e130b7f	0.14359854
112	0xbe0d833a	-0.1381959
113	0xbe21d6ed	-0.15804644
114	0xbded7fdd	-0.115966536
115	0x3e32570e	0.17416021
116	0xbc6b0415	-0.014344235
117	0x3d63fa73	0.05565877
118	0x3d140593	0.03613813
119	0x3e48d721	0.19613315
120	0x3e4cc3fb	0.19996636
121	0x3b83c850	0.004021682
122	0x3cfb8354	0.03070227
123	0xbcacfef6	-0.021117669
124	0x3d2009a2	0.039071687
125	0xbdd4dce3	-0.10393693
126	0x3e3531fd	0.1769485
127	0x3d47f87d	0.04882096
128	0x3d99af1d	0.07504103
129	0xbc90a1a5	-0.017655203
130	0xbdeed622	-0.11661936
131	0x39f9655c	0.000475685
132	0x3d2b6443	0.041843664
133	0x3c3d7082	0.0115624685
134	0x3cf81e8b	0.030288002
135	0xbe13056e	-0.1435754
136	0xbdc1143f	-0.0942769
137	0x3ddb4473	0.10706415
138	0xbe0c9749	-0.13729586
139	0xbdf2b299	-0.11850471
140	0x3d4f6532	0.050633617
141	0xbdad62f0	-0.084661365
142	0xbb7e7896	-0.00388292
143	0x3daf90cf	0.08572542
144	0x3dacc8da	0.08436747
145	0xbe087f3c	-0.13329786
146	0xbe5162ec	-0.20447892
147	0x3e50ae08	0.20378888
148	0xbcd64e72	-0.026160453
149	0x3dc82210	0.09772122
150	0x3e045181	0.12921716
151	0xbca3e149	-0.020004885
152	0x3e783c61	0.24241783
153	0x3da5ca64	0.080952436
154	0x3cb8fb41	0.022580745
155	0x3d43a40f	0.04776388
156	0xbc76a71b	-0.0150544895
157	0xbde42c6b	-0.111412846
158	0x3e418a22	0.1890035
159	0xbda3693e	-0.07979058
160	0xbde0f1bd	-0.10983608
161	0xbe43436a	-0.19068685
162	0x3e2a5ab2	0.1663616
163	0x3da89556	0.082316086
164	0xbd62339f	-0.05522501
165	0x3da74c82	0.081688896
166	0x3e04272e	0.12905571
167	0x3e457815	0.19284089
168	0x3cae43c4	0.021272548
169	0x3cd3f738	0.025874719
170	0x3d25f89d	0.0405203
171	0x3e15cd13	0.14629011
172	0x3d40d105	0.047074337
173	0x3da5c057	0.080933265
174	0x3e096db1	0.1342075
175	0xbdd27984	-0.102770835
176	0x3e5e2246	0.21692762
177	0xbe2af1dd	-0.16693826
178	0x3d2bd831	0.041954223
179	0xbc53aafa	-0.012919182
180	0xba93f581	-0.0011288376
181	0xbe381076	-0.1797503
182	0x3d37946f	0.04481929
183	0xbdd85843	-0.105637096
184	0xbc756fec	-0.014980298
185	0xbe2b6619	-0.16738166
186	0x3e4a4a8d	0.19755001
187	0x3d82795d	0.063708045
188	0x3d1bd251	0.03804237
189	0x3e29490a	0.16531768
190	0x3d805698	0.062665164
191	0x3dc602ba	0.09668489
192	0x3cae81e4	0.021302171
193	0xbda2f73e	-0.07957314
194	0x3e5e9c9a	0.21739426
195	0x3d0cc6bf	0.034369227
196	0x3dd1ef94	0.10250774
197	0xbc72116e	-0.014774663
198	0x3da10e61	0.07864071
199	0x3d4dcc90	0.050243914
200	0xbd9bc746	-0.07606368
201	0xbdd7e3b7	-0.1054148
202	0xbe252bbe	-0.16129968
203	0x3e313af4	0.17307645
204	0xbe113047	-0.14178573
205	0xbda93b8d	-0.082633115
206	0x3e5d1dbb	0.21593373
207	0xbe29ace4	-0.16569859
208	0x3e6e1b64	0.23252636
209	0x3ce27d66	0.027647685
210	0x3e92f60d	0.28703347
211	0xbdcf0273	-0.10107889
212	0x3e3c7471	0.18403794
213	0x3d14c5d5	0.03632148
214	0xbcde1a20	-0.027112067
215	0xbc372b46	-0.011179751
216	0xbd73b5ca	-0.05949954
217	0x3cd90611	0.02649215
218	0x3e4069e3	0.18790393
219	0xbe380bc8	-0.17973244
220	0xbe537a18	-0.20652044
221	0xbcbd52a0	-0.023110688
222	0xbe1d7599	-0.15376891
223	0xbcac3544	-0.021021493
224	0xbcb3d306	-0.02195121
225	0x3d8db3b0	0.06919038
226	0xbda7d947	-0.08195739
227	0x3de0ea3b	0.10982176
228	0x3e154d1e	0.14580199
229	0x3dbb872a	0.0915664
230	0x3dd335c2	0.10312988
231	0xbd0712b3	-0.032976817
232	0xbd32f25d	-0.043688167
233	0xbd4c6bdc	-0.04990755
234	0xbddb7de0	-0.10717368
235	0x3d3fd91a	0.046837904
236	0x3e2bea33	0.16788559
237	0x3e2b7d76	0.16747078
238	0xbdd474e0	-0.10373855
239	0x3e04e3bc	0.12977499
240	0x3caef3cc	0.021356486
241	0x3c04ca39	0.008104854
242	0xbe14d206	-0.14533243
243	0x3e3703b0	0.178725
244	0xbdc98c74	-0.098412424
245	0x3da3a214	0.07989898
246	0x3e80bd55	0.2514445
247	0x3e4d72fd	0.20063396
248	0x3d996fc2	0.07492019
249	0x3a9e0b24	0.0012057764
250	0x3c612930	0.01374273
251	0x3d76ca83	0.060251724
252	0x3e944e5e	0.2896604
253	0xbbf08537	-0.007340099
254	0x3de81f02	0.11334039
255	0x3d9c87d3	0.07643094

network.6.bias f4 [16]
0	0x3d71a960	0.05899942
1	0xbdcf4317	-0.10120218
2	0xbe0eeeb1	-0.13958241
3	0x3e2bfe0f	0.16796134
4	0x3ddf0af0	0.10890758
5	0xbc2b162a	-0.010442296
6	0x3e3c55ef	0.18392156
7	0x3d05ae3a	0.03263686
8	0x3e89bc37	0.2690141
9	0x3e50cebf	0.20391367
10	0x3e3f074e	0.1865513
11	0x3e1e9911	0.15488078
12	0x3ceef25f	0.029168306
13	0x3e466560	0.19374609
14	0xbdcdf458	-0.100563705
15	0x3abbcf64	0.0014328775

network.8.weight f4 [1, 16]
0	0xbe860e2e	-0.26182693
1	0x3e6afbe9	0.22947659
2	0x3d9f74b3	0.077859305
3	0x3e64dc9f	0.22349785
4	0x3e356649	0.177148
5	0xbe55279b	-0.2081589
6	0xbe857332	-0.2606445
7	0x3e50eb1f	0.20402192
8	0xbe9d18b6	-0.30682915
9	0x3e95e244	0.2927419
10	0xbea22728	-0.316705
11	0xbece0155	-0.4023539
12	0xbe3c9cdb	-0.1841921
13	0x3e81b638	0.25334334
14	0x3dcf1d60	0.10113025
15	0x3ea7c8d2	0.327704
